checkpoints/model_epoch_5.pth (torch, 464935 bytes, 21 tensors)

enc1.weight f4 [32, 3, 3, 3]
0.109262854 0.25571227 0.08688757 0.15802328 -0.043831233 0.11489356 -0.27364767 -0.12916303
-0.2724111 0.17189486 0.1505518 0.13114777 0.107390255 -0.04521581 0.02789669 -0.19445623
-0.03424816 -0.31401786 0.12709658 0.25158164 0.22914325 -0.18094039 -0.17597018 0.093628414
-0.17586848 -0.20098986 0.005318886 0.22382826 0.13752571 0.14714867 -0.18031254 0.10649293
-0.16769339 0.07036597 -0.2499741 -0.13031977 0.005876772 0.22925605 0.37489045 -0.0800449
0.21042006 -0.14752069 0.015866304 -0.27647474 -0.37794757 0.07451877 0.06964897 0.06857532
-0.0038428141 -0.04793892 0.102421686 0.072880104 -0.20693673 -0.184775 0.080551535 -0.19444063
-0.13542375 0.07750019 -0.1606859 -0.11872457 -0.1260202 -0.110595174 0.17476758 -0.19111268
0.12028748 0.04839392 0.15814894 0.005300103 0.058811046 -0.081948996 -0.092505366 0.01818489
-0.14417839 0.042594127 -0.12107317 0.18640281 -0.023268387 0.04005099 0.015826441 0.08623867
-0.08944201 0.145432 0.21412738 -0.013557351 -0.18866445 -0.17067836 0.16376643 0.115567654
-0.22933376 -0.14562564 0.084478535 0.2445158 0.35625812 -0.16109516 -0.3676083 -0.1858487
0.1230645 -0.28853956 0.09683616 -0.08995572 0.22272848 0.12042506 -0.1899885 -0.16233586
-0.06595443 0.042557154 -0.12423722 0.21400523 -0.26842397 0.09576565 -0.058276 0.02728625
-0.05299682 -0.2409343 -0.027664412 -0.08649947 -0.051556397 0.24310966 0.39752123 0.10344232
-0.091799594 0.20539689 -0.018096877 0.22439195 -0.21289381 0.12434634 -0.20175047 0.03377835
-0.2465495 -0.122473605 -0.009150825 0.07700156 0.053975236 -0.23368834 -0.026561933 -0.29152024
-0.33130512 -0.20884304 0.052459177 -0.2206928 0.014216814 0.07919852 -0.22852086 -0.019452319
-0.18003799 -0.17924373 0.1286072 -0.1837989 -0.13883571 0.06351496 0.021090455 0.047567952
0.25214514 -0.10516785 0.16328675 0.063225165 0.17663744 0.032711282 0.20194498 -0.09181037
0.19406249 0.23342712 0.003402187 -0.17289804 0.06136243 0.019126778 -0.15785961 -0.3245781
-0.05648954 -0.19984536 -0.3097787 -0.07592043 -0.0032902546 -0.083089076 -0.22684066 -0.10847032
-0.20868513 -0.14892365 0.011459202 -0.1894774 0.26481172 0.1128383 0.12468882 0.057245582
0.17365324 -0.11833976 0.28015116 0.26874408 0.20764214 -0.16337767 0.20364785 0.08980142
0.11304214 0.09141659 -0.021674981 0.1264091 -0.23182887 -0.19838828 0.16696465 0.21324973
-0.060009878 0.19075114 -0.049672082 -0.18941517 -0.098261975 -0.11233068 -0.26967204 0.18263224
0.102584325 0.11266007 0.05794994 0.0886826 -0.05877292 0.14490087 -0.018728066 -0.15337871
0.13763858 0.11772421 0.07845924 -0.22576605 -0.031437483 -0.04403684 -0.074204415 -0.0023256196
-0.2034368 0.22892663 0.0287419 0.22906642 -0.19085686 -0.17000435 0.109220736 0.032297913
-0.23488839 -0.09813912 0.11179152 0.13489237 0.15550916 -0.19036695 -0.09281147 0.14252035
0.10401943 -0.1843413 0.18227592 -0.3173682 -0.19920497 -0.18491536 -0.0074632047 0.179146
0.017894387 0.17597559 0.2787048 -0.006152328 -0.35203168 -0.08628614 -0.3430603 -0.069378026
00000000: 34c5 df3d b8ec 823e 1cf2 b13d dbd0 213e
00000010: 6188 33bd 514d eb3d 8c1b 8cbe 5043 04be
00000020: 7879 8bbe 3505 303e 402a 1a3e 9a4b 063e
00000030: 6cef db3d 3734 39bd 9987 e43c 891f 47be
00000040: cc47 0cbd f3c6 a0be 9b25 023e 4fcf 803e
00000050: 87a4 6a3e 7048 39be 8731 34be 41c0 bf3d
00000060: de16 34be 49d0 4dbe 0d4a ae3b 3c33 653e
00000070: 8ad3 0c3e 24ae 163e daa3 38be f718 da3d
00000080: d1b7 2bbe 091c 903d 36f9 7fbe 8c72 05be
00000090: f091 c03b 19c2 6a3e a4f1 bf3e 95ee a3bd
000000a0: 5b78 573e aa0f 17be 0dfa 813c 198e 8dbe
000000b0: 5882 c1be 4c9d 983d 1fa4 8e3d 3871 8c3d
000000c0: b9d7 7bbb 9a5b 44bd 76c2 d13d 2a42 953d
000000d0: 39e7 53be a835 3dbe 34f8 a43d 721b 47be
000000e0: 86ac 0abe 6bb8 9e3d d88a 24be de25 f3bd
000000f0: 700b 01be b97f e2bd 46f6 323e 0bb3 43be
00000100: 4859 f63d b438 463d ccf1 213e 7dac ad3b
00000110: dae3 703d e0d4 a7bd 7473 bdbd 7af8 943c
00000120: 80a3 13be 2e77 2e3d 36f5 f7bd 61e0 3e3e
00000130: 589d bebc 820c 243d 74a6 813c e69d b03d
00000140: 5f2d b7bd 20ec 143e 3544 5b3e a71f 5ebc
00000150: 4131 41be 4fc6 2ebe 63b2 273e bcae ec3d
00000160: 78d6 6abe e31e 15be 1503 ad3d 5a62 7a3e
00000170: 7767 b63e 21f6 24be 2837 bcbe 1f4f 3ebe
00000180: 3e09 fc3d 75bb 93be 0952 c63d b43a b8bd
00000190: ef12 643e 6aa1 f63d 588c 42be 5f3b 26be
000001a0: 1e13 87bd 6950 2e3d 1570 febd 3024 5b3e
000001b0: de6e 89be c820 c43d d1b2 6ebd 6a87 df3c
000001c0: 3213 59bd 7bb7 76be 7aa0 e2bc a226 b1bd
000001d0: cd2c 53bd bdf1 783e e787 cb3e 91d9 d33d
000001e0: 6d01 bcbd 9053 523e e73f 94bc 01c7 653e
000001f0: d600 5abe 4ba9 fe3d ad97 4ebe 2b5b 0a3d
00000200: 7977 7cbe 71d3 fabd 58ed 15bc feb2 9d3d
00000210: 2315 5d3d ff4b 6fbe 6998 d9bc 2442 95be
00000220: d3a0 a9be f3da 55be 6fdf 563d 4bfd 61be
00000230: a4ed 683c d532 a23d 5f01 6abe 785a 9fbc
00000240: e15b 38be ab8b 37be 9bb1 033e c735 3cbe
00000250: f32a 0ebe 2214 823d e4c5 ac3c 9dd6 423d
00000260: 2b19 813e 3e62 d7bd a434 273e 327c 813d
00000270: 72e0 343e 44fc 053d aaca 4e3e 1307 bcbd
00000280: 51b8 463e 8507 6f3e 3af7 5e3b 2f0c 31be
00000290: 2c57 7b3d c3af 9c3c f3a5 21be 1a2f a6be
000002a0: 9361 67bd 43a4 4cbe 509b 9ebe 2c7c 9bbd
000002b0: 50a1 57bb 9b2a aabd eb48 68be b025 debd
000002c0: 8eb1 55be 717f 18be 60bf 3b3c 5d06 42be
000002d0: 6795 873e c417 e73d da5c ff3d 587a 6a3d
000002e0: 28d2 313e 1e5c f2bd f96f 8f3e d398 893e
000002f0: 24a0 543e 7a4c 27be 1089 503e cfe9 b73d
00000300: a382 e73d 9f38 bb3d bb8f b1bc 6371 013e
00000310: 8c64 6dbe 4c26 4bbe c8f8 2a3e 235e 5a3e
00000320: ebcc 75bd 4454 433e f474 4bbd 0df6 41be
00000330: 933d c9bd a10d e6bd 7412 8abe f203 3b3e
00000340: bb17 d23d 53ba e63d eb5c 6d3d 399f b53d
00000350: e0bb 70bd e560 143e 9a6b 99bc 4f0f 1dbe
00000360: 21f1 0c3e 6419 f13d 3daf a03d 372f 67be
00000370: 97c4 00bd f95f 34bd 7cf8 97bd 6c69 18bb
00000380: bd51 50be be6b 6a3e 2274 eb3c 6390 6a3e
00000390: fb6f 43be 9f15 2ebe 1faf df3d d14a 043d
000003a0: 9586 70be 2afd c8bd f4f2 e43d 3a21 0a3e
000003b0: cb3d 1f3e 8eef 42be f113 bebd dbf0 113e
000003c0: 2408 d53d f7c3 3cbe 8aa6 3a3e 167e a2be
000003d0: 63fc 4bbe 745a 3dbe e68d f4bb 0d72 373e
000003e0: 4097 923c f232 343e 65b2 8e3e 7899 c9bb
000003f0: 7f3d b4be cab6 b0bd 9aa5 afbe 1116 8ebd

enc1.bias f4 [32]
0.002974035 0.0039985953 -0.11111584 -0.0015231268 -0.023691125 0.08377153 0.025574574 -0.13044024
-0.29415077 0.004641896 0.13617678 0.0023054439 -0.16900375 0.025778988 0.021190913 -0.17397378
-0.00565851 -0.09990069 -0.27597988 -0.17840059 -0.058882892 -0.015806084 -0.22348793 0.013279591
-0.2172818 -0.054051094 -0.13561024 -0.16488196 -0.017976632 -0.09537143 0.016083753 0.057909444
00000000: 07e8 423b a606 833b b490 e3bd a8a3 c7ba
00000010: e413 c2bc 6890 ab3d c581 d13c 2092 05be
00000020: ee9a 96be 0c1b 983b ed71 0b3e ee16 173b
00000030: 520f 2dbe 752e d33c 9198 ad3c 2f26 32be
00000040: 066b b9bb bc98 ccbd 3c4d 8dbe a5ae 36be
00000050: 302f 71bd c37b 81bc 05da 64be a492 593c
00000060: 1f7f 5ebe ae64 5dbd 69dd 0abe d1d6 28be
00000070: bb43 93bc 1952 c3bd 13c2 833c 7432 6d3d

enc2.weight f4 [64, 32, 3, 3]
-0.043799203 -0.09889984 -0.10413616 0.041546565 0.017967435 0.09237279 0.21313387 -0.09968711
0.08722 -0.107172854 -0.20342831 -0.32157183 0.057075698 -0.11886899 0.080099985 0.3501733
0.01728046 0.25925133 -0.0014754918 -0.046561684 0.004875324 -0.018857744 -0.01548057 -0.03011665
0.040991053 -0.026363194 -0.013328258 -0.2471743 -0.27202 -0.29924947 0.13760318 0.11336811
0.26687038 0.25479996 0.1065205 0.34736967 -0.12112389 -0.10357825 -0.13695104 0.089816384
0.033691525 -0.043914225 0.19515151 0.19522658 0.14073718 -0.3112834 -0.30022475 -0.33736193
0.07721943 -0.03028442 -0.11067738 0.25245798 0.051470324 0.07118207 -0.12399942 -0.16921355
-0.12171877 -0.0011095644 9.467825e-06 0.07244822 0.35784224 0.2555024 0.3480608 -0.031848475
0.03343926 -0.09440156 0.16214168 0.058083523 -0.0009660882 0.22891317 0.03186007 0.0006065866
-0.19827783 -0.05000916 -0.12598471 0.0066742063 -0.041616384 -0.20759936 0.14009705 0.36181208
0.39186215 -0.7117286 -0.44059137 -0.6380896 0.109405376 -0.028705884 -0.0498653 0.6093798
0.24149853 0.5002284 0.030388275 0.029570334 -0.031400204 -0.042755082 -0.066121496 -0.05861104
-0.027666837 -0.16847102 -0.10575624 -0.48743415 -0.332361 -0.64719033 -0.18310335 -0.057519227
-0.048233274 0.1469574 0.07702432 0.5231766 -0.04599907 0.01768491 -0.0073497114 -0.051245093
0.040140636 -0.006797044 0.01309185 0.03912454 0.037974272 0.047766186 0.029051375 0.021132259
0.069042094 0.07987985 0.070410915 0.26966223 0.21958594 0.12649581 -0.21738292 -0.20621717
-0.10939895 -0.057230126 -0.013743709 0.024113037 0.20601049 0.20123991 0.1879943 -0.27900293
-0.23711865 -0.35847384 -0.15843552 -0.23848423 -0.13463797 0.14530915 0.059583 0.3304054
-0.0967306 0.08806251 0.03394092 0.0026976396 -0.014265835 0.050493393 0.4503742 0.08640196
0.35274568 -0.0051836856 0.04492331 -0.24685201 -0.24583018 -0.31692004 -0.31218025 0.027232382
-0.047837563 0.16430053 0.03611814 0.006607355 -0.05088019 0.024967412 -0.04249458 0.04343291
0.06542325 0.10171953 0.013466431 0.006028612 0.017241403 0.050868697 -0.0061824415 -0.05653275
-0.06282569 -0.017552994 -0.070417605 -0.014184721 -0.07903377 0.16675352 0.1915666 -0.13136864
0.005563039 0.22765014 0.0674032 -0.2225198 0.12073001 -0.021422246 0.29646644 0.36629194
0.06245061 0.023778882 0.026903136 -0.5137981 -0.31181297 -0.15544707 -0.15304011 -0.21334401
-0.19212335 -0.12600332 -0.06807077 -0.06426734 0.19864847 0.07828824 0.095373936 -0.09599218
-0.1933896 -0.41362825 -0.29465213 -0.2849498 -0.34028357 -0.07794985 -0.24169475 -0.25329933
-0.03818877 -0.06095797 -0.070173375 -0.035125367 0.040398143 0.0055764792 0.0015505492 0.04272751
-0.029889464 0.2761158 0.5463353 0.27929795 -0.33102208 -0.21777274 -0.50972325 -0.1821059
-0.17011307 -0.015223189 0.117316134 0.101961106 0.018331923 0.30447602 0.19519772 0.23919778
0.23208117 0.14206496 0.18738225 0.0019142635 0.006692196 0.013469718 0.034123763 -0.059991848
-0.054958597 0.02844588 0.017667754 -0.05190906 0.05838439 0.092968434 0.019768579 0.10096386
00000000: cb66 33bd 008c cabd 5745 d5bd bb2c 2a3d
00000010: 7130 933c f22d bd3d c43f 5a3e c128 ccbd
00000020: 66a0 b23d 717d dbbd 834f 50be 10a5 a4be
00000030: 35c8 693d 9671 f3bd 760b a43d ea49 b33e
00000040: c08f 8d3c 97bc 843e 4a65 c1ba 77b7 3ebd
00000050: 2fc1 9f3b 8e7b 9abc 37a2 7dbc 31b7 f6bc
00000060: 3ce6 273d a0f7 d7bc c45e 5abc 421b 7dbe
00000070: 3546 8bbe 3a37 99be d9e7 0c3e 8a2d e83d
00000080: 3ca3 883e 2475 823e 6b27 da3d 70da b13e
00000090: cd0f f8bd d520 d4bd e53c 0cbe a7f1 b73d
000000a0: 2000 0a3d 67df 33bd ccd5 473e 7ae9 473e
000000b0: 681d 103e 8a60 9fbe 0fb7 99be b4ba acbe
000000c0: 3825 9e3d 0817 f8bc d2aa e2bd 2c42 813e
000000d0: 8cd2 523d e8c7 913d 68f3 fdbd 5146 2dbe
000000e0: b147 f9bd ce6e 91ba 00d8 1e37 bb5f 943d
000000f0: 1937 b73e 36d1 823e 0635 b23e 8c73 02bd
00000100: 9bf7 083d 9b55 c1bd 7808 263e fde8 6d3d
00000110: 1541 7dba 3768 6a3e b47f 023d 5603 1f3a
00000120: 5809 4bbe 68d6 4cbd 2302 01be 4db3 da3b
00000130: f175 2abd ed94 54be 9a75 0f3e 6f3f b93e
00000140: 28a2 c83e d833 36bf 3195 e1be d759 23bf
00000150: ed0f e03d 9a28 ebbc 8f3f 4cbd 5100 1c3f
00000160: 644b 773e f80e 003f d5f0 f83c 7c3d f23c
00000170: 809d 00bd f41f 2fbd b56a 87bd 2112 70bd
00000180: 90a5 e2bc ab83 2cbe ba96 d8bd f890 f9be
00000190: 392b aabe 44ae 25bf 727f 3bbe 4899 6bbd
000001a0: 4190 45bd 007c 163e edbe 9d3d e7ee 053f
000001b0: 8569 3cbd f2df 903c d9d5 f0bb 60e6 51bd
000001c0: 826a 243d bdb9 debb 337f 563c 0e41 203d
000001d0: e98a 1b3d 7aa6 433d 26fd ed3c 8f1d ad3c
000001e0: f165 8d3d 0c98 a33d 9933 903d 2b11 8a3e
000001f0: 23db 603e 1e88 013e a199 5ebe 982a 53be
00000200: 8f0c e0bd 236a 6abd 4b2d 61bc b488 c53c
00000210: 6af4 523e d611 4e3e 9481 403e 79d9 8ebe
00000220: 3bcf 72be e289 b7be ec3c 22be 3635 74be
00000230: 89de 09be eccb 143e 4e0d 743d e62a a93e
00000240: b11a c6bd 1e5a b43d a205 0b3d e2ca 303b
00000250: 40bb 69bc 29d2 4e3d 7297 e63e 83f3 b03d
00000260: 159b b43e e8db a9bb 8101 383d c6c6 7cbe
00000270: e8ba 7bbe 5843 a2be 17d6 9fbe 7216 df3c
00000280: 52f1 43bd 663e 283e 9df0 133d 8382 d83b
00000290: bf67 50bd 7588 cc3c cc0e 2ebd b5e6 313d
000002a0: a0fc 853d 5452 d03d 4ea2 5c3c aa8b c53b
000002b0: d83d 8d3c b25b 503d 1496 cabb e38e 67bd
000002c0: c1aa 80bd 4ccb 8fbc 1b37 90bd 0867 68bc
000002d0: 75dc a1bd 6fc1 2a3e 092a 443e 8085 06be
000002e0: 274a b63b 1e1d 693e b00a 8a3d 3bdc 63be
000002f0: 4c41 f73d b57d afbc 73ca 973e 9e8a bb3e
00000300: 36cc 7f3d eecb c23c f763 dc3c 4688 03bf
00000310: f3a5 9fbe 842d 1fbe 8cb6 1cbe da76 5abe
00000320: fcbb 44be 0407 01be b068 8bbd 989e 83bd
00000330: 816a 4b3e 9655 a03d 6953 c33d 8c97 c4bd
00000340: ec07 46be 15c7 d3be a5dc 96be f1e4 91be
00000350: a639 aebe 2ca4 9fbd d47e 77be 73b0 81be
00000360: d46b 1cbd 10af 79bd 0fb7 8fbd 9edf 0fbd
00000370: 8678 253d e6ba b63b cc3b cb3a 0b03 2f3d
00000380: c0da f4bc 0d5f 8d3e a1dc 0b3f 2400 8f3e
00000390: ba7b a9be d1ff 5ebe 397d 02bf f879 3abe
000003a0: 1f32 2ebe af6a 79bc 7143 f03d fcd0 d03d
000003b0: d42c 963c 48e4 9b3e e9e1 473e 43f0 743e
000003c0: b0a6 6d3e 7a79 113e 22e1 3f3e 06e8 fa3a
000003d0: 354a db3b 18b0 5c3c 5cc5 0b3d 03ba 75bd
000003e0: 441c 61bd 5607 e93c f7bb 903c 989e 54bd
000003f0: 7824 6f3d 3c66 be3d b7f1 a13c 24c6 ce3d

enc2.bias f4 [64]
0.021106299 -0.065832004 -0.08225014 -0.12360407 -0.25539324 -0.035105865 -0.005324906 -0.075521424
0.004923199 -0.008889627 -0.014804913 -0.14456968 -0.0351478 -0.06916798 -0.026123554 0.019051338
-0.20704776 -0.18517017 -0.10846704 -0.0888726 -0.062700786 -0.049050048 -0.065820396 -0.052008428
-0.03859207 -0.09526166 -0.078004226 -0.056146383 -0.03117214 -0.08789141 -0.094045274 -0.090864435
0.07754319 -0.0024040441 -0.09286248 -0.0033685917 -0.12271328 0.02735455 -0.07502327 -0.069918215
-0.0012692962 -0.00655954 -0.01652332 -0.07330774 -0.021162843 -0.14298768 0.093790635 -0.033868894
-0.026013302 0.005156633 0.013372753 -0.06537944 -0.2596368 -0.13198425 -0.09218882 -0.2555805
-0.0694663 -0.27428824 0.023416115 -0.07623065 -0.05241481 0.10968158 -0.15503295 0.18082231
00000000: 1ee7 ac3c eed2 86bd c372 a8bd 2124 fdbd
00000010: e7c2 82be 2bcb 0fbd 8d7c aebb faaa 9abd
00000020: c952 a13b cca5 11bc 4e90 72bc 130a 14be
00000030: 24f7 0fbd f1a7 8dbd 1001 d6bc 8d11 9c3c
00000040: 5404 54be 409d 3dbe f823 debd d602 b6bd
00000050: 4569 80bd b4e8 48bd d8cc 86bd ca06 55bd
00000060: b812 1ebd 8c18 c3bd aec0 9fbd c0f9 65bd
00000070: b75c ffbc 6900 b4bd cf9a c0bd 2217 babd
00000080: f7ce 9e3d 2b8d 1dbb af2e bebd 97c3 5cbb
00000090: 1a51 fbbd a616 e03c cda5 99bd 4831 8fbd
000000a0: 835e a6ba 69f1 d6bb ea5b 87bc 5e22 96bd
000000b0: b35d adbc 5d6b 12be 4e15 c03d 1cba 0abd
000000c0: d919 d5bc f9f8 a83b 6419 5b3c a8e5 85bd
000000d0: 1def 84be e126 07be 7ecd bcbd 73db 82be
000000e0: 5944 8ebd 826f 8cbe 27d3 bf3c d11e 9cbd
000000f0: e9b0 56bd bca0 e03d f5c0 1ebe 7c29 393e

dec1.weight f4 [32, 64, 3, 3]
-0.098556206 -0.18577816 -0.11423 0.051611017 -0.02032609 0.025443252 0.2654474 0.16171817
0.17692967 0.013546615 -0.060791146 -0.050681192 -0.011518645 -0.040312767 -0.03297039 0.0028876776
-0.04416305 0.0077978866 0.03571854 -0.01887305 0.004560379 -0.062025085 -0.071116455 -0.0337887
-0.042212848 -0.03803854 -0.02131047 -0.11046256 -0.07289444 -0.0068963002 -0.15051106 -0.15419541
-0.056720957 -0.024716722 -0.03457292 0.023019932 -0.18900754 -0.21851015 -0.15549043 -0.11137532
-0.13456005 -0.119173326 -0.13893217 -0.19606006 -0.17530268 0.15533862 0.099157326 0.2056691
0.10934709 0.062395696 0.17763764 0.1495241 0.108808406 0.20352277 -0.16934761 0.010770832
0.26098105 -0.21577273 -0.078384236 0.15807818 -0.20168003 -0.039366737 0.20902699 0.016976932
-0.17161131 -0.32949305 0.096441194 -0.121464305 -0.23968664 0.2426675 -0.0054374505 -0.09299652
-0.10108106 0.038905002 0.018579572 -0.14704815 -0.048842363 0.0020187332 -0.31096172 -0.25250357
-0.106151566 0.09345204 -0.0053303437 0.03904985 0.061334893 -0.025689956 0.005212769 0.04041493
0.046440393 0.08296374 -0.8533187 -0.5969516 -0.7680575 -0.52820235 -0.21291085 -0.4329166
-0.813113 -0.56875557 -0.7288166 0.011355081 -0.08795004 -0.07386885 -0.043186273 -0.13698661
-0.13077495 -0.06716912 -0.11063402 -0.089909375 0.053495847 0.0018325155 0.04525072 0.04421305
-0.0019426962 0.0112363435 0.0812376 -0.0026087 -0.0016227592 0.1417621 0.066077 0.08649836
0.062616214 -0.074516095 0.02939027 0.18557452 0.055322755 0.062310573 0.39571255 0.2353901
0.3152962 0.12413141 -0.04859066 0.043983027 0.30474818 0.17185749 0.2379713 0.09229272
0.080721594 0.13484892 0.06550066 0.059400123 0.10190528 0.01893141 0.009401712 0.070858784
-0.11276584 -0.17274496 -0.11575002 -0.16974804 -0.14839399 -0.11393521 -0.14021844 -0.15877919
-0.12849008 -0.04241906 -0.07146681 -0.06313684 -0.03175523 -0.10784243 -0.049553152 -0.031086154
-0.01442986 -0.01486697 0.17100407 0.104624294 0.14469665 0.00067710376 -0.031817105 0.065832525
0.013382716 0.008630251 0.040962286 -0.007549134 -0.07526238 -0.08586916 -0.09473598 -0.15317766
-0.14127271 0.02861243 -0.09177972 -0.08878823 -0.13330492 -0.07664607 -0.029248236 -0.068825275
-0.023709087 0.028776383 0.017425632 0.048678983 0.13256511 -0.0030740332 -0.017387856 0.030734804
-0.042678315 -0.020728942 -0.015828634 -0.032451853 -0.004647439 -0.00543654 0.007871378 -0.09250668
-0.0076522543 -0.04980945 -0.08888571 -0.02721667 0.013971624 -0.062217217 -0.044942465 -0.015125259
-0.047742065 -0.17595428 -0.18537663 -0.15480132 -0.21021156 -0.3899645 -0.35068005 -0.47360867
0.092845924 0.053221297 0.03846317 -0.007465368 -0.07401962 0.010549378 -0.0062129903 -0.030489448
-0.009403798 0.0020782633 0.036494404 0.041424993 0.041660987 0.042481713 0.037250664 0.014626708
0.052344546 0.08240431 -0.27834332 -0.1049948 -0.081202246 -0.13647799 -0.03479476 0.05669052
0.025435198 0.12755425 0.1752118 0.098701485 0.06529388 -0.37140107 0.083902866 0.04267335
-0.30772516 0.05606806 0.05429035 -0.29494417 0.15159386 0.046540618 0.1214837 0.09213088
00000000: d6d7 c9bd a13c 3ebe 6bf1 e9bd 1366 533d
00000010: e682 a6bc 5e6e d03c b9e8 873e 7399 253e
00000020: 0d2d 353e 9ff2 5d3c 2300 79bd 1597 4fbd
00000030: b3b8 3cbc 001f 25bd f60b 07bd 313f 3d3b
00000040: 50e4 34bd 6a85 ff3b 9b4d 123d a89b 9abc
00000050: 3b6f 953b 040e 7ebd 81a5 91bd 0566 0abd
00000060: 61e7 2cbd 4dce 1bbd 4b93 aebc 323a e2bd
00000070: ae49 95bd 5cfa e1bb 921f 1abe 67e5 1dbe
00000080: 3c54 68bd b97a cabc 569c 0dbd 4c94 bc3c
00000090: 318b 41be 20c1 5fbe e238 1fbe be18 e4bd
000000a0: 1cca 09be 2511 f4bd 3c44 0ebe f8c3 48be
000000b0: 8c82 33be 1611 1f3e ff12 cb3d ec9a 523e
000000c0: 5ef1 df3d a192 7f3d a4e6 353e d81c 193e
000000d0: f1d6 de3d 4668 503e 7669 2dbe 2578 303c
000000e0: 4f9f 853e 87f3 5cbe ea87 a0bd 3fdf 213e
000000f0: 3685 4ebe 043f 21bd 2c0b 563e 3513 8b3c
00000100: e0ba 2fbe 50b3 a8be f682 c53d 47c2 f8bd
00000110: 6a70 75be d47d 783e a42c b2bb f674 bebd
00000120: 9603 cfbd da5a 1f3d 3034 983c ca93 16be
00000130: ee0e 48bd b94c 043b 6036 9fbe 2648 81be
00000140: fe65 d9bd c863 bf3d 2aaa aebb bcf2 1f3d
00000150: 4c3a 7b3d be73 d2bc e0cf aa3b 208a 253d
00000160: 4838 3e3d e5e8 a93d 1873 5abf d2d1 18bf
00000170: 6b9f 44bf 4538 07bf 4d05 5abe 3fa7 ddbe
00000180: 2c28 50bf f799 11bf ba93 3abf a90a 3a3c
00000190: 271f b4bd 8d48 97bd 17e4 30bd 3846 0cbe
000001a0: dee9 05be f78f 89bd 1794 e2bd 6822 b8bd
000001b0: 761e 5b3d 0431 f03a d258 393d be18 353d
000001c0: 11a2 feba a418 383c e65f a63d b9f6 2abb
000001d0: c3b2 d4ba 152a 113e 6153 873d 0d26 b13d
000001e0: ee3c 803d e59b 98bd ddc3 f03c 3f07 3e3e
000001f0: 1d9a 623d 5f39 7f3d d69a ca3e 1a0a 713e
00000200: 816e a13e 9c38 fe3d 0007 47bd 8c27 343d
00000210: f407 9c3e 69fb 2f3e c0ae 733e f703 bd3d
00000220: 5d51 a53d d615 0a3e 3625 863d 8b4d 733d
00000230: b7b3 d03d 0b16 9b3c a309 1a3c 691e 913d
00000240: c7f1 e6bd 0ee4 30be 590e edbd 6ed2 2dbe
00000250: 98f4 17be dd56 e9bd 6c95 0fbe 0397 22be
00000260: e792 03be 9cbf 2dbd 315d 92bd e34d 81bd
00000270: c611 02bd 7edc dcbd 3ff8 4abd 64a8 febc
00000280: 386b 6cbc 9794 73bc b11b 2f3e 4345 d63d
00000290: 5c2b 143e aa7f 313a a752 02bd 34d3 863d
000002a0: 2e43 5b3c e565 0d3c 12c8 273d ba5e f7bb
000002b0: 2a23 9abd 2cdc afbd f004 c2bd 9bda 1cbe
000002c0: cba9 10be 9d64 ea3c 01f7 bbbd 9bd6 b5bd
000002d0: 1681 08be 9df8 9cbd ff99 efbc 44f4 8cbd
000002e0: 8f39 c2bc 73bc eb3c 33c0 8e3c 9d63 473d
000002f0: 26bf 073e b875 49bb fa70 8ebc 8ec7 fb3c
00000300: 75cf 2ebd becf a9bc 0dab 81bc 3cec 04bd
00000310: 8b49 98bb 0125 b2bb f4f6 003c 2474 bdbd
00000320: c3bf fabb fe04 4cbd b609 b6bd 7ef5 debc
00000330: 3de9 643c 7bd7 7ebd 9715 38bd efcf 77bc
00000340: 2f8d 43bd 5c2d 34be 5fd3 3dbe 3d84 1ebe
00000350: b341 57be 6da9 c7be 568c b3be d67c f2be
00000360: 0126 be3d 93fe 593d 8f8b 1d3d 0ca0 f4bb
00000370: 9997 97bd 4cd7 2c3c 5796 cbbb 02c5 f9bc
00000380: 6312 1abc 7933 083b 287b 153d 41ad 293d
00000390: b6a4 2a3d 4e01 2e3d 2794 183d dca4 6f3c
000003a0: 3c67 563d 97c3 a83d 0483 8ebe 8407 d7bd
000003b0: 5d4d a6bd e3c0 0bbe f384 0ebd 5234 683d
000003c0: 7a5d d03c 959d 023e b96a 333e 0124 ca3d
000003d0: ccb8 853d 4828 bebe 44d5 ab3d 40ca 2e3d
000003e0: 278e 9dbe 9fa7 653d 8f5f 5e3d ec02 97be
000003f0: 6c3b 1b3e 60a1 3e3d 72cc f83d 1daf bc3d

dec1.bias f4 [32]
0.07390542 -0.004839779 -0.055346843 -0.03248969 0.062945195 0.08346942 0.071849346 -0.035414066
0.07525626 0.04148726 0.035373837 -0.0285268 -0.043330397 0.30699992 -0.060376104 -0.040290028
-0.021972144 0.079756804 0.080024235 0.072908975 0.06317288 -0.017133776 0.3315424 -0.014279725
0.058230516 0.07224089 -0.029435715 -0.05039279 -0.0342575 -0.01087796 -0.068676576 0.08320216
00000000: ba5b 973d 0297 9ebb 5fb3 62bd e913 05bd
00000010: 69e9 803d 04f2 aa3d c025 933d 570e 11bd
00000020: f41f 9a3d 8cee 293d 28e4 103d 09b1 e9bc
00000030: 377b 31bd 182f 9d3e ef4c 77bd 2807 25bd
00000040: edfe b3bc 8957 a33d bfe3 a33d 4d51 953d
00000050: c860 813d 225c 8cbc edbf a93e 82f5 69bc
00000060: 1f83 6e3d 08f3 933d 2b23 f1bc ac68 4ebd
00000070: 9851 0cbd 7939 32bc 4ea6 8cbd e565 aa3d

out.weight f4 [1, 32, 1, 1]
-0.16996759 0.10139432 0.12726106 -0.004593325 -0.21180211 -0.22115178 -0.124367826 0.12443923
-0.26062906 -0.16949658 -0.18894054 -0.018569948 0.13476315 0.39939162 0.09106002 -0.09285072
0.061493874 -0.12584542 -0.23401995 -0.11386635 -0.08826067 0.026728714 0.50446004 0.07651628
-0.1620011 -0.16261892 0.07682998 0.14685945 -0.4109704 0.13259439 0.03726094 -0.26536277
00000000: fc0b 2ebe d3a7 cf3d b950 023e 9a83 96bb
00000010: a7e2 58be 9d75 62be 8fb4 febd ffd9 fe3d
00000020: 2c71 85be 8390 2dbe a179 41be 0120 98bc
00000030: 5aff 093e 0f7d cc3e ad7d ba3d 8528 bebd
00000040: 00e1 7b3d 9fdd 00be eda2 6fbe c332 e9bd
00000050: 03c2 b4bd 2df6 da3c 4b24 013f 91b4 9c3d
00000060: 9ee3 25be 9385 26be 0959 9d3d 5362 163e
00000070: b66a d2be d3c6 073e ed9e 183d a1dd 87be

exp_avg f4 [32, 3, 3, 3]
0.0065996055 0.006243309 0.006122957 0.0076792035 0.007239581 0.006786586 0.008421191 0.0082749855
0.007826712 0.00022406527 -0.00021487367 -0.00027351038 0.0013853858 0.0009654712 0.00045938801 0.0023548165
0.0023178693 0.0017464941 0.0061145243 0.0058439397 0.0056941016 0.0067207403 0.006343209 0.005989178
0.007364398 0.0071848542 0.0068445904 0.0056989514 0.005628183 0.005145555 0.005129147 0.004820382
0.0043550073 0.0049586655 0.004265082 0.0037621155 0.004785392 0.0044723134 0.0040446105 0.0041808593
0.003755924 0.0036420908 0.0042048036 0.003924767 0.003755292 0.008612893 0.00869895 0.008208173
0.007927191 0.007538519 0.007174367 0.0077509466 0.0069534048 0.006495723 6.3755294e-08 3.2740534e-08
2.0585027e-08 7.5253956e-07 3.210059e-07 1.4929486e-07 5.0990093e-07 2.825643e-07 1.6278912e-07 5.8442374e-08
2.6878892e-08 2.0630052e-08 6.9945173e-07 2.0602359e-07 -4.608505e-08 4.0060542e-07 1.2457834e-07 -4.612183e-09
6.917551e-08 4.47878e-08 3.3364326e-08 7.396777e-07 3.3936487e-07 1.15163374e-07 5.2836333e-07 2.907381e-07
1.5756514e-07 0.006159422 0.006117525 0.005932734 0.0054987324 0.0051770103 0.0052183266 0.0047026966
0.004471476 0.005165306 0.00903139 0.008857593 0.008820886 0.0086826915 0.008570056 0.008360285
0.0076133604 0.0077731605 0.008273172 0.010201087 0.01023021 0.010188335 0.009689037 0.009304361
0.009432161 0.009182041 0.008873168 0.009645448 0.004618162 0.005203158 0.0047726985 0.0039509307
0.0041316994 0.0038610632 0.0034377268 0.0032462014 0.0031929077 0.007818563 0.00842576 0.007837984
0.006839164 0.007104995 0.006856705 0.0059671197 0.0059081926 0.005876504 0.005729645 0.0062829293
0.005853717 0.005059178 0.005268894 0.005114551 0.004586097 0.0043980284 0.004448709 0.007957905
0.0081919255 0.009453333 0.008791332 0.009021515 0.010457111 0.0098595 0.010510095 0.011783083
0.013934378 0.014262953 0.015846033 0.014654591 0.015032109 0.016715858 0.015867501 0.016785786
0.018205697 0.011674146 0.011935794 0.01305383 0.012428412 0.012565315 0.0138822915 0.013310735
0.0140869925 0.015168788 0.003116697 0.0027166954 0.0024604094 0.0028641594 0.0024556883 0.002178789
0.0028672377 0.0024906392 0.002224964 0.00422099 0.003724322 0.003380215 0.0037992564 0.003337357
0.0029762774 0.0038783036 0.003465287 0.003083807 0.0049926816 0.004572412 0.004260959 0.0047005215
0.0043352447 0.0039755045 0.0047644093 0.0044311965 0.004103579 -0.0016200941 -0.0011059262 -0.00054228446
-0.0025662964 -0.0018890391 -0.00087930606 -0.0027941628 -0.0023188065 -0.0017835223 -0.0017995783 -0.0012551538
-0.0005979574 -0.0027854668 -0.0020384998 -0.00089606765 -0.0029063087 -0.00235256 -0.0017646668 -0.0014762067
-0.000995131 -0.00050652603 -0.0023434316 -0.0017096869 -0.00080755557 -0.0026342715 -0.0021811682 -0.0016520228
-0.00071952055 -0.00089347846 -0.0010071045 -0.00038458305 -0.0005064062 -0.0007114326 -0.00034472812 -0.0003791924
-0.0004973026 -0.00066547765 -0.0008681945 -0.0010031355 -0.0002844564 -0.00040280918 -0.0006409099 -0.00025815432
-0.00028374107 -0.00040730857 -0.00063945854 -0.00081248354 -0.0009347395 -0.0003053705 -0.00042380719 -0.0006240113
-0.00025919662 -0.0002933132 -0.0004122045 0.011170444 0.012931692 0.013694011 0.011582721 0.013510432
0.01412186 0.012968541 0.01454991 0.014806668 0.0037848018 0.005595683 0.0059765773 0.0037496432
00000000: 8141 d83b ac94 cc3b 16a3 c83b d4a1 fb3b
00000010: 023a ed3b 0262 de3b 09f9 093c ce93 073c
00000020: 9c3b 003c 10f3 6a39 b64f 61b9 f165 8fb9
00000030: d595 b53a ad17 7d3a 04da f039 4453 1a3b
00000040: 65e7 173b 9eea e43a 595c c83b 857e bf3b
00000050: 9695 ba3b a839 dc3b b2da cf3b de40 c43b
00000060: 0c51 f13b ed6e eb3b 9648 e03b 45be ba3b
00000070: 9f6c b83b 0b9c a83b 6712 a83b 4cf4 9d3b
00000080: 73b4 8e3b 4d7c a23b 1ac2 8b3b d38d 763b
00000090: c7ce 9c3b 7c8c 923b a788 843b 97ff 883b
000000a0: f325 763b 25b0 6e3b 73c8 893b 559b 803b
000000b0: 581b 763b 171d 0d3c 0a86 0e3c 937b 063c
000000c0: 0de1 013c ae05 f73b f416 eb3b a7fb fd3b
000000d0: 63d9 e33b 13da d43b d8e9 8833 999e 0c33
000000e0: f4d2 b032 2002 4a35 b756 ac34 dc4d 2034
000000f0: 20e0 0835 57b3 9734 22cb 2e34 1202 7b33
00000100: 4fe3 e632 f735 b132 f5c1 3b35 5537 5d34
00000110: 0cef 45b3 ca12 d734 d5c3 0534 3179 9eb1
00000120: a48d 9433 b55c 4033 774c 0f33 448e 4635
00000130: f431 b634 bc4f f733 dad4 0d35 bd16 9c34
00000140: 2d2f 2934 fad4 c93b 8575 c83b 6167 c23b
00000150: b62e b43b e9a3 a93b 7ffe aa3b 1419 9a3b
00000160: 7685 923b ba41 a93b 65f8 133c 701f 113c
00000170: 7a85 103c d941 0e3c 6c69 0c3c 94f9 083c
00000180: 7f79 f93b ffb5 fe3b 338c 073c 7622 273c
00000190: 9c9c 273c f9ec 263c c4be 1e3c 5271 183c
000001a0: 5a89 1a3c 4570 163c c460 113c f107 1e3c
000001b0: f353 973b 417f aa3b 4c64 9c3b cf76 813b
000001c0: 3563 873b e409 7d3b 7c4b 613b 39be 543b
000001d0: 1a40 513b 6e19 003c 330c 0a3c e36a 003c
000001e0: 111b e03b 05d1 e83b 36ae e03b d487 c33b
000001f0: 8399 c13b b08f c03b bfbf bb3b 08e1 cd3b
00000200: 8ad0 bf3b 76c7 a53b b0a6 ac3b f797 a73b
00000210: f846 963b 561d 903b 7ac6 913b df61 023c
00000220: 6d37 063c 27e2 1a3c 8509 103c face 133c
00000230: 4d54 2b3c be89 213c 8932 2c3c d50d 413c
00000240: 044d 643c 29af 693c 8acf 813c cf19 703c
00000250: 3c49 763c b2ef 883c 90fc 813c 5882 893c
00000260: 1d24 953c eb44 3f3c 598e 433c bbdf 553c
00000270: 8aa0 4b3c c0de 4d3c 8d72 633c 4515 5a3c
00000280: 21cd 663c 8286 783c 8041 4c3b 960a 323b
00000290: d23e 213b 9fb4 3b3b 9def 203b 03ca 0e3b
000002a0: 44e8 3b3b fe39 233b b4d0 113b 3b50 8a3b
000002b0: c113 743b 9986 5d3b f2fc 783b 8fb7 5a3b
000002c0: a60d 433b 232b 7e3b de19 633b b219 4a3b
000002d0: a699 a33b 2cd4 953b 849f 8b3b d506 9a3b
000002e0: ab0e 8e3b f344 823b c31e 9c3b 9233 913b
000002f0: 5177 863b 5659 d4ba baf4 90ba 1828 0eba
00000300: 4f2f 28bb a299 f7ba 3b81 66ba 461e 37bb
00000310: 1ef7 17bb 14c5 e9ba d4df ebba f983 a4ba
00000320: 3ec0 1cba 618c 36bb 5a98 05bb 15e6 6aba
00000330: c577 3ebb 682d 1abb 644c e7ba 477d c1ba
00000340: 0e6f 82ba 63c8 04ba 4294 19bb 9317 e0ba
00000350: 23b2 53ba bea3 2cbb eef1 0ebb b088 d8ba
00000360: 359e 3cba 5338 6aba d200 84ba dda1 c9b9
00000370: 58c0 04ba 6f7f 3aba a0bc b4b9 58ce c6b9
00000380: 6a5d 02ba 7373 2eba 8c97 63ba a47b 83ba
00000390: 1723 95b9 2230 d3b9 bc02 28ba e358 87b9
000003a0: 15c3 94b9 088c d5b9 56a1 27ba d9fc 54ba
000003b0: 4e09 75ba 221a a0b9 7032 deb9 b194 23ba
000003c0: c8e4 87b9 d5c7 99b9 271d d8b9 3d04 373c
000003d0: 73df 533c d85c 603c 74c5 3d3c dc5a 5d3c
000003e0: 605f 673c 017a 543c bf62 6e3c ab97 723c
000003f0: 700a 783b fe5b b73b 2ad7 c33b 93bc 753b

exp_avg_sq f4 [32, 3, 3, 3]
0.0043297936 0.004423049 0.0043695127 0.0041991826 0.004210549 0.0042328476 0.0040421784 0.0040619546
0.0040950445 0.004287319 0.004351783 0.0043185987 0.00414723 0.004145866 0.0041701472 0.003984037
0.0040083095 0.0040148 0.0034440544 0.0035180699 0.003505455 0.0033188357 0.0033400902 0.0034014508
0.0032301608 0.0032399313 0.0033086329 0.01563703 0.01593911 0.015541023 0.014728748 0.014474794
0.013963023 0.014329648 0.01310637 0.012725951 0.016728224 0.017389152 0.017088726 0.01591042
0.015809217 0.015175341 0.01551493 0.014171876 0.013675702 0.012769532 0.012974985 0.012776493
0.012216217 0.011964595 0.011766966 0.011956205 0.011041123 0.010815971 1.762635e-08 1.701576e-08
1.6759223e-08 1.8348434e-08 1.7464458e-08 1.7342e-08 1.7936289e-08 1.765703e-08 1.8037259e-08 2.0183341e-08
2.0057687e-08 1.9710347e-08 2.144427e-08 2.0480948e-08 2.033908e-08 2.0766226e-08 2.0411981e-08 2.0841844e-08
1.9099533e-08 1.891186e-08 1.8520069e-08 2.0103169e-08 1.9360582e-08 1.9108935e-08 1.9716325e-08 1.948417e-08
1.9465125e-08 0.010079934 0.010380849 0.010686068 0.0089221075 0.008572037 0.009545792 0.008770891
0.008034321 0.009132088 0.011572832 0.0120558245 0.0125784995 0.010204299 0.009619115 0.010875601
0.010134868 0.009101071 0.010671433 0.009302083 0.009713332 0.009980487 0.008488474 0.008298378
0.009042712 0.008448185 0.007956566 0.008938781 0.00091282954 0.0010140039 0.00094218156 0.0008474217
0.00087024935 0.0008416918 0.0008078799 0.00075620686 0.0007762142 0.0022102029 0.0024277745 0.0022263736
0.002021696 0.0021164713 0.0020445164 0.0019543513 0.0018219873 0.0018926461 0.0008801453 0.0009577781
0.0008960714 0.00082955766 0.0008562458 0.0008479324 0.00080993335 0.00076034036 0.0007876797 0.001934469
0.00199363 0.0022232453 0.0020670749 0.0021123162 0.002373704 0.0022692364 0.002347968 0.002577902
0.0040238863 0.004129134 0.0045002904 0.0041855173 0.0042861267 0.0046797907 0.0044798874 0.004639538
0.00497395 0.0043410254 0.004476693 0.0047095763 0.0045226444 0.0046056313 0.004898165 0.0046861847
0.0048767147 0.005116846 0.00026522705 0.00023799468 0.00022486942 0.0002465525 0.00022038739 0.00020221744
0.00024448807 0.00022156305 0.00020542309 0.0003937427 0.00036315678 0.0003385605 0.00036255317 0.00033476192
0.00030951353 0.00036558628 0.00034264228 0.00031567606 0.0006531574 0.00061622576 0.0005883543 0.00062359124
0.0005941297 0.00055635325 0.00062913785 0.00060081633 0.0005709015 0.0005742406 0.00057951285 0.00056402007
0.0005457797 0.0005324489 0.00052017893 0.0005100335 0.00048550044 0.0004702728 0.00057961175 0.00058258785
0.00056199974 0.0005481136 0.00053013064 0.0005149885 0.0005084468 0.00048290065 0.00046371532 0.0005713034
0.0005720429 0.0005575386 0.00054358965 0.0005323636 0.0005196169 0.00051323295 0.0004930323 0.00047757404
3.2609463e-05 3.6338293e-05 3.812636e-05 2.4005765e-05 2.702831e-05 3.1737294e-05 2.1173077e-05 2.1264294e-05
2.4024173e-05 4.2721294e-05 4.6753117e-05 4.9041206e-05 3.2238408e-05 3.5259898e-05 4.1172985e-05 2.994591e-05
2.9589488e-05 3.2846572e-05 3.8271504e-05 4.2187334e-05 4.4139906e-05 2.9153329e-05 3.210509e-05 3.714945e-05
2.7535638e-05 2.7129623e-05 2.9910527e-05 0.023448471 0.023838673 0.023587776 0.025895476 0.026807284
0.025587527 0.028516572 0.029547634 0.027479397 0.024080902 0.024782123 0.024303477 0.02655218
00000000: f1e0 8d3b 39ef 903b 212e 8f3b 4c99 893b
00000010: a5f8 893b b3b3 8a3b 4074 843b 251a 853b
00000020: b92f 863b a37c 8c3b 6799 8e3b 0883 8d3b
00000030: 7de5 873b 0bda 873b bba5 883b 868c 823b
00000040: 2358 833b 958e 833b a5b5 613b 6b8f 663b
00000050: c7bb 653b d380 593b 6ae5 5a3b e0ea 5e3b
00000060: 1bb1 533b 0755 543b a6d5 583b 3b19 803c
00000070: bd92 823c c69f 7e3c d950 713c b027 6d3c
00000080: 2ac5 643c e6c6 6a3c 1abc 563c 8280 503c
00000090: a109 893c b273 8e3c a8fd 8b3c 9256 823c
000000a0: 5582 813c fea1 783c 5532 7e3c 2831 683c
000000b0: 0d10 603c 4d37 513c 0895 543c 7f54 513c
000000c0: 8726 483c 2607 443c 3cca 403c f5e3 433c
000000d0: d4e5 343c 7835 313c c168 9732 0d2a 9232
000000e0: ecf5 8f32 a29c 9d32 c004 9632 76f7 9432
000000f0: 5112 9a32 38ac 9732 5af0 9a32 a35f ad32
00000100: 524b ac32 834f a932 7334 b832 15ee af32
00000110: 1cb6 ae32 6a61 b232 6c56 af32 b307 b332
00000120: 5110 a432 9f73 a232 1016 9f32 56af ac32
00000130: 5f4e a632 fe24 a432 a85c a932 255e a732
00000140: 4334 a732 4f26 253c 7014 2a3c 9e14 2f3c
00000150: 082e 123c bb71 0c3c f465 1c3c c9b3 0f3c
00000160: 62a2 033c c19e 153c fa9b 3d3c cb85 453c
00000170: 0d16 4e3c ef2f 273c 7e99 1d3c 942f 323c
00000180: b80c 263c a91c 153c 3cd7 2e3c c467 183c
00000190: ab24 1f3c 3285 233c 3e13 0b3c ecf5 073c
000001a0: e227 143c 426a 0a3c 425c 023c f773 123c
000001b0: f44a 6f3a 53e8 843a bcfc 763a 8225 5e3a
000001c0: 7221 643a fba4 5c3a e7c7 533a 2f3c 463a
000001d0: da7a 4b3a 0dd9 103b 4c1b 1f3b 5ae8 113b
000001e0: 6e7e 043b 7fb4 0a3b 4bfd 053b 9314 003b
000001f0: c0cf ee3a aa12 f83a 8db9 663a 6613 7b3a
00000200: 55e6 6a3a ac76 593a af75 603a c847 5e3a
00000210: b551 543a 9451 473a 4a7c 4e3a 028e fd3a
00000220: 90a7 023b deb3 113b c377 073b c96e 0a3b
00000230: 2590 1b3b 78b7 143b 5ee0 193b 05f2 283b
00000240: ceda 833b b04d 873b 2c77 933b aa26 893b
00000250: a372 8c3b ee58 993b 05cc 923b 4407 983b
00000260: 84fc a23b 293f 8e3b 39b1 923b ca52 9a3b
00000270: b132 943b d6ea 963b c980 a03b 918e 993b
00000280: d9cc 9f3b 37ab a73b 2c0e 8b39 368e 7939
00000290: edca 6b39 b743 8139 ca17 6739 550a 5439
000002a0: a22e 8039 6153 6839 d766 5739 406f ce39
000002b0: 1466 be39 d280 b139 1015 be39 fc82 af39
000002c0: 3446 a239 29ac bf39 aba4 b339 5381 a539
000002d0: a738 2b3a 368a 213a ca3b 1a3a 8078 233a
000002e0: 5fbf 1b3a 3cd8 113a baec 243a 1a80 1d3a
000002f0: 8da8 153a a288 163a 73ea 173a bfda 133a
00000300: a812 0f3a 0a94 0b3a 9e5c 083a c5b3 053a
00000310: c48a fe39 f28e f639 16f1 173a cfb8 183a
00000320: 2a53 133a 48af 0f3a 77f8 0a3a 4b00 073a
00000330: 4a49 053a d42d fd39 d11e f339 86c3 153a
00000340: 26f5 153a c827 123a af7f 0e3a 518e 0b3a
00000350: e636 083a 7b8a 063a d63e 013a e762 fa39
00000360: 25c6 0838 f269 1838 dee9 1f38 fd5f c937
00000370: dbba e237 a91d 0538 d69c b137 b960 b237
00000380: 8587 c937 a42f 3338 c718 4438 98b1 4d38
00000390: ba37 0738 07e4 1338 28b1 2c38 5a34 fb37
000003a0: f136 f837 bdc4 0938 b785 2038 4ef2 3038
000003b0: dd22 3938 4c8e f437 94a8 0638 ebd0 1b38
000003c0: 55fc e637 6c94 e337 5ee8 fa37 0217 c03c
000003d0: 5249 c33c 273b c13c c022 d43c f39a db3c
000003e0: ef9c d13c 969b e93c e10d f23c 791c e13c
000003f0: 5045 c53c e103 cb3c 1618 c73c f583 d93c

exp_avg f4 [32]
0.011469411 0.051045872 5.6498857e-07 0.0499637 0.02862667 0.084697865 0.01638068 -0.004397176
-0.0012005437 0.065599255 0.0008494909 0.011084079 1.3871652e-10 -0.007475777 -0.0033886337 0.00585472
0.069889076 -0.008634312 -1.8168745e-05 1.6110175e-06 0.0093526775 0.0033524062 -0.0009094557 0.011566592
-1.5045071e-08 0.0049687214 -0.0021977779 5.768484e-09 -0.0025382114 -0.0035569072 0.009071375 0.11314097
00000000: 32ea 3b3c 7a15 513d b8a9 1735 bda6 4c3d
00000010: 7a82 ea3c 1376 ad3d c730 863c 3016 90bb
00000020: 905b 9dba e758 863d 5fb0 5e3a ff99 353c
00000030: 3b85 182f 5df7 f4bb d713 5ebb f3d8 bf3b
00000040: 0122 8f3d ee76 0dbc 1569 98b7 243a d835
00000050: f93b 193c 0bb4 5b3b 8a68 6eba ce81 3d3c
00000060: 763c 81b2 a8d0 a23b 9808 10bb 1f34 c631
00000070: 1f58 26bb 001b 69bb 1ba0 143c 74b6 e73d

exp_avg_sq f4 [32]
0.03670285 0.25016204 5.5372517e-08 0.3197402 0.030580116 0.055442173 0.023305822 0.001626482
6.927223e-05 0.43266562 0.002511042 0.02578758 1.2134283e-08 0.0021713788 0.009384057 0.0029274148
0.32517087 0.0013590065 1.0873294e-07 7.828783e-06 0.002152726 0.0010976318 0.02364706 0.002593724
1.6687925e-09 0.0016404425 0.0066879345 2.7785246e-10 0.012700774 0.025507785 0.02153309 0.1461258
00000000: ba55 163d 3d15 803e bad2 6d33 fdb4 a33e
00000010: 2783 fa3c 5517 633d daeb be3c ae2f d53a
00000020: 3f46 9138 5986 dd3e 4b90 243b 7a40 d33c
00000030: 2477 5032 b14d 0e3b 96bf 193c dfd9 3f3b
00000040: cc7c a63e b120 b23a 9180 e933 5e58 0337
00000050: c014 0d3b 69de 8f3a 7bb7 c13c 78fb 293b
00000060: 6b5b e530 1e04 d73a 7626 db3b 42c0 982f
00000070: e816 503c b4f5 d03c 2a66 b03c 00a2 153e

exp_avg f4 [64, 32, 3, 3]
4.1410625e-05 3.9887054e-05 5.0744537e-05 2.0893454e-05 1.9057868e-05 3.7952283e-05 2.3501158e-05 1.372948e-05
2.250861e-05 2.3337949e-05 1.6251326e-05 2.0712925e-05 3.8733842e-06 2.6114808e-06 1.4018741e-05 -4.0945592e-06
-5.0619033e-06 4.64192e-06 -1.6075877e-11 -8.165887e-12 -7.721622e-12 -4.6221436e-09 -2.5345213e-09 -1.0752362e-09
9.0050234e-10 9.756174e-10 7.1883816e-10 9.760349e-06 9.489777e-06 1.3058172e-05 -4.2422704e-07 1.9002306e-06
9.132162e-06 3.899038e-06 -2.9734158e-06 1.0593174e-06 -1.0734157e-05 -9.810897e-06 -8.681769e-06 -1.2542666e-05
-1.1589904e-05 -1.0114738e-05 -1.592052e-05 -1.43305915e-05 -1.2219138e-05 3.128033e-05 3.486705e-05 3.7205064e-05
4.0257968e-05 4.060115e-05 3.938222e-05 6.283362e-05 6.364075e-05 5.970988e-05 2.5607935e-05 2.2782488e-05
2.0764428e-05 2.8747249e-05 2.6566442e-05 2.3472678e-05 2.5721298e-05 2.5605803e-05 2.3038887e-05 3.9324226e-05
2.846007e-05 2.6644064e-05 3.1329833e-05 2.7687043e-05 3.0739007e-05 3.1317722e-05 3.8988946e-05 4.299442e-05
1.940821e-06 2.9881818e-07 -5.6368896e-07 2.7452525e-06 2.1991384e-06 2.8845427e-06 5.5583746e-06 2.096336e-06
1.3342842e-06 4.73395e-05 3.7067843e-05 4.669692e-05 5.6289013e-05 4.6565623e-05 2.7030886e-05 8.074052e-05
8.869538e-05 4.6424895e-05 3.8051214e-06 2.8760658e-06 2.039552e-06 7.592966e-06 7.3138544e-06 6.3110087e-06
9.388035e-06 1.03781595e-05 1.02775475e-05 2.2708658e-05 2.1730015e-05 3.466976e-05 3.7697144e-05 2.653843e-05
1.8322935e-05 7.4510324e-05 6.1388455e-05 2.9074057e-05 -6.917e-42 -6e-45 -6e-45 1.2534682e-11
-1.6404527e-11 -3.1464168e-11 -2.4754821e-11 -2.0300959e-11 -4.1045934e-11 3.503784e-07 2.1408056e-07 1.3752266e-07
3.111045e-07 2.276374e-07 9.604959e-08 1.1345866e-06 1.2633949e-06 1.1239633e-06 7.8532585e-06 7.4673085e-06
8.407541e-06 8.210407e-06 8.476948e-06 9.337397e-06 7.012473e-06 7.5180055e-06 8.5422225e-06 6.990087e-06
6.8438603e-06 1.1176134e-05 1.5289661e-05 1.0061846e-05 9.306024e-06 2.7452112e-05 2.5131509e-05 1.5791047e-05
1.2590556e-05 5.6139004e-05 7.333696e-05 2.350068e-05 4.762977e-05 5.584659e-05 7.444064e-05 5.3832067e-05
3.5710855e-05 1.2451395e-05 1.5488442e-05 1.6975497e-05 2.6310883e-05 2.4380262e-05 1.8003106e-05 3.7407382e-05
3.8274826e-05 2.5134132e-05 3.439791e-14 -3.0900894e-14 3.9164713e-12 -2.9811702e-09 -4.7475908e-09 -5.7267715e-09
-1.3679262e-12 -4.0695433e-12 -4.1524067e-12 -1.557333e-09 -2.7402374e-09 -2.743951e-09 -2.0034923e-09 -3.9335597e-09
-2.4492113e-09 -2.8210039e-09 -2.9373675e-09 -2.6671887e-09 3.528759e-05 2.1320628e-05 1.9684483e-05 4.875966e-05
3.586639e-05 2.6254758e-05 5.8688405e-05 6.5738226e-05 5.5150736e-05 -2.7661845e-06 1.9166888e-05 2.8660557e-05
-1.8379565e-06 9.024093e-06 2.1283468e-05 1.9649418e-05 -8.380634e-07 -1.1802267e-06 3.1763975e-05 2.7896089e-05
2.877984e-05 2.9255098e-05 2.5032214e-05 2.4014893e-05 2.9788405e-05 3.3133485e-05 2.9569792e-05 2.1705018e-05
1.4450398e-05 1.4980233e-05 2.0096211e-05 1.5366419e-05 1.7021554e-05 1.1266082e-05 1.2197431e-05 1.7390767e-05
2.1234133e-19 -2.4746339e-20 7.5893273e-19 1.5752564e-11 2.7702368e-11 1.8584734e-10 1.3553823e-10 1.3022929e-10
1.14199275e-10 1.4540777e-05 4.54161e-05 4.860432e-05 3.1408075e-05 4.2373078e-05 3.3732133e-05 6.214614e-05
5.352646e-05 2.9561652e-05 7.033472e-05 7.145224e-05 8.236876e-05 6.9753376e-05 7.178177e-05 8.307812e-05
8.2547325e-05 8.226696e-05 8.6243876e-05 1.0124207e-31 3.11e-43 8.625853e-31 -9.9486235e-12 -5.920197e-13
2.4789093e-14 -2.2012698e-12 7.357981e-11 4.9401546e-12 2.8742238e-06 3.7199811e-06 4.56316e-06 2.5322336e-06
00000000: 52b0 2d38 664c 2738 88d6 5438 5a44 af37
00000010: 76de 9f37 f42e 1f38 5a24 c537 ab57 6637
00000020: dfd0 bc37 ddc5 c337 7553 8837 abc0 ad37
00000030: 1ef8 8136 e640 2f36 0932 6b37 ff63 89b6
00000040: 6bd9 a9b6 cac1 9b36 a867 8dad e3a7 0fad
00000050: 18d7 07ad ced0 9eb1 c52b 2eb1 83c7 93b0
00000060: 3887 7730 7c16 8630 bd97 4530 61c0 2337
00000070: 4836 1f37 6c14 5b37 52c1 e3b4 6d0b ff35
00000080: 5636 1937 7bd4 8236 e58a 47b6 de2d 8e35
00000090: da16 34b7 7b99 24b7 eaa7 11b7 576e 52b7
000000a0: 4272 42b7 78b2 29b7 0e8d 85b7 6c6d 70b7
000000b0: cc00 4db7 0033 0338 363e 1238 a20c 1c38
000000c0: aada 2838 274b 2a38 562e 2538 8bc5 8338
000000d0: de76 8538 ff70 7a38 9fd0 d637 051d bf37
000000e0: 452f ae37 3f26 f137 00db de37 31e7 c437
000000f0: 11c4 d737 0bcc d637 a243 c137 11f0 2438
00000100: 89bd ee37 b181 df37 2768 0338 7941 e837
00000110: c2ed 0038 265b 0338 1088 2338 e854 3438
00000120: 0d3f 0236 426d a034 6950 17b5 143b 3836
00000130: e994 1336 1194 4136 1382 ba36 c7ae 0c36
00000140: a815 b335 678e 4638 4b79 1b38 70dc 4338
00000150: de17 6c38 754f 4338 63c0 e237 3d53 a938
00000160: f801 ba38 5ab8 4238 7d5b 7f36 6f02 4136
00000170: 3ddf 0836 15c7 fe36 8869 f536 27c3 d336
00000180: 4e81 1d37 db1d 2e37 bb6d 2c37 797e be37
00000190: da48 b637 5f6a 1138 001d 1e38 d89e de37
000001a0: 34b4 9937 6d42 9c38 adbd 8038 10e4 f337
000001b0: 4813 0080 0400 0080 0400 0080 3083 5c2d
000001c0: b64b 90ad 8161 0aae e7be d9ad b291 b2ad
000001d0: 9d85 34ae a41b bc34 04de 6534 f1a9 1334
000001e0: e005 a734 7e6c 7434 d243 ce33 1948 9835
000001f0: eb91 a935 16db 9635 7dc1 0337 b18f fa36
00000200: 1d0e 0d37 6ebf 0937 3738 0e37 d1a7 1c37
00000210: af4c eb36 2d43 fc36 9150 0f37 648c ea36
00000220: 50a4 e536 2181 3b37 4c42 8037 4dcf 2837
00000230: 1221 1c37 f648 e637 81d1 d237 0477 8437
00000240: 073c 5337 cc76 6b38 7bcc 9938 5323 c537
00000250: 13c6 4738 d23c 6a38 041d 9c38 bec9 6138
00000260: 3dc8 1538 56e6 5037 2ded 8137 9a66 8e37
00000270: 31b6 dc37 3784 cc37 6005 9737 dfe5 1c38
00000280: 4889 2038 23d7 d237 17ea 1a29 4e2a 0ba9
00000290: 70cc 892c 4ddd 4cb1 4020 a3b1 37c5 c4b1
000002a0: bc84 c0ab 302f 8fac 8e19 92ac c909 d6b0
000002b0: c44e 3cb1 1990 3cb1 cfad 09b1 f527 87b1
000002c0: fb4e 28b1 a0db 41b1 b7da 49b1 ae49 37b1
000002d0: c301 1438 b3d9 b237 1b20 a537 4983 4c38
000002e0: 3e6f 1638 aa3d dc37 3228 7638 f1dc 8938
000002f0: a751 6738 b0a2 39b6 94c8 a037 146c f037
00000300: b4af f6b5 2f66 1737 e689 b237 ced4 a437
00000310: 47f7 60b5 4868 9eb5 4f3a 0538 6502 ea37
00000320: 3c6c f137 d868 f537 45fc d137 9773 c937
00000330: 1de2 f937 cff8 0a38 a50c f837 2c13 b637
00000340: fd6f 7237 9c53 7b37 4994 a837 22e7 8037
00000350: 82c9 8e37 7403 3d37 91a3 4c37 63e2 9137
00000360: 3bb0 7a20 fab8 e99e 56ff 5f21 9f8f 8a2d
00000370: 30ac f32d 6057 4c2f 9f06 152f 4930 0f2f
00000380: 7a20 fb2e 29f4 7337 2b7d 3e38 7edc 4b38
00000390: 2abc 0338 bfb9 3138 9a7b 0d38 7454 8238
000003a0: 9981 6038 2afb f737 aa80 9338 a1d8 9538
000003b0: 64bd ac38 8f48 9238 8b89 9638 3a3a ae38
000003c0: 421d ad38 bd86 ac38 d4dd b438 736b 030c
000003d0: de00 0000 64f6 8b0d 9e04 2fad 84a3 26ab
000003e0: c247 df28 8de6 1aac c0cd a12e f5d0 ad2c
000003f0: cae2 4036 caa4 7936 3f1d 9936 71ef 2936
