checkpoints/model_epoch_15.pth (torch, 464973 bytes, 21 tensors)

enc1.weight f4 [32, 3, 3, 3]
0	0x3e64fa53	0.22361116
1	0x3ec17e10	0.3779149
2	0x3e2a49fa	0.16629782
3	0x3e284c88	0.16435444
4	0xbcdd244a	-0.026994843
5	0x3defc8c1	0.11708213
6	0xbec6e008	-0.38842797
7	0xbe80ae32	-0.251329
8	0xbebb5fe0	-0.36596584
9	0x3e881b26	0.26583213
10	0x3e80141e	0.25015348
11	0x3e3b7768	0.18307269
12	0x3ddc0b01	0.10744286
13	0xbd126e60	-0.035749793
14	0x3d16bfef	0.036804136
15	0xbea468d6	-0.32111233
16	0xbe26e679	-0.16298856
17	0xbec72cd0	-0.38901377
18	0x3e2a6f4b	0.16644017
19	0x3e8ffd59	0.28122976
20	0x3e801584	0.25016415
21	0xbe3aaa9d	-0.18229146
22	0xbe268f69	-0.16265644
23	0x3dd2511e	0.10269378
24	0xbe809d7c	-0.2512015
25	0xbe851981	-0.2599602
26	0xbd0a61cf	-0.033784684
27	0x3e7ac2be	0.24488351
28	0x3e679bf6	0.22618088
29	0x3e56de97	0.20983349
30	0xbe142706	-0.14468011
31	0x3e0d9ece	0.1383011
32	0xbe45ac75	-0.19304068
33	0x3d2498a6	0.04018464
34	0xbea0a50f	-0.3137593
35	0xbe6d655d	-0.23183198
36	0x3da91ce5	0.08257464
37	0x3ecd194b	0.4005836
38	0x3efc30a1	0.4925585
39	0xbc3d4c33	-0.011553812
40	0x3e8754dc	0.2643193
41	0xbe555f44	-0.20837122
42	0x3b65570b	0.0034994509
43	0xbede186a	-0.43378
44	0xbf1ef9cc	-0.6209991
45	0x3d9298cc	0.0715805
46	0x3dd89b32	0.10576476
47	0x3db038f2	0.086046115
48	0x3cd4a527	0.025957657
49	0xbc87f228	-0.016594961
50	0x3d95c58d	0.073130704
51	0x3d8c975b	0.06864806
52	0xbe61f6db	-0.22066824
53	0xbe6aa0f1	-0.22912957
54	0xbc998768	-0.018741325
55	0xbe50abf0	-0.20378089
56	0xbe026286	-0.12732896
57	0x3d8f5b53	0.069998406
58	0xbd497fb1	-0.04919404
59	0xbd79ce98	-0.06098804
60	0xbed483e1	-0.41506866
61	0xbe51d1de	-0.20490214
62	0xbd74844b	-0.059696477
63	0xbe64f6fb	-0.2235984
64	0x3da640fa	0.08117862
65	0xbd8a78cd	-0.06761322
66	0x3ef79b89	0.4836085
67	0x3e4214fb	0.18953316
68	0x3d49aafa	0.04923532
69	0xbe6217e8	-0.22079432
70	0xbe461bce	-0.19346544
71	0xbe3dac28	-0.18522704
72	0xbdc70597	-0.09717863
73	0x3da105d2	0.07862438
74	0xbe340535	-0.17580111
75	0x3ef48811	0.4776006
76	0x3e5e4a9e	0.21708152
77	0x3d7ec249	0.062197004
78	0xbd21023c	-0.03930877
79	0x3d639ab5	0.055567462
80	0xbe81065d	-0.25200167
81	0x3df5b172	0.11996736
82	0x3e762993	0.24039297
83	0x3d8480c3	0.06469872
84	0xbe8ab938	-0.27094436
85	0xbe7a03ca	-0.24415508
86	0x3e25f63c	0.16207212
87	0x3e80973a	0.25115377
88	0xbe1cf3c9	-0.15327372
89	0xbe13ed6b	-0.14446037
90	0x3dbd96fd	0.09257314
91	0x3eba3dda	0.36375314
92	0x3f13742f	0.5759916
93	0xbeb0191e	-0.34394163
94	0xbf1ddd29	-0.6166559
95	0xbe2af748	-0.16695893
96	0x3e878d58	0.26475024
97	0xbeb8fa18	-0.36128306
98	0x3dd02bcf	0.10164606
99	0xbe0862b6	-0.13318905
100	0x3e4d51e7	0.20050775
101	0x3e17d241	0.14826299
102	0xbe85cfa3	-0.26134977
103	0xbe650d67	-0.22368394
104	0xbd8c434a	-0.06848772
105	0x3e12ec3e	0.14347932
106	0xbd8015b7	-0.06254142
107	0x3e4d31a0	0.20038462
108	0xbea3d11c	-0.31995475
109	0x3d3a7083	0.045517456
110	0xbe078b2f	-0.13236688
111	0x3b047e70	0.0020216964
112	0xbd745e93	-0.059660506
113	0xbe800ae2	-0.25008303
114	0x3bfe2fde	0.007757171
115	0xbda557be	-0.08073376
116	0x3c11d1ab	0.008900086
117	0x3e959882	0.29217917
118	0x3f132a19	0.5748611
119	0x3e043b76	0.12913308
120	0xbd90ecbf	-0.07076406
121	0x3e8effb6	0.27929467
122	0xbcae2e88	-0.021262422
123	0x3ea40a42	0.32039076
124	0xbe8f384b	-0.27972636
125	0x3e2799df	0.16367291
126	0xbe6f37f7	-0.23361193
127	0x3cbed949	0.023296969
128	0xbe96c48d	-0.2944683
129	0xbe0d834b	-0.13819616
130	0xbcca64df	-0.024706302
131	0x3d06a889	0.03287557
132	0x3db3a659	0.08771963
133	0xbe778479	-0.24171628
134	0xbc7b371f	-0.015332966
135	0xbed0efa3	-0.40807828
136	0xbee8d466	-0.45474547
137	0xbe8b74be	-0.27237505
138	0xbd8f48dd	-0.069963194
139	0xbeac74f3	-0.33682975
140	0xbd81f482	-0.06345464
141	0xbb483ac9	-0.0030552617
142	0xbe9d0c96	-0.30673665
143	0xbdb3857c	-0.087656945
144	0xbe749e25	-0.23888452
145	0xbe714adc	-0.23563713
146	0x3e1860bc	0.14880651
147	0xbe5bd5a0	-0.2146821
148	0xbe23bff4	-0.15991193
149	0x3dc5c879	0.09657378
150	0x3d01bef3	0.031676244
151	0x3d8fab97	0.0701515
152	0x3e95b470	0.29239225
153	0xbc2091eb	-0.009800415
154	0x3e7ebac5	0.24875934
155	0x3e1c7100	0.15277481
156	0x3e7e1628	0.2481314
157	0x3de40e9d	0.111356
158	0x3e88aaa1	0.2669268
159	0xbcf5f6b9	-0.030024873
160	0x3e7f1ba3	0.24912886
161	0x3e8b2ab8	0.2718103
162	0x3b93e141	0.0045129363
163	0xbe3c8cad	-0.18413039
164	0x3d6eaa20	0.058267713
165	0xbd3b242a	-0.045688786
166	0xbe69629e	-0.22791526
167	0xbec0601b	-0.37573323
168	0xbde8783d	-0.11351059
169	0xbe8815b5	-0.2657906
170	0xbec1ebf0	-0.3787532
171	0xbd9091f2	-0.07059087
172	0x3c15bad9	0.009138786
173	0xbde9cd39	-0.11416096
174	0xbe8617e2	-0.26190096
175	0xbe06f821	-0.13180591
176	0xbe88fc9f	-0.26755235
177	0xbe25a886	-0.16177568
178	0x3c23b9b5	0.0099930065
179	0xbe82b76c	-0.25530565
180	0x3eb8fff0	0.36132765
181	0x3e5dfe1d	0.21678968
182	0x3e3d1869	0.18466343
183	0x3e19af89	0.15008368
184	0x3e8edd22	0.27903086
185	0xbd43161b	-0.047628503
186	0x3ebf1a28	0.37324643
187	0x3ebe131d	0.37123957
188	0x3e80af88	0.2513392
189	0xbe3100ef	-0.17285512
190	0x3e7f1d5f	0.24913548
191	0x3dd488e9	0.10377676
192	0x3dfd642b	0.12372621
193	0x3e01c178	0.12671459
194	0xbce966bc	-0.02849137
195	0x3e00fcc4	0.12596422
196	0xbe6b86fe	-0.23000714
197	0xbe23defc	-0.1600303
198	0x3db1e404	0.08686069
199	0x3e34709b	0.1762108
200	0xbe26fb45	-0.16306789
201	0x3dc2d160	0.09512591
202	0xbe11eee3	-0.14251284
203	0xbeb32885	-0.3499185
204	0xbe776259	-0.2415861
205	0xbe8d87c4	-0.27642643
206	0xbecf0b6e	-0.40438408
207	0x3e8a22d0	0.26979685
208	0x3e59ff35	0.2128876
209	0x3e42e91c	0.19034237
210	0x3e1df99f	0.15427254
211	0x3e3f0989	0.18655981
212	0xbb40f472	-0.0029442576
213	0x3e79ab36	0.24381718
214	0x3d8a7513	0.067606114
215	0xbd305040	-0.043045282
216	0x3e1090ce	0.14117739
217	0x3ddc756d	0.10764585
218	0x3d5d75a6	0.054067276
219	0xbe9e1abd	-0.30879775
220	0xbe104fc1	-0.14092924
221	0xbd42bd78	-0.047543973
222	0xbd8d51c0	-0.06900358
223	0xbd68a10e	-0.05679422
224	0xbe1d05fb	-0.15334313
225	0x3ebb7f28	0.3662045
226	0x3e347fed	0.17626925
227	0x3ebc7e9d	0.36815348
228	0xbe6f00f1	-0.23340203
229	0xbe76f6fa	-0.24117652
230	0x3e44468b	0.19167535
231	0x3d2daada	0.042399265
232	0xbe9e91b8	-0.3097055
233	0xbd17a12b	-0.037018936
234	0x3e616834	0.22012407
235	0x3e876bd5	0.26449457
236	0x3e8ea398	0.27859187
237	0xbe6a95ac	-0.22908658
238	0xbe0ef9d6	-0.13962492
239	0x3e48b664	0.19600827
240	0x3de4f2b8	0.111791074
241	0xbe682d4d	-0.22673531
242	0x3e604f00	0.21905136
243	0xbecd4ff1	-0.40100053
244	0xbea50069	-0.32226875
245	0xbe6e4b04	-0.23270804
246	0x3ba764fb	0.0051084734
247	0x3e332347	0.17493926
248	0x3d832bc4	0.06404832
249	0x3e89a692	0.26884896
250	0x3eb48ef0	0.35265303
251	0x3dadf2a4	0.08493546
252	0xbf058792	-0.5215999
253	0xbe96faf6	-0.29488343
254	0xbee95345	-0.45571342
255	0xbd83169a	-0.06400795

enc1.bias f4 [32]
0	0xbc48d001	-0.012256623
1	0xbb9617c2	-0.004580469
2	0xbc47a971	-0.012186394
3	0xba562d7e	-0.0008170231
4	0xbcdf0f6f	-0.027229039
5	0x3df30919	0.118669696
6	0x3bad11f6	0.005281682
7	0xbe16d9d7	-0.14731537
8	0xbf159350	-0.58427906
9	0xbb8e38da	-0.0043402733
10	0x3d4aa217	0.049470987
11	0xbb9e01a6	-0.004821974
12	0xbe3b7c42	-0.1830912
13	0x3da3889e	0.07985042
14	0x3d361139	0.04445002
15	0xbecc96a0	-0.39958668
16	0xbb3f95b2	-0.0029233512
17	0xbe097682	-0.13424113
18	0xbebf7a5c	-0.3739804
19	0xbe7ee61e	-0.2489247
20	0xbbbde399	-0.005794954
21	0xbcf9491a	-0.030430365
22	0xbefab482	-0.48965842
23	0x3c2f46ae	0.010698004
24	0xbed6b978	-0.41938376
25	0xbd26b741	-0.04070211
26	0xbe743979	-0.23850049
27	0xbda0e815	-0.07856766
28	0xbc555511	-0.01302077
29	0xbe411577	-0.18855844
30	0x3be3d647	0.006953034
31	0x3d8010ff	0.06253242

enc2.weight f4 [64, 32, 3, 3]
0	0xbf3b4d15	-0.7316449
1	0xbebb6642	-0.36601454
2	0xbf0b614b	-0.5444533
3	0xbccd7dc9	-0.025084393
4	0x3cf3af79	0.029746758
5	0x3e13ddcd	0.14440079
6	0x3e9466e0	0.28984737
7	0xbdb6db45	-0.08928541
8	0x3e260abb	0.16215031
9	0xbf8d5445	-1.1041342
10	0xbf3bd534	-0.733722
11	0xbf83049d	-1.0235783
12	0xbe36aa84	-0.17838484
13	0xbde5f172	-0.11227693
14	0x3de61bf7	0.112358026
15	0x3eeb72a4	0.459859
16	0x3da33b9a	0.079703525
17	0x3ea9ae55	0.33140817
18	0x3e602e0f	0.2189257
19	0xbf4bd8cc	-0.7962768
20	0xbf79b9dc	-0.97549224
21	0x3fa1cf81	1.264145
22	0x3ed4a3b4	0.41531146
23	0xbdc35a68	-0.09538728
24	0x3e3f571c	0.18685573
25	0x3e224229	0.1584555
26	0x3df9e34d	0.12201557
27	0xbf2fcac6	-0.6866878
28	0xbedc93f8	-0.4308164
29	0xbf71e239	-0.94485813
30	0x3e9ab504	0.3021623
31	0x3dfbea3b	0.12300535
32	0x3e2451ca	0.16046825
33	0x3f134768	0.5753083
34	0x3e4c45ab	0.19948451
35	0x3f1a1967	0.6019501
36	0xbe257f74	-0.16161901
37	0xbe4ba6ea	-0.19887891
38	0xbe76d6e9	-0.24105419
39	0x3d8483e8	0.064704716
40	0xbd892b72	-0.0669774
41	0xbe129fa6	-0.14318714
42	0x3eb538e4	0.35394967
43	0x3e6ec5ae	0.23317596
44	0x3e432a72	0.1905916
45	0xbe980268	-0.29689336
46	0xbdc6009b	-0.09668084
47	0xbe1314aa	-0.14363351
48	0x3e120b08	0.1426202
49	0x3e1e2628	0.15444243
50	0x3e06bd44	0.13158137
51	0x3d9f2319	0.07770366
52	0xbdb62984	-0.08894637
53	0xbc964ca2	-0.018347088
54	0xbefcce2a	-0.4937604
55	0xbea396f6	-0.31951112
56	0xbf0a2f49	-0.539784
57	0xbec305e0	-0.3809042
58	0xbe605ab6	-0.21909603
59	0xbe57f39a	-0.2108902
60	0x3e3ca5ba	0.18422595
61	0x3daac0ec	0.08337578
62	0x3e8846a7	0.26616403
63	0xbe2b8eff	-0.16753767
64	0x3bef00dc	0.0072938036
65	0xbd52d469	-0.0514721
66	0x3e1fab68	0.1559273
67	0x3de6ad08	0.11263472
68	0x3d8deda4	0.06930092
69	0x3e548bbe	0.20756432
70	0xbcea2132	-0.028580282
71	0xbe3a4a9d	-0.18192525
72	0x3d8eabd7	0.069663696
73	0x3ef481b2	0.477552
74	0xbe26f073	-0.16302662
75	0xbd4ff92f	-0.05077475
76	0xbe7a6e60	-0.24456167
77	0xbf93a2a4	-1.1534009
78	0x3e872317	0.2639396
79	0x3f3eacc4	0.7448237
80	0x3e71884a	0.23587146
81	0xbfe87a43	-1.8162311
82	0xbf49bddc	-0.7880533
83	0xbfb3dc28	-1.4051561
84	0x3944f28d	0.00018782374
85	0x3d0aaccb	0.033856194
86	0x3d4a5a3d	0.049402464
87	0x3f278128	0.6543145
88	0x3d9072fe	0.07053183
89	0x3ee240e3	0.4419013
90	0x3e31e19d	0.17371221
91	0x3e7a6833	0.24453811
92	0x3e48225e	0.1954436
93	0x3cb0c07d	0.02157616
94	0x3d33815c	0.04382454
95	0x3da6de37	0.08147853
96	0x3dc05d0c	0.09392747
97	0xbd42c802	-0.047554024
98	0x3c8d361b	0.017237714
99	0xbf4c1685	-0.7972186
100	0xbe9ebab0	-0.31001806
101	0xbfc89296	-1.5669734
102	0xbb88ea2c	-0.004178306
103	0x3ca1293b	0.01967298
104	0x3d151043	0.03639246
105	0x3e2196ae	0.15780136
106	0xbdba29fb	-0.090900384
107	0x3f0af2f0	0.54276943
108	0xbd3c6c36	-0.046001635
109	0x3c90e01c	0.017684989
110	0xbbf0d5a3	-0.007349686
111	0xbd4fe74a	-0.050757684
112	0x3d268987	0.0406585
113	0xbbced1df	-0.0063116397
114	0x3c5e3a51	0.013563708
115	0x3d22c089	0.039734397
116	0x3d1e32d3	0.03862269
117	0xbed1c53c	-0.4097079
118	0xbee94de3	-0.45567235
119	0xbeef0f8f	-0.46691558
120	0xbf674e05	-0.90353423
121	0xbf7997c1	-0.97497183
122	0xbf8b45c8	-1.088067
123	0x3ed16968	0.4090073
124	0x3edb9752	0.42888886
125	0x3ea2390d	0.3168415
126	0xbf2339de	-0.63760173
127	0xbf3cee47	-0.7380108
128	0xbfb05cbb	-1.3778299
129	0xbead8bc4	-0.33895695
130	0xbf0d964e	-0.5530747
131	0xbf9942e3	-1.1973537
132	0x3e3172cb	0.17328946
133	0xbe959911	-0.29218343
134	0xbf752554	-0.95760083
135	0xbd5b3eec	-0.053526804
136	0x3da62487	0.08112436
137	0xbdc81855	-0.09770266
138	0x3bea43e5	0.007149207
139	0x3c07bf9b	0.008285428
140	0x3e054e46	0.1301814
141	0x3e8bc964	0.27302086
142	0x3e41fad6	0.18943343
143	0x3ecc85d5	0.39945856
144	0x3cf47c61	0.029844465
145	0x3eb3cd52	0.35117584
146	0x3e9ab070	0.30212736
147	0x3df98870	0.121842265
148	0x3d63b716	0.055594526
149	0x3e8364f9	0.25662974
150	0x3ef4574a	0.47722846
151	0xbdbf15f6	-0.093303606
152	0x3eaa2f9a	0.33239442
153	0xbec96adf	-0.3933935
154	0xbec7bb2a	-0.39009982
155	0xbf81010f	-1.0078448
156	0xbe7040f7	-0.23462282
157	0xbe1d16b2	-0.15340689
158	0xbeb22820	-0.34796238
159	0xbb483924	-0.0030551637
160	0xbe5d606b	-0.21618812
161	0xbe2c6486	-0.16835222
162	0x3d9cb98d	0.076525785
163	0x3d9292f2	0.07156934
164	0xbc72f612	-0.014829176
165	0xbf661976	-0.898826
166	0xbf4a185b	-0.78943413
167	0xbed2fc00	-0.41207886
168	0xbdae08e0	-0.084977865
169	0xbca569b2	-0.020192001
170	0xbe0c9fb4	-0.13732797
171	0xbe6f541c	-0.23371929
172	0xbdee2f3b	-0.11630102
173	0xbde55a55	-0.1119887
174	0xbee56079	-0.44800165
175	0xbeb43437	-0.35196087
176	0xbe8260d1	-0.2546449
177	0xbeee3641	-0.46525767
178	0xbec6a5e3	-0.38798437
179	0xbeb1e732	-0.347467
180	0x3e938a5c	0.28816497
181	0x3eed6e37	0.4637315
182	0x3e99da43	0.30049333
183	0x3dd367bc	0.1032252
184	0x3d8faeea	0.07015784
185	0x3e4dd5f9	0.20101155
186	0x3d28c680	0.04120493
187	0xbea393be	-0.31948656
188	0x3c7ca692	0.015420573
189	0x3ea637aa	0.32464343
190	0x3ec74662	0.38920885
191	0x3e5a3cf9	0.21312322
192	0x3e813233	0.2523361
193	0xbdbd7381	-0.09250546
194	0xbe1c6363	-0.15272288
195	0xbedfa32a	-0.43679172
196	0xbe97beba	-0.296377
197	0xbe32409c	-0.17407459
198	0xbe7de13e	-0.24792954
199	0xbe5aae66	-0.2135559
200	0xbe622960	-0.22086096
201	0xbdd19287	-0.10233026
202	0xbcd4b197	-0.025963588
203	0xbc76d86a	-0.015066246
204	0x3e694da0	0.22783518
205	0x3dd83ea6	0.10558824
206	0x3e50b69a	0.20382157
207	0xbf2035bc	-0.6258199
208	0xbe987307	-0.2977526
209	0xbe8d1790	-0.2755704
210	0xbe91b8c7	-0.28461286
211	0xbcdda330	-0.027055353
212	0xbd3d5129	-0.04621998
213	0x3ea1ce6a	0.31602794
214	0x3e18ec0f	0.14933799
215	0xbe3b0c3d	-0.18266387
216	0xbe6dfc26	-0.23240718
217	0xbe6f118e	-0.2334654
218	0xbe7f0638	-0.24904716
219	0xbedd349f	-0.4320421
220	0x3c4ef0e1	0.012630672
221	0x3dab70a6	0.08371095
222	0xbe28d166	-0.16486129
223	0x3c6363a4	0.013878737
224	0xbe29c5de	-0.16579387
225	0x3d836d1a	0.06417294
226	0x3e9c91ca	0.30579978
227	0x3d46dc17	0.048549738
228	0xbe9d4de7	-0.30723497
229	0xbda19115	-0.07889
230	0xbe6b8704	-0.23000723
231	0x3d8a121c	0.06741735
232	0xbd94fac1	-0.0727439
233	0xbd059112	-0.032609053
234	0xbd24f4a5	-0.040272374
235	0xbd8e97c4	-0.06962541
236	0xbe439fe7	-0.19103967
237	0x3e0efc61	0.13963462
238	0x3ca4a58e	0.020098474
239	0x3d45b37f	0.048266884
240	0x3d565d97	0.052335348
241	0xbd33c7ef	-0.043891843
242	0xba9ae84f	-0.0011818501
243	0xbd8913ac	-0.06693205
244	0x3e9da2db	0.3078831
245	0x3cace1ad	0.021103704
246	0x3db93f24	0.09045246
247	0x3e99aa09	0.3001254
248	0xbe400699	-0.18752517
249	0x3e7eb7ed	0.2487485
250	0x3f06acb1	0.52607256
251	0x3dc5a96f	0.096514575
252	0x3e1d4a6d	0.15360422
253	0x3e2a4a14	0.16629821
254	0x3d979aab	0.074025474
255	0x3dd7eb98	0.10542983

enc2.bias f4 [64]
0	0x3d9a7660	0.075421095
1	0xbdc797fb	-0.09745785
2	0xbc99a5ef	-0.018755881
3	0xbe88781b	-0.26654133
4	0xbef060bd	-0.46948805
5	0xbd78be5d	-0.06072842
6	0xbc0c0cd0	-0.008547977
7	0xbc588ab8	-0.013216667
8	0xb9f0e0fe	-0.00045944
9	0xbd520ec0	-0.051283598
10	0xbc529542	-0.012852969
11	0xbe6e1c24	-0.23252922
12	0xbd40c28a	-0.047060527
13	0xbd3d653e	-0.04623913
14	0xbd4e2b26	-0.05033412
15	0x3c006923	0.007837567
16	0xbe5ae9b9	-0.2137822
17	0xbe843666	-0.25822753
18	0xbe934fef	-0.28771922
19	0xbe0db422	-0.13838246
20	0xbcae1fc6	-0.021255385
21	0xbda4b38e	-0.0804206
22	0xbdb08360	-0.08618808
23	0xbc64f824	-0.013975177
24	0xbde0d5a7	-0.10978251
25	0xbddf8d1a	-0.10915585
26	0xbe00124f	-0.12506984
27	0xbc046e2b	-0.008082907
28	0xbcee489a	-0.029087353
29	0xbd4e06da	-0.050299503
30	0xbc16ec7b	-0.009211655
31	0xbdba1722	-0.090864435
32	0x3df5314e	0.11972295
33	0x3cbde37f	0.023179768
34	0xbdbe2eaf	-0.09286248
35	0xbc3bca94	-0.011461873
36	0xbe23411f	-0.1594281
37	0x3d3d5ec1	0.046232942
38	0xbd66482e	-0.05622118
39	0xbd8f3148	-0.069918215
40	0xbaf6598c	-0.0018794998
41	0xbbe8966d	-0.0070980103
42	0xbcfdfa6e	-0.031003203
43	0xbe0f0dac	-0.13970059
44	0xbd2d1b5f	-0.04226243
45	0xbe18a3cc	-0.14906234
46	0x3e1ba8fb	0.1520118
47	0xbcedada4	-0.029013462
48	0xbd9fc337	-0.07800906
49	0xbaaf3a63	-0.0013368841
50	0x3bb4cd11	0.00551761
51	0xbd3f931a	-0.046771146
52	0xbf1c2c34	-0.6100495
53	0xbe916771	-0.28399232
54	0xbe76ad09	-0.24089445
55	0xbf104165	-0.56349784
56	0xbca62fb5	-0.02028642
57	0xbf1374c1	-0.5760003
58	0xbc44e64a	-0.012017796
59	0xbdb6caa9	-0.08925373
60	0xbd9f3a4e	-0.077747926
61	0x3db925f2	0.090404406
62	0xbe72bf47	-0.23705779
63	0x3e61e89d	0.22061391

dec1.weight f4 [32, 64, 3, 3]
0	0xbe1962fd	-0.14979167
1	0xbd8a595f	-0.067553274
2	0xbb704445	-0.0036661786
3	0x3da47844	0.08030751
4	0x3e13d299	0.14435805
5	0x3e58bad4	0.2116502
6	0x3e373dcb	0.17894666
7	0x3e2358f9	0.15951909
8	0x3e5a4e2d	0.21318884
9	0x3c5df29f	0.013546615
10	0xbd790023	-0.060791146
11	0xbd4f97a2	-0.050681718
12	0xbc3cb8b3	-0.011518645
13	0xbd251f00	-0.040312767
14	0xbd070bf6	-0.03297039
15	0x3b3d3f31	0.0028876776
16	0xbd34e450	-0.04416305
17	0x3bff856a	0.0077978866
18	0x3dfe80b7	0.12426894
19	0x3d570150	0.052491486
20	0x3d918479	0.07105345
21	0x3cc63603	0.024195677
22	0xbac86e6c	-0.0015291697
23	0x3cec8832	0.028873537
24	0x3d689768	0.056785017
25	0x3d3bbdda	0.045835353
26	0x3d5a4a52	0.053293534
27	0xbdcf5e89	-0.10125453
28	0xbe19070e	-0.14944097
29	0xbe016f1d	-0.12640043
30	0xbe37be87	-0.17943774
31	0xbe7ee905	-0.24893577
32	0xbe49825c	-0.19678634
33	0xbe017090	-0.12640595
34	0xbe45c03a	-0.1931161
35	0xbe0794b2	-0.13240317
36	0xbea1a823	-0.3157359
37	0xbeb1c163	-0.34717855
38	0xbe73a55b	-0.23793547
39	0xbde4ae1e	-0.11166023
40	0xbe118923	-0.1421247
41	0xbd75d41b	-0.060016733
42	0xbe4ec3ab	-0.20191829
43	0xbe8af3c8	-0.27139115
44	0xbe1dd4de	-0.15413234
45	0x3e59b2ad	0.21259566
46	0x3c88bfbb	0.016692987
47	0x3e53177d	0.20614429
48	0xbb9a1770	-0.004702501
49	0xbe869d8a	-0.26292068
50	0xbd62b5d5	-0.05534919
51	0x3e0ec969	0.1394402
52	0xbdf4e6c3	-0.11958077
53	0x3da75189	0.081698485
54	0xbecacfe3	-0.3961173
55	0x3d8b831f	0.06812119
56	0xbd1f0189	-0.038819823
57	0xbdac965d	-0.08427117
58	0x3e4c2912	0.19937542
59	0xbc67c321	-0.014145643
60	0xbe5436be	-0.20724007
61	0x3e2a1796	0.1661056
62	0x3db7ce18	0.08974856
63	0xbe8eeec5	-0.27916542
64	0xbe6f4a3e	-0.23368165
65	0xbf0205c2	-0.50790036
66	0xbe2c3494	-0.16816932
67	0xbe01cf78	-0.126768
68	0xbea72dce	-0.32652134
69	0xbd0c9db1	-0.034330074
70	0xbe22864a	-0.1587154
71	0xbec5eee6	-0.38658828
72	0xbe824e4d	-0.25450364
73	0x3e8fc7d6	0.2808215
74	0xbd8246a0	-0.06361127
75	0xbe2b8d6e	-0.1675317
76	0x3edb96e4	0.42888558
77	0x3dd8e9f9	0.10591502
78	0xbf5ebaa8	-0.87003565
79	0xbe2e7fed	-0.17040987
80	0xbe9f5b0f	-0.3112416
81	0x3d931ee0	0.07183623
82	0xbdeff4b4	-0.11716595
83	0xbd447783	-0.047965538
84	0x3c773cd9	0.015090191
85	0xbe23a563	-0.15981059
86	0xbdd1aed6	-0.102384254
87	0x3ccd6a5b	0.025075128
88	0xbd4edc4b	-0.050503056
89	0x3c6139cd	0.013746691
90	0xbfef9b99	-1.871936
91	0xbed14df4	-0.40879786
92	0xbf63e5b6	-0.89022386
93	0xbf7beddb	-0.98409814
94	0x3f2aa283	0.66654223
95	0xbda1a503	-0.078928016
96	0xc01b4c52	-2.4265332
97	0xbf8a22b5	-1.0791842
98	0xbfd976ef	-1.6989421
99	0xbcab50d4	-0.020912565
100	0xbe33ab1d	-0.17545743
101	0xbd1a54e7	-0.037678625
102	0xbdcc1469	-0.099648304
103	0xbe647272	-0.22309282
104	0xbd9e3708	-0.0772534
105	0x3d43d001	0.04780579
106	0xbbe65df5	-0.0070302435
107	0x3e2ffa4e	0.17185327
108	0x3dbf406c	0.09338459
109	0xbd946ba7	-0.072470956
110	0x3dca58ab	0.09880193
111	0x3d684d8f	0.05671459
112	0xbdc3e4bb	-0.09565111
113	0x3d6c223e	0.057649843
114	0x3e2abeee	0.16674396
115	0x3b9b760e	0.004744298
116	0x3e284a13	0.16434507
117	0x3ed1c634	0.4097153
118	0x3d3cb93f	0.046075102
119	0x3ed170a5	0.40906253
120	0x3de5c838	0.11219829
121	0xbe9fd348	-0.31215882
122	0x3e18f09b	0.14935534
123	0x3ebc935c	0.36831176
124	0xbdcfde7f	-0.1014986
125	0x3e40cbc7	0.18827735
126	0x3eea70fe	0.4578933
127	0x3d66491e	0.056222074
128	0x3e7afc73	0.24510364
129	0x3db93ef9	0.09045214
130	0xbea59290	-0.3233838
131	0xbdffc022	-0.12487818
132	0x3f03fc59	0.51556927
133	0x3d9e9c8b	0.07744702
134	0x3e42403f	0.1896982
135	0x3e2358ee	0.15951893
136	0x3df6580e	0.12028514
137	0x3e6d828d	0.23194332
138	0x3dcd842e	0.10034977
139	0x3d605cdf	0.05477607
140	0x3e186bd9	0.1488489
141	0x3da7e978	0.081988275
142	0x3cdfb9a7	0.027310206
143	0x3e01bf13	0.12670545
144	0xbd8e266b	-0.069409214
145	0xbe40cf94	-0.18829185
146	0xbdeae1c2	-0.11468841
147	0xbe0e993c	-0.13925642
148	0xbe369fbc	-0.17834371
149	0xbe02f19c	-0.12787479
150	0xbd880098	-0.06640738
151	0xbe178604	-0.14797217
152	0xbdd64d2d	-0.10463939
153	0x3d5df46d	0.05418818
154	0xbb9ec98d	-0.004845804
155	0x3e09e500	0.13466263
156	0x3d31d024	0.04341139
157	0xbd048d03	-0.03236104
158	0x3e55e810	0.20889306
159	0x3c85f322	0.016351286
160	0x3d1cf3d6	0.038318478
161	0x3e81b90b	0.2533649
162	0x3dea9e56	0.114559814
163	0xbda73dad	-0.081660606
164	0x3c9580be	0.018249866
165	0xbdfaf4e9	-0.12253744
166	0xbe937d4b	-0.28806528
167	0xbe142eb4	-0.14470941
168	0xbc92cea5	-0.017920801
169	0xbe1cc29a	-0.1530861
170	0xbdc4294d	-0.0957819
171	0xbe9deaf5	-0.3084332
172	0xbdae2d18	-0.08504695
173	0xbeb75b76	-0.35811967
174	0xbe90086f	-0.28131434
175	0x3cc78718	0.02435641
176	0xbe9199c3	-0.28437623
177	0xbdfde8b0	-0.12397897
178	0xbdb3cee6	-0.08779697
179	0xbef3f851	-0.47650388
180	0xbf8dfb2e	-1.1092279
181	0xbf0f4631	-0.5596648
182	0xbf131272	-0.5745002
183	0xbf1735b3	-0.59066314
184	0xbd8c65ed	-0.06855378
185	0xbc7a2506	-0.015267616
186	0xbf08c41b	-0.53424233
187	0xbb61c7c8	-0.0034451354
188	0x3e566a55	0.20939
189	0xbe838247	-0.2568533
190	0xbdefc354	-0.11707178
191	0x3c148f0a	0.009067306
192	0xbe33e9a2	-0.17569593
193	0xbcfc45a8	-0.030794933
194	0xbb88aad2	-0.004170754
195	0xbe21663e	-0.15761659
196	0x3a9440ea	0.001131085
197	0x3c6f2427	0.014596022
198	0xbf0b7ba1	-0.5448552
199	0xbe3344f2	-0.1750677
200	0xbf1e44f8	-0.6182399
201	0xbedb6a0f	-0.42854354
202	0x3dc17508	0.0944615
203	0xbe8e0893	-0.27740917
204	0xbf27287d	-0.65296155
205	0xbe44ae72	-0.1920717
206	0xbec1f309	-0.37880734
207	0xbd5ff291	-0.05467469
208	0x3e772e48	0.24138749
209	0xbe26b3b9	-0.16279496
210	0x3e544ab8	0.20731628
211	0x3f251888	0.64490557
212	0x3dc79bdb	0.09746524
213	0xbed5b1a4	-0.41737092
214	0xbd9b405b	-0.07580634
215	0xbf6b4e03	-0.9191591
216	0x3e946d38	0.28989577
217	0x3e3c2e2f	0.18376993
218	0x3e4a5677	0.19759546
219	0x3e10b7f5	0.14132674
220	0x3c5e55ae	0.013570232
221	0x3de93051	0.11386169
222	0x3e31c0fe	0.17358777
223	0x3dce174f	0.100630395
224	0x3e0264b4	0.12733728
225	0x3b07ba30	0.0020710342
226	0x3d156fa1	0.03648341
227	0x3d29ad41	0.041424993
228	0x3d2aa9bb	0.041665774
229	0x3d2e014e	0.042481713
230	0x3d189427	0.037250664
231	0x3c6fe172	0.014641153
232	0x3d5668b9	0.052345965
233	0x3da8c397	0.08240431
234	0xbea1dfce	-0.31616062
235	0xbe57c41d	-0.21070905
236	0xbe020a6d	-0.1269929
237	0x3cb8eb92	0.022573266
238	0xbd6d08d8	-0.057869762
239	0x3dcb6732	0.09931792
240	0x3e1c9bfe	0.15293881
241	0x3d8da5ff	0.06916427
242	0x3e9821b1	0.29713205
243	0xbc9dc7e6	-0.019260358
244	0x3de7f02b	0.11325105
245	0xbe7a9f6d	-0.24474879
246	0xbc7d3837	-0.015455297
247	0x3e2ce714	0.16885024
248	0xbd93f09e	-0.072236285
249	0xbe47e6a2	-0.19521573
250	0x3d157296	0.03648623
251	0xbe696903	-0.22793965
252	0x3e45cfce	0.19317552
253	0xbc26cd2d	-0.010180754
254	0x3df917fd	0.121627785
255	0x3d887d61	0.06664539

dec1.bias f4 [32]
0	0x3e5d8ba5	0.21635301
1	0xbcabb2c3	-0.020959264
2	0xbdb23cae	-0.0870298
3	0xbe052dd5	-0.13005765
4	0x3e8cd869	0.27508858
5	0x3e85d4ca	0.26138908
6	0x3e14ac9b	0.14518969
7	0xbd67e767	-0.056617167
8	0x3dc82cc3	0.097741626
9	0x3e1db353	0.15400438
10	0x3d85f19e	0.065402254
11	0xbd1199bf	-0.035547014
12	0xbd752b40	-0.0598557
13	0x3eb6c2e4	0.35695565
14	0xbd774cef	-0.060376104
15	0xbd9a0645	-0.07520727
16	0xbcf3b54d	-0.029749537
17	0x3e8b65b0	0.2722602
18	0x3e74e7aa	0.23916498
19	0x3e8b78c8	0.27240586
20	0x3e8317f1	0.25604203
21	0xbd27ca3e	-0.040964358
22	0x3ec64f28	0.38732266
23	0xbd0d3012	-0.03446967
24	0x3e35d924	0.17758614
25	0x3eab6fd0	0.33483744
26	0xbd56e3c9	-0.052463327
27	0xbd93fe8c	-0.07226285
28	0xbe448cbe	-0.19194314
29	0xbccf4688	-0.025302187
30	0xbd8ca64e	-0.068676576
31	0x3dad4cae	0.08461891

out.weight f4 [1, 32, 1, 1]
0	0xbe8302c1	-0.2558804
1	0x3dce91a4	0.100863725
2	0x3dcd0038	0.10009807
3	0xbcc47d6c	-0.023985587
4	0xbe795add	-0.24351068
5	0xbeae2609	-0.34013394
6	0xbd9a01de	-0.075198874
7	0x3dbbb740	0.091658115
8	0xbf0e3c53	-0.555608
9	0xbde54e23	-0.11196544
10	0xbe362a47	-0.17789565
11	0xbc61195e	-0.013738958
12	0x3dd63d8f	0.1046096
13	0x3ef3df0a	0.47631103
14	0x3dba7dad	0.09106002
15	0xbdb5e8a9	-0.08882267
16	0x3d78c7c9	0.060737405
17	0xbe08b607	-0.13350688
18	0xbee1a7ef	-0.44073436
19	0xbe246d34	-0.16057283
20	0xbe275c56	-0.16343817
21	0x3c65de34	0.014030028
22	0x3ec2cb51	0.38045743
23	0x3d8afa39	0.067860074
24	0xbe3f4db8	-0.18681991
25	0xbe4a0f22	-0.19732335
26	0x3d929070	0.071564555
27	0x3def4ea7	0.116849236
28	0xbf122700	-0.5709076
29	0x3e037752	0.12838486
30	0x3d189eed	0.03726094
31	0xbf3611e8	-0.7112107

exp_avg f4 [32, 3, 3, 3]
0	0xbb84f2d7	-0.004057269
1	0xbb94e982	-0.004544438
2	0xbb9e3559	-0.004828137
3	0xbb81ec21	-0.0039649163
4	0xbb9146fa	-0.00443351
5	0xbb9d65c8	-0.004803393
6	0xbb73ba99	-0.0037190078
7	0xbb86bcdb	-0.004111869
8	0xbb95a364	-0.004566597
9	0xbb525d21	-0.0032098966
10	0xbb6cbe65	-0.0036124226
11	0xbb7faf86	-0.0039014532
12	0xbb4c6f3c	-0.003119423
13	0xbb69a7a6	-0.0035652905
14	0xbb811ace	-0.003939963
15	0xbb3e60c5	-0.0029049378
16	0xbb598455	-0.0033190448
17	0xbb785486	-0.0037892177
18	0xbb36b05e	-0.002787612
19	0xbb4cbac9	-0.0031239262
20	0xbb602643	-0.0034202493
21	0xbb2ef477	-0.0026696005
22	0xbb474b8f	-0.0030410027
23	0xbb5e9ba6	-0.0033967285
24	0xbb2353e2	-0.0024921824
25	0xbb3a2fda	-0.002840987
26	0xbb539b5c	-0.0032288646
27	0xbcc14ce4	-0.023596235
28	0xbcc4c30e	-0.02401879
29	0xbcc73a81	-0.024319889
30	0xbcbd2942	-0.023090962
31	0xbcbb27a6	-0.022846054
32	0xbcb9844e	-0.022646096
33	0xbcb771f9	-0.022393214
34	0xbcb19547	-0.021677626
35	0xbcafd734	-0.021464922
36	0xbcba4477	-0.022737725
37	0xbcc046d1	-0.023471268
38	0xbcc36a6a	-0.023854453
39	0xbcb5bd34	-0.022184946
40	0xbcb3f0a8	-0.02196534
41	0xbcb06197	-0.02153091
42	0xbcacd4d3	-0.021097576
43	0xbca20625	-0.01977832
44	0xbc9ef86a	-0.019405562
45	0xbc85c88b	-0.016330978
46	0xbc868079	-0.016418682
47	0xbc8ab813	-0.016933477
48	0xbc83fe71	-0.016112538
49	0xbc82b15f	-0.015953718
50	0xbc847906	-0.01617099
51	0xbc7f1f44	-0.015571419
52	0xbc7981a3	-0.015228662
53	0xbc7c7bf6	-0.015410414
54	0xb9e65329	-0.00043930978
55	0xb9ccb6fc	-0.00039046246
56	0xb9bee643	-0.00036411182
57	0xb99898b4	-0.00029105472
58	0xb99eb803	-0.00030273208
59	0xb99e13d1	-0.00030150873
60	0xb8826994	-6.2185485e-05
61	0xb8f23d7b	-0.00011550911
62	0xb924e9eb	-0.000157274
63	0xb9ebdc72	-0.00044986937
64	0xb9d16fdf	-0.00039946937
65	0xb9d7109b	-0.00041020368
66	0xb988213d	-0.00025964706
67	0xb98ec0ff	-0.00027228144
68	0xb9a55c18	-0.00031539868
69	0xb69b7fb8	-4.6342284e-06
70	0xb8ba7a5b	-8.8919616e-05
71	0xb937e9fe	-0.00017539409
72	0xba247807	-0.0006273989
73	0xba17882d	-0.00057804846
74	0xba1540ee	-0.0005693574
75	0xba175cbc	-0.00057740114
76	0xba153688	-0.0005692025
77	0xba172e94	-0.00057671336
78	0xb9b7eda9	-0.0003508155
79	0xb9ce1a53	-0.00039310995
80	0xb9e9e686	-0.00044612976
81	0xbcb597e1	-0.022167148
82	0xbcb9ade2	-0.022665922
83	0xbcbe8a20	-0.023259223
84	0xbcafd354	-0.021463074
85	0xbcabd7a2	-0.020976845
86	0xbcb5ea38	-0.02220641
87	0xbcbae0ca	-0.022812266
88	0xbcb0a990	-0.021565229
89	0xbcb53b3f	-0.022122977
90	0xbca4ee4e	-0.020133164
91	0xbcace1fa	-0.021103848
92	0xbcb4d356	-0.02207343
93	0xbc9840fd	-0.018585676
94	0xbc9154b7	-0.01774059
95	0xbca3179d	-0.01990872
96	0xbca5bb31	-0.020230861
97	0xbc94845c	-0.01812952
98	0xbc9fb7ba	-0.019496787
99	0xbc807159	-0.015679048
100	0xbc834e42	-0.016028527
101	0xbc857cba	-0.016294826
102	0xbc7775e6	-0.015103793
103	0xbc7574f0	-0.014981493
104	0xbc8029f5	-0.015645007
105	0xbc8111c5	-0.015755543
106	0xbc793496	-0.015210291
107	0xbc7e0611	-0.015504376
108	0x3b9b2101	0.004734159
109	0x3b9ee6ac	0.0048492756
110	0x3b95db54	0.004573265
111	0x3b9c8205	0.0047762417
112	0x3b9a8be5	0.0047163838
113	0x3b8e3a73	0.004340464
114	0x3b97f903	0.004637839
115	0x3b92752c	0.0044695344
116	0x3b88fde7	0.004180658
117	0x3bd096e8	0.0063656457
118	0x3bcd20ca	0.0062600123
119	0x3bc768dd	0.0060854987
120	0x3bd13f57	0.0063857245
121	0x3bc98d21	0.006150857
122	0x3bc27b3a	0.0059351
123	0x3bca320d	0.0061705173
124	0x3bc9361a	0.0061404826
125	0x3bc0f171	0.005888157
126	0x3ba05d60	0.0048939437
127	0x3b9e2a04	0.004826786
128	0x3b950cb7	0.004548635
129	0x3b9d5968	0.004801918
130	0x3b95cffb	0.0045719123
131	0x3b8f08a7	0.004365045
132	0x3b944ad3	0.0045255213
133	0x3b905176	0.004404242
134	0x3b8d2a93	0.0043080538
135	0xbb0b0cf1	-0.002121743
136	0xbb11e6a5	-0.002226272
137	0xbb265b7b	-0.0025384116
138	0xbafeabc8	-0.0019429857
139	0xbb03e9d1	-0.002012838
140	0xbb183305	-0.002322377
141	0xbadff5c5	-0.0017086795
142	0xbade444a	-0.0016957608
143	0xbaf3eb74	-0.0018609599
144	0xbaeabcfb	-0.0017909104
145	0xbafaa37b	-0.0019122207
146	0xbb1643c9	-0.0022928587
147	0xbacc093b	-0.0015566716
148	0xbad6d882	-0.0016391429
149	0xbb0540c6	-0.0020332797
150	0xbab2a4cb	-0.0013629434
151	0xbab22eeb	-0.0013594305
152	0xbacc6493	-0.0015593938
153	0xbb4ae8dc	-0.003096155
154	0xbb556296	-0.0032559983
155	0xbb5d258c	-0.0033744304
156	0xbb3b6a0c	-0.0028597144
157	0xbb461781	-0.0030226412
158	0xbb4dddee	-0.0031412798
159	0xbb233af9	-0.0024906977
160	0xbb279fb3	-0.0025577366
161	0xbb285862	-0.0025687446
162	0x3a819324	0.000988577
163	0x3a67dad9	0.00088445615
164	0x3a48d11e	0.00076605554
165	0x39920cb8	0.00027856766
166	0x38e685db	0.00010992187
167	0xb6c82008	-5.9641934e-06
168	0x3916e01d	0.00014388603
169	0xb846d25c	-4.740279e-05
170	0xb9297d05	-0.0001616367
171	0x3aa30040	0.0012435988
172	0x3a91dda0	0.0011128671
173	0x3a7475d0	0.0009325417
174	0x39c052e5	0.00036682855
175	0x392db9c5	0.0001656777
176	0xb76beca7	-1.4062191e-05
177	0x39666e48	0.00021975592
178	0xb694e31c	-4.4371827e-06
179	0xb936e55d	-0.00017442317
180	0x3a423053	0.00074077136
181	0x3a29e6d0	0.0006481232
182	0x39fae443	0.00047853784
183	0xb9836348	-0.00025060237
184	0xb9d54763	-0.00040679713
185	0xba123c61	-0.0005578455
186	0xb9e539ea	-0.00043721433
187	0xba247d72	-0.00062747963
188	0xba50b67b	-0.0007961762
189	0xbae35110	-0.0017342884
190	0xbac8792c	-0.0015294901
191	0xba7d7571	-0.0009668684
192	0xbb0a652f	-0.002111744
193	0xbae35415	-0.0017343784
194	0xba83310d	-0.0010009125
195	0xbb0053bb	-0.0019581157
196	0xbade56c1	-0.001696311
197	0xbaa2af69	-0.0012411895
198	0xbb19bc68	-0.0023458246
199	0xbb00772f	-0.001960229
200	0xbaac3656	-0.0013138752
201	0xbb2e8d94	-0.002663468
202	0xbb08a17e	-0.002084821
203	0xbaa75649	-0.0012766804
204	0xbb1a8c9b	-0.0023582343
205	0xbb02b1bb	-0.0019942361
206	0xbad04032	-0.0015888272
207	0xbadbc6c5	-0.0016767612
208	0xbaaab9fe	-0.0013025401
209	0xba5cf747	-0.0008429181
210	0xbb02cdb5	-0.0019959037
211	0xbac407a9	-0.0014955896
212	0xba74e56c	-0.0009342048
213	0xbb0455e6	-0.00201928
214	0xbae590dd	-0.0017514486
215	0xbabd7c23	-0.0014456551
216	0xbadbf326	-0.0016780838
217	0xbaecfa0b	-0.001807989
218	0xbaffe7c9	-0.0019524033
219	0xbab8cbaa	-0.0014098783
220	0xbac7e52e	-0.0015250796
221	0xbae86d2f	-0.0017732735
222	0xbaa0a471	-0.0012256039
223	0xbaaa2e3d	-0.0012983751
224	0xbacbdaf1	-0.001555292
225	0xbad861c0	-0.0016508624
226	0xbaf0c42f	-0.0018369014
227	0xbb03a26e	-0.002008583
228	0xbaac27a9	-0.0013134378
229	0xbac22a37	-0.0014813606
230	0xbaee9784	-0.0018203114
231	0xba88ac3c	-0.0010427306
232	0xba9328df	-0.001122739
233	0xbac09f9b	-0.0014696004
234	0xbaf0d8eb	-0.0018375193
235	0xbb02fab2	-0.0019985852
236	0xbb0c675e	-0.0021423916
237	0xbacf8bc1	-0.0015834497
238	0xbae44ae5	-0.001741734
239	0xbb030d54	-0.0019996958
240	0xbaa86747	-0.0012848162
241	0xbab63a1b	-0.0013902815
242	0xbadbde7a	-0.0016774677
243	0xbcf9f474	-0.030512072
244	0xbcf0cedf	-0.029395519
245	0xbcec5792	-0.02885035
246	0xbd05e10c	-0.032685325
247	0xbd02fe66	-0.031980895
248	0xbcfde617	-0.030993504
249	0xbd0cea8c	-0.03440337
250	0xbd0ad176	-0.033891164
251	0xbd04897c	-0.032357678
252	0xbce5eb95	-0.028066436
253	0xbcdd9e6a	-0.027053077
254	0xbcd9cf8b	-0.026588222
255	0xbcfaa57c	-0.030596487

exp_avg_sq f4 [32, 3, 3, 3]
0	0x3ac3aef4	0.001492946
1	0x3ac73799	0.0015199065
2	0x3ac143c5	0.0014744928
3	0x3abe5e33	0.0014523923
4	0x3abe49e8	0.0014517875
5	0x3abcfcd2	0.0014418608
6	0x3ab6e12f	0.0013952608
7	0x3ab6772a	0.0013921012
8	0x3ab8488e	0.0014059709
9	0x3ab4100f	0.0013737696
10	0x3ab6a910	0.0013935883
11	0x3ab1b4a4	0.0013557863
12	0x3aacfa3a	0.0013197132
13	0x3aac52fa	0.0013147288
14	0x3aabadfa	0.0013098114
15	0x3aa457e4	0.00125384
16	0x3aa407ee	0.001251457
17	0x3aa59424	0.001263265
18	0x3a9306c8	0.0011217231
19	0x3a95a985	0.0011418319
20	0x3a92b67c	0.0011193301
21	0x3a8e0454	0.001083503
22	0x3a8e4746	0.0010854981
23	0x3a8f2058	0.0010919673
24	0x3a897139	0.0010486013
25	0x3a88fe0a	0.0010451686
26	0x3a8c053c	0.0010682712
27	0x3c57805d	0.013153163
28	0x3c5a59d5	0.013327082
29	0x3c553546	0.01301319
30	0x3c501127	0.012699402
31	0x3c4d6fad	0.012538833
32	0x3c46b6c8	0.012128539
33	0x3c4cdb55	0.012503465
34	0x3c40d69b	0.011769916
35	0x3c3ab782	0.011396291
36	0x3c714630	0.014726207
37	0x3c775d7d	0.015097973
38	0x3c729d0f	0.0148079535
39	0x3c6ab323	0.014324936
40	0x3c68d88e	0.014211787
41	0x3c600485	0.013672953
42	0x3c6727c4	0.014108602
43	0x3c58c24c	0.013229918
44	0x3c50bb91	0.012740032
45	0x3c3de099	0.011589193
46	0x3c3fe5d8	0.011712514
47	0x3c3cd41c	0.01152518
48	0x3c394e8f	0.011310234
49	0x3c36a0c9	0.011146733
50	0x3c3326cf	0.010934546
51	0x3c372609	0.011178502
52	0x3c2d9a15	0.010595818
53	0x3c297fea	0.0103454385
54	0x37595823	1.2954729e-05
55	0x3728c6a2	1.0059828e-05
56	0x36e81ec2	6.9177195e-06
57	0x378652cb	1.6012598e-05
58	0x37373212	1.0919308e-05
59	0x36ea07c8	6.9746493e-06
60	0x370ef407	8.520677e-06
61	0x36d65d73	6.388576e-06
62	0x36a89ea9	5.0252606e-06
63	0x38040838	3.1478907e-05
64	0x37e0a40d	2.6779273e-05
65	0x379c57ec	1.8637591e-05
66	0x3834e59c	4.3129185e-05
67	0x37faf7ee	2.9917774e-05
68	0x379c6fba	1.8648676e-05
69	0x37c036ad	2.2913644e-05
70	0x3790b26f	1.7249227e-05
71	0x3762f1e8	1.3526973e-05
72	0x37d9c760	2.5961257e-05
73	0x37bfd067	2.286602e-05
74	0x378d3b8e	1.6836242e-05
75	0x380e68ba	3.3952972e-05
76	0x37da4157	2.6018051e-05
77	0x37941ecf	1.7657321e-05
78	0x37b31041	2.1346032e-05
79	0x37938a89	1.7588276e-05
80	0x3768ced7	1.3876436e-05
81	0x3c286087	0.01027692
82	0x3c2e0a52	0.010622578
83	0x3c366a0c	0.011133682
84	0x3c1eaa76	0.009684196
85	0x3c1b131b	0.009465004
86	0x3c2a42b3	0.010391879
87	0x3c23aa1e	0.00998929
88	0x3c1a86ef	0.009431585
89	0x3c29d0eb	0.010364751
90	0x3c49e8be	0.0123235565
91	0x3c5379df	0.012907474
92	0x3c611b93	0.013739484
93	0x3c3a62b1	0.011376069
94	0x3c3305de	0.010926692
95	0x3c49f815	0.012327214
96	0x3c42a1c3	0.011879387
97	0x3c32afa7	0.010906137
98	0x3c4b0a5a	0.012392605
99	0x3c0fdf4b	0.008781265
100	0x3c16076c	0.009157043
101	0x3c1cc2d4	0.009567935
102	0x3c08c469	0.008347609
103	0x3c0741b2	0.008255409
104	0x3c12e5e7	0.008965946
105	0x3c0d735a	0.008633459
106	0x3c07a693	0.0082794605
107	0x3c14b421	0.009076149
108	0x3a3e2bdf	0.0007254462
109	0x3a4743f5	0.0007601374
110	0x3a35f04d	0.00069404097
111	0x3a3b10b3	0.0007135972
112	0x3a383a9d	0.0007027777
113	0x3a2c8863	0.00065816025
114	0x3a38a0c3	0.00070429983
115	0x3a2b0765	0.0006524234
116	0x3a288aeb	0.0006429392
117	0x3aaf3fa8	0.0013370411
118	0x3ab99b47	0.0014160656
119	0x3aa9028d	0.0012894437
120	0x3aa8e3a5	0.0012885226
121	0x3aaaa2fb	0.0013018543
122	0x3aa126cd	0.0012294889
123	0x3aa74fb4	0.0012764842
124	0x3a9b42c1	0.0011845456
125	0x3a9c4fb8	0.0011925614
126	0x3a2e110b	0.0006640113
127	0x3a34b83b	0.00068939076
128	0x3a264778	0.0006343047
129	0x3a2b1f91	0.0006527836
130	0x3a29d90c	0.0006479181
131	0x3a21d6bc	0.00061736605
132	0x3a2a5188	0.00064971345
133	0x3a1e9f9c	0.00060510053
134	0x3a1dab09	0.0006014561
135	0x3a8ff578	0.001098319
136	0x3a92dfae	0.0011205578
137	0x3aa23fce	0.0012378634
138	0x3a98076a	0.0011598889
139	0x3a994f62	0.0011696632
140	0x3aa8ecfb	0.0012888008
141	0x3aa6905c	0.0012707817
142	0x3aa884fd	0.0012857016
143	0x3ab56014	0.0013837838
144	0x3affd31c	0.0019517872
145	0x3b02d784	0.0019964883
146	0x3b0e2bf9	0.002169369
147	0x3b04dbf7	0.002027271
148	0x3b0731aa	0.0020628967
149	0x3b121ac7	0.0022293793
150	0x3b0e8c05	0.0021750939
151	0x3b11a6b9	0.0022224619
152	0x3b1a5089	0.0023546538
153	0x3b0c2e12	0.0021389765
154	0x3b0faedc	0.0021924293
155	0x3b16eb93	0.0023028597
156	0x3b114d97	0.0022171491
157	0x3b131a95	0.0022446264
158	0x3b1b267a	0.0023674057
159	0x3b1721ff	0.0023061035
160	0x3b1b0099	0.002365148
161	0x3b21387f	0.0024600325
162	0x38f7c473	0.00011814469
163	0x38e9dfe4	0.00011152009
164	0x38dd6b05	0.00010558035
165	0x38e5fe35	0.00010966921
166	0x38d61b1e	0.00010209366
167	0x38c6ad67	9.4736744e-05
168	0x38e13af2	0.000107398155
169	0x38d2e6ec	0.00010056593
170	0x38c5f909	9.4400784e-05
171	0x3959dc12	0.00020776715
172	0x3951f3c2	0.000200226
173	0x394302fc	0.00018597761
174	0x3949e74c	0.00019255019
175	0x394097bb	0.00018367071
176	0x39318680	0.0001693014
177	0x3948af9a	0.00019138903
178	0x3940a639	0.0001837247
179	0x3931dce2	0.0001696232
180	0x399e1354	0.0003015051
181	0x3999aae4	0.00029309758
182	0x3991fda3	0.0002784553
183	0x399775e7	0.00028888808
184	0x39933bb3	0.00028082504
185	0x3989b131	0.00026262694
186	0x39974c6d	0.00028857906
187	0x3992c491	0.00027993743
188	0x398ad05a	0.00026476645
189	0x3af7c5da	0.0018903569
190	0x3af74e44	0.001886793
191	0x3aeda38a	0.0018130403
192	0x3af53781	0.0018708558
193	0x3aedfb9b	0.0018156649
194	0x3ae3ebe2	0.0017389024
195	0x3aede54e	0.0018150003
196	0x3ae372b1	0.0017352906
197	0x3adcd624	0.0016848487
198	0x3ad4571d	0.0016200278
199	0x3ad36c4a	0.0016130295
200	0x3ac8de0b	0.0015324963
201	0x3ad099b1	0.0015914944
202	0x3ac8f4ab	0.0015331706
203	0x3abed3ea	0.0014559005
204	0x3ac7ed72	0.0015253259
205	0x3abec7da	0.001455541
206	0x3ab80e34	0.0014042319
207	0x3aeab7a3	0.0017907511
208	0x3ae92f9d	0.0017790679
209	0x3ae1631e	0.0017195677
210	0x3ae7a161	0.0017671996
211	0x3ae1f59f	0.0017239338
212	0x3ad96a45	0.0016587457
213	0x3ae1fbea	0.0017241214
214	0x3ad9dc17	0.0016621378
215	0x3ad3c199	0.0016155719
216	0x3928a287	0.00016082275
217	0x39344894	0.00017193175
218	0x393b448d	0.00017859247
219	0x390cb40b	0.00013418512
220	0x39164bb8	0.00014333322
221	0x39263cf4	0.000158537
222	0x38f541d5	0.000116947725
223	0x38fcab72	0.000120482306
224	0x390d8948	0.00013497949
225	0x392deb9e	0.0001658634
226	0x3939d709	0.00017723082
227	0x3941cedd	0.00018482977
228	0x390ffd78	0.00013731967
229	0x39192b02	0.00014607239
230	0x392bca65	0.00016383229
231	0x38fd920a	0.00012091182
232	0x39012c15	0.0001231882
233	0x391227ba	0.00013938444
234	0x392d7fba	0.00016546148
235	0x393866db	0.00017585924
236	0x393f25af	0.00018229218
237	0x3914cc06	0.00014190385
238	0x391d58e6	0.00015005804
239	0x392c260f	0.00016417376
240	0x39045378	0.00012619596
241	0x3907567b	0.0001290682
242	0x3915abd2	0.00014273755
243	0x3c833a5b	0.016019037
244	0x3c85630e	0.016282585
245	0x3c86fe3d	0.016478652
246	0x3c8ce0a7	0.017196966
247	0x3c919209	0.01776983
248	0x3c8ea397	0.01741199
249	0x3c97a837	0.018512828
250	0x3c9d9703	0.019237047
251	0x3c9622e6	0.018327188
252	0x3c8ae003	0.01695252
253	0x3c8e1d91	0.017348083
254	0x3c8f04da	0.017458368
255	0x3c957aab	0.01824697

exp_avg f4 [32]
0	0xbbaa3646	-0.005194458
1	0xbdc51f20	-0.09625077
2	0xba1fd261	-0.00060967176
3	0xbdac3684	-0.084088355
4	0x3bbe8080	0.0058136582
5	0xbc73dbbb	-0.014883931
6	0xb9edf050	-0.0004538321
7	0xbb62bda1	-0.003459789
8	0xbb25076a	-0.002518142
9	0xbde857ce	-0.113448724
10	0x3bc39e86	0.005969825
11	0xbd108080	-0.035278797
12	0x00000004	6e-45
13	0xb9b77bcd	-0.0003499672
14	0xba6f2c44	-0.00091237226
15	0x3ac3ec53	0.001494775
16	0xbcb53eff	-0.022124765
17	0xbb030ec2	-0.001999781
18	0xb9d2ae89	-0.0004018436
19	0xbb1f8ff4	-0.0024347277
20	0x3d0915ff	0.033468243
21	0x3c90db1b	0.017682603
22	0xbc5d44af	-0.013505145
23	0xbd3ce5b5	-0.046117503
24	0xbb8158cf	-0.0039473544
25	0x3bb41c05	0.0054965043
26	0xbcb59654	-0.022166409
27	0xb932101d	-0.00016981405
28	0x3bcb19b7	0.006198134
29	0x3ca854eb	0.020548305
30	0x3ca47c8d	0.020078922
31	0xbd2fe9c5	-0.04294755

exp_avg_sq f4 [32]
0	0x3c607f1d	0.013702181
1	0x3e3aed42	0.18254569
2	0x3abc4956	0.0014365118
3	0x3e7fc42b	0.24977176
4	0x3c51fd9e	0.012816815
5	0x3cde51eb	0.02713867
6	0x3be0a156	0.0068551702
7	0x3c0ca166	0.008583402
8	0x398784fc	0.00025848288
9	0x3e8eb569	0.2787278
10	0x3c05abae	0.008158607
11	0x3d1f9cc7	0.038967874
12	0x1ea4d16a	1.7450787e-20
13	0x3b408ae0	0.002937965
14	0x3b456076	0.003011731
15	0x3a0cfb85	0.00053780555
16	0x3eaed87e	0.34149545
17	0x3a75cc9e	0.00093764986
18	0x3512561e	5.4514555e-07
19	0x37862e97	1.599574e-05
20	0x3da95e88	0.082699835
21	0x3bba319f	0.005682185
22	0x3b778351	0.003776748
23	0x3d558360	0.052127242
24	0x39554b8b	0.00020341405
25	0x3c1296a2	0.0089470465
26	0x3bae2574	0.0053145234
27	0x38ba4bb9	8.8832756e-05
28	0x3c28fb62	0.010313841
29	0x3c687123	0.01418713
30	0x3c92d39b	0.017923167
31	0x3db2de95	0.087338604

exp_avg f4 [64, 32, 3, 3]
0	0x388b97c0	6.656302e-05
1	0x3864e662	5.4573997e-05
2	0x3881aa30	6.182899e-05
3	0x38c1c340	9.239325e-05
4	0x38c6534d	9.456892e-05
5	0x38d4367a	0.00010119095
6	0x38c3ba65	9.333043e-05
7	0x38cba712	9.7109136e-05
8	0x38cdb992	9.809727e-05
9	0x387d9862	6.0461818e-05
10	0x385514a3	5.0802377e-05
11	0x38a0ba87	7.664138e-05
12	0x38ca48de	9.645683e-05
13	0x38d1dc81	0.00010006969
14	0x38eb1bb5	0.00011210834
15	0x38fa6915	0.00011940502
16	0x38fcd564	0.000120560435
17	0x38fe7d3e	0.00012134992
18	0xb481866e	-2.4125933e-07
19	0x34aa7545	3.1750292e-07
20	0x3487d43a	2.5300125e-07
21	0xb672e5a7	-3.6194485e-06
22	0xb64b76de	-3.0318547e-06
23	0xb6558d7a	-3.1821824e-06
24	0xb5bb863a	-1.3971651e-06
25	0xb531e593	-6.627171e-07
26	0xb549452b	-7.497899e-07
27	0x38921e13	6.967424e-05
28	0x38a6fb11	7.9622616e-05
29	0x38a3c8c1	7.809839e-05
30	0x38bedad5	9.100667e-05
31	0x38d614e9	0.0001020821
32	0x38cc3d21	9.738864e-05
33	0x38cc9e12	9.756921e-05
34	0x38e184ca	0.0001075357
35	0x38ebce72	0.00011244127
36	0x36840ff0	3.935762e-06
37	0x364fb59b	3.0951112e-06
38	0x35996bb0	1.143073e-06
39	0x37028010	7.778421e-06
40	0x3710b059	8.624128e-06
41	0x37055e96	7.94944e-06
42	0x3741729a	1.1530379e-05
43	0x377f8f0f	1.5232493e-05
44	0x37605370	1.3370867e-05
45	0xb988078f	-0.00025945573
46	0xb986a8ab	-0.0002568414
47	0xb981582f	-0.000246705
48	0xb9889e10	-0.00026057707
49	0xb989792d	-0.0002622096
50	0xb9857107	-0.0002545195
51	0xb98291d8	-0.00024904194
52	0xb985b449	-0.0002550206
53	0xb981c316	-0.00024750148
54	0x36c0d8fe	5.747307e-06
55	0x3712e6db	8.756028e-06
56	0x3785548f	1.5894211e-05
57	0x36cb3603	6.0561592e-06
58	0x37092939	8.175434e-06
59	0x377235dc	1.4436864e-05
60	0x36fe2b5b	7.574837e-06
61	0x37255d83	9.856539e-06
62	0x376adc42	1.399877e-05
63	0x388c69b0	6.695406e-05
64	0x3881f5b6	6.1969666e-05
65	0x38996714	7.314808e-05
66	0x387ca5d1	6.023591e-05
67	0x386cab85	5.6426525e-05
68	0x3897b01d	7.233045e-05
69	0x385920ff	5.176756e-05
70	0x384fbecb	4.9530336e-05
71	0x387d42e2	6.038219e-05
72	0x3610fc3c	2.1604492e-06
73	0x367a19d1	3.726793e-06
74	0x369d041c	4.679443e-06
75	0x35187479	5.67939e-07
76	0x363366b0	2.673285e-06
77	0x36df395e	6.6525963e-06
78	0xb62962c9	-2.5240463e-06
79	0xb62e2be5	-2.595357e-06
80	0x3619365a	2.2830413e-06
81	0x38ef7094	0.000114173774
82	0x38d52f04	0.00010165389
83	0x38e778fe	0.00011037475
84	0x38fe1c8e	0.000121169825
85	0x38d9240f	0.00010354083
86	0x38e83be8	0.000110737805
87	0x3903c748	0.00012567372
88	0x38cd75bd	9.797092e-05
89	0x38ea93ed	0.00011185543
90	0xb8650008	-5.4597884e-05
91	0xb87f024c	-6.0798877e-05
92	0xb880c2e1	-6.139815e-05
93	0xb8650aaf	-5.4607804e-05
94	0xb87ce07c	-6.029055e-05
95	0xb8815343	-6.166708e-05
96	0xb862a6dd	-5.4038002e-05
97	0xb879b6e0	-5.953654e-05
98	0xb87e8693	-6.068365e-05
99	0x38430ba4	4.6502464e-05
100	0x384f37d6	4.9404647e-05
101	0x38790a6c	5.9375932e-05
102	0x38569700	5.1162206e-05
103	0x385b4497	5.2277548e-05
104	0x38871ed2	6.4430424e-05
105	0x38606448	5.3499156e-05
106	0x38576706	5.1355943e-05
107	0x3896e5e7	7.19538e-05
108	0x00000004	6e-45
109	0x80000004	-6e-45
110	0x80000004	-6e-45
111	0x80000004	-6e-45
112	0x80000004	-6e-45
113	0x80000004	-6e-45
114	0x80000004	-6e-45
115	0x80000004	-6e-45
116	0x80000004	-6e-45
117	0x354484e5	7.3209077e-07
118	0x34ef048c	4.4520527e-07
119	0x349fc5b3	2.9759903e-07
120	0x350506dd	4.955635e-07
121	0x33a48188	7.660407e-08
122	0xb3d8b774	-1.0091654e-07
123	0xb50c55ae	-5.2278745e-07
124	0xb4debae4	-4.1486703e-07
125	0xb54986c9	-7.5074473e-07
126	0x3791beba	1.7374161e-05
127	0xb5bb4bd7	-1.3954658e-06
128	0xb5ce3c2a	-1.5365706e-06
129	0x378f4574	1.707927e-05
130	0xb5bf8a0c	-1.4270786e-06
131	0xb5d897d0	-1.6137437e-06
132	0x37962a25	1.7901019e-05
133	0xb55c3936	-8.203964e-07
134	0xb567b622	-8.6319244e-07
135	0x385c315c	5.2498057e-05
136	0x38577c24	5.137561e-05
137	0x3850951a	4.9729926e-05
138	0x3870da3a	5.74237e-05
139	0x38713a75	5.751332e-05
140	0x3870cd5c	5.7411715e-05
141	0x38877e64	6.460844e-05
142	0x38877709	6.459474e-05
143	0x388ea942	6.8026144e-05
144	0x39976b8c	0.00028881093
145	0x3986d9d0	0.00025720755
146	0x3988cfa6	0.00026094652
147	0x39a18329	0.00030806035
148	0x398dc16b	0.00027037723
149	0x39980654	0.00028996414
150	0x39a318fe	0.00031108403
151	0x3992877e	0.0002794824
152	0x39a95614	0.00032298325
153	0x380b1af0	3.316527e-05
154	0x37ebaaf3	2.8093787e-05
155	0x380a171f	3.2923297e-05
156	0x383c6df7	4.4925106e-05
157	0x381704eb	3.6005786e-05
158	0x38337eea	4.2795124e-05
159	0x384daf68	4.903917e-05
160	0x3827175c	3.9837658e-05
161	0x3865b788	5.476878e-05
162	0x32abeb53	2.0014033e-08
163	0x32aa21f2	1.9806041e-08
164	0x33026769	3.0362035e-08
165	0x337470d9	5.691331e-08
166	0x32b49df1	2.1026581e-08
167	0xb2eb3ced	-2.7385306e-08
168	0x33c243a7	9.046135e-08
169	0x33b01c87	8.200828e-08
170	0x3351d624	4.8856364e-08
171	0xb07add11	-9.1263624e-10
172	0x3193c963	4.301158e-09
173	0x3267851d	1.3476236e-08
174	0x34888334	2.5427437e-07
175	0x348664f7	2.5032907e-07
176	0x3488e886	2.5501157e-07
177	0xb43666ae	-1.6987426e-07
178	0xb482a5ce	-2.4335026e-07
179	0xb422f4d5	-1.5176495e-07
180	0x39764fee	0.00023490164
181	0x396be653	0.00022497149
182	0x398f9d9b	0.0002739251
183	0x39750c26	0.00023369546
184	0x396e1ef6	0.00022708983
185	0x3995b376	0.00028553203
186	0x39850ca9	0.0002537717
187	0x3974812e	0.00023317777
188	0x398cb0f9	0.00026834736
189	0x3916e98d	0.00014392119
190	0x3918e5fd	0.00014581527
191	0x39169c88	0.00014363427
192	0x3925d66d	0.00015815506
193	0x392ade4a	0.00016295273
194	0x392fb8a7	0.00016758089
195	0x39144b01	0.00014142321
196	0x3916f6d0	0.0001439706
197	0x3932cdb1	0.00017052029
198	0x38c0fba7	9.202147e-05
199	0x38c22e62	9.25928e-05
200	0x38ceeda7	9.867112e-05
201	0x38bc5c64	8.981748e-05
202	0x38c2df40	9.2922244e-05
203	0x38d1bdfa	0.000100012825
204	0x38b416ff	8.587352e-05
205	0x38c11156	9.206186e-05
206	0x38cb68e2	9.69933e-05
207	0x3829f608	4.0521874e-05
208	0x38001863	3.054029e-05
209	0x385f696a	5.3265518e-05
210	0x3871b7d2	5.7630074e-05
211	0x3864693d	5.4457447e-05
212	0x38a7ad35	7.995443e-05
213	0x38b32aea	8.5433785e-05
214	0x38b678e6	8.7009554e-05
215	0x38c3d981	9.338838e-05
216	0xb50b4b80	-5.18914e-07
217	0x34b79c0b	3.4199942e-07
218	0x34f91b40	4.639969e-07
219	0xb64e2f1d	-3.0723816e-06
220	0xb5319665	-6.615649e-07
221	0x352ee525	6.51535e-07
222	0xb5d0b8cd	-1.5550992e-06
223	0xb59b9591	-1.159193e-06
224	0x354f711f	7.727812e-07
225	0x392dbea4	0.00016569585
226	0x3925c1bd	0.000158078
227	0x39332fde	0.00017088602
228	0x3936d78e	0.00017437173
229	0x3923ce4c	0.00015621743
230	0x393ba72b	0.00017895985
231	0x393e7334	0.00018162729
232	0x39305474	0.00016816129
233	0x395826ec	0.00020613865
234	0x380e1dee	3.3883312e-05
235	0x381baf2b	3.7118018e-05
236	0x3829e797	4.0508425e-05
237	0x37ef7c7e	2.8548991e-05
238	0x380a7887	3.3014014e-05
239	0x38203c23	3.820298e-05
240	0x37a2360e	1.9337076e-05
241	0x379ad78b	1.84586e-05
242	0x37d2d6ef	2.5134037e-05
243	0x36ed2363	7.06727e-06
244	0x33923d42	6.8097975e-08
245	0xb15e503a	-3.2350855e-09
246	0x36f238cd	7.2187745e-06
247	0xb36f99bb	-5.578634e-08
248	0xb3f8d83c	-1.1587733e-07
249	0x36f111ad	7.1844174e-06
250	0xb30c546c	-3.267307e-08
251	0xb2851094	-1.5490777e-08
252	0x399d29aa	0.00029976416
253	0x399cafd4	0.0002988564
254	0x399b6b01	0.00029643628
255	0x39a08b0e	0.00030621182
