checkpoints/model_epoch_10.pth (torch, 464973 bytes, 21 tensors)

enc1.weight f4 [32, 3, 3, 3]
0	0x3e31f1f2	0.17377451
1	0x3ea7b13b	0.32752404
2	0x3e0afa30	0.13572001
3	0x3e25e14b	0.16199224
4	0xbd0407b1	-0.032233898
5	0x3df08075	0.11743251
6	0xbeab64a8	-0.33475232
7	0xbe4598f8	-0.19296634
8	0xbea527bf	-0.32256886
9	0x3e6c3d23	0.23070197
10	0x3e5c5ddb	0.21520178
11	0x3e2be4a2	0.16786435
12	0x3de05141	0.10952998
13	0xbd16cad0	-0.03681451
14	0x3d08d178	0.03340289
15	0xbe87fe5c	-0.26561248
16	0xbdd5e463	-0.10443952
17	0xbeb792ac	-0.3585409
18	0x3e26c88e	0.16287443
19	0x3e90d80f	0.2828984
20	0x3e80dd41	0.25168803
21	0xbe2fe249	-0.17176165
22	0xbe22f0b3	-0.15912132
23	0x3dd5b709	0.10435302
24	0xbe55cd94	-0.20879203
25	0xbe674a72	-0.22586992
26	0xbc3e5ed6	-0.01161929
27	0x3e78c450	0.24293637
28	0x3e44468c	0.19167536
29	0x3e3ec73d	0.18630691
30	0xbe1f1e94	-0.15539008
31	0x3e03c6ca	0.12868801
32	0xbe36c253	-0.17847566
33	0x3d770dd3	0.06031592
34	0xbe8f5b46	-0.27999324
35	0xbe3dcd8f	-0.18535446
36	0x3d5c1318	0.053729147
37	0x3ea814dc	0.32828414
38	0x3ee330a4	0.44373047
39	0xbd2759af	-0.040857013
40	0x3e77f261	0.24213554
41	0xbe3b3f86	-0.18285951
42	0x3c46f88f	0.012144222
43	0xbebad252	-0.36488587
44	0xbf050db4	-0.51974034
45	0x3d9f57d5	0.077804245
46	0x3dbbc360	0.09168124
47	0x3da131fd	0.07870863
48	0x3c6e1339	0.01453095
49	0xbcfe521f	-0.031045018
50	0x3dab9d2d	0.08379588
51	0x3d9307af	0.071792
52	0xbe5d23f1	-0.21595742
53	0xbe5b7282	-0.214304
54	0xba824717	-0.0009939399
55	0xbe776988	-0.2416135
56	0xbe274cb3	-0.16337852
57	0x3dcf43a0	0.1012032
58	0xbdfb7184	-0.12277511
59	0xbdeab272	-0.11459817
60	0xbe6e0220	-0.23242998
61	0xbe400ec8	-0.18755639
62	0x3d846897	0.064652614
63	0xbe568d86	-0.20952424
64	0x3dc77dba	0.09740777
65	0x3c3d638a	0.0115593765
66	0x3eb94d8c	0.36191976
67	0x3dba5733	0.09098663
68	0x3d88be5a	0.06676932
69	0xbe0015f1	-0.1250837
70	0xbe2c4fa7	-0.1682726
71	0xbda4f93d	-0.08055351
72	0xbe1261f4	-0.14295179
73	0x3d349435	0.044086654
74	0xbe0e3611	-0.13887812
75	0x3eb0f22b	0.3455976
76	0x3da2236f	0.07916915
77	0x3d4a8630	0.049444377
78	0xbbff61f4	-0.0077936593
79	0x3d16596d	0.036706377
80	0xbe3a6015	-0.18200715
81	0x3e0da7ad	0.13833494
82	0x3e74391e	0.23849913
83	0x3d25e958	0.040505737
84	0xbe6c2e49	-0.23064531
85	0xbe5046bd	-0.20339485
86	0x3e2d25ee	0.16909
87	0x3e41dbec	0.1893155
88	0xbe3ee256	-0.18641028
89	0xbe0d7782	-0.1381512
90	0x3dc1cc6e	0.0946282
91	0x3ea34d99	0.3189514
92	0x3ef78a72	0.48347813
93	0xbe848bbd	-0.25887862
94	0xbeff5a13	-0.4987341
95	0xbe321691	-0.17391421
96	0x3e4796ac	0.1949107
97	0xbeab1c64	-0.33420098
98	0x3dd8b78f	0.10581886
99	0xbde6fcf8	-0.11278719
100	0x3e5c7d0f	0.21532081
101	0x3e10b838	0.14132774
102	0xbe697cc3	-0.22801499
103	0xbe440695	-0.19143136
104	0xbd83f417	-0.06443041
105	0x3dcb9040	0.09939623
106	0xbdb1259c	-0.086497515
107	0x3e5b8677	0.21438013
108	0xbe915aac	-0.2838949
109	0x3d9fcf7c	0.078032464
110	0xbdd71a77	-0.10503095
111	0x3ce0a343	0.0274216
112	0xbd236796	-0.03989371
113	0xbe75e3b0	-0.24012637
114	0x3a93966b	0.0011260038
115	0xbd991f99	-0.0747673
116	0xbc91a1a7	-0.017777277
117	0x3e8bead1	0.27327588
118	0x3f00121b	0.50027627
119	0x3dd6ea09	0.104938574
120	0xbdabff6f	-0.083983295
121	0x3e7a0282	0.24415019
122	0xbcf6fbe3	-0.030149406
123	0x3e8ea6a3	0.2786151
124	0xbe856070	-0.26050138
125	0x3e08eca0	0.13371515
126	0xbe5d6db7	-0.21623884
127	0x3d0045f1	0.0313167
128	0xbe904dcb	-0.2818435
129	0xbe05f6b9	-0.13082398
130	0xbc77c98d	-0.015123737
131	0x3d4a2676	0.049353085
132	0x3d8c7e03	0.06859972
133	0xbe7994f7	-0.24373232
134	0xbcf5587c	-0.02994942
135	0xbeb7343d	-0.35782042
136	0xbecd2b7c	-0.40072238
137	0xbe7de5df	-0.2479472
138	0xbc2f53c6	-0.0107011255
139	0xbe8fd057	-0.28088638
140	0xbcd9382f	-0.026516048
141	0x3d184055	0.037170727
142	0xbe8867fd	-0.26641837
143	0xbd47c018	-0.04876718
144	0xbe5fd04a	-0.218568
145	0xbe5c796f	-0.21530698
146	0x3e06ba0b	0.13156907
147	0xbe4fc3bd	-0.20289512
148	0xbe1c6c2b	-0.15275638
149	0x3d9d09eb	0.07667907
150	0x3cb83864	0.022487827
151	0x3d6a7f80	0.0572505
152	0x3e8cd0d3	0.2750307
153	0xbd8595d3	-0.06522717
154	0x3e4c4e0d	0.19951649
155	0x3dd2675e	0.10273622
156	0x3e54b9a7	0.20773946
157	0x3d8a154b	0.067423426
158	0x3e6c1fa9	0.23058952
159	0xbd84c5c0	-0.0648303
160	0x3e60e475	0.2196215
161	0x3e81bf59	0.253413
162	0xbb33ad13	-0.0027416393
163	0xbe36339f	-0.1779313
164	0x3d7fa691	0.06241471
165	0xbca16978	-0.019703612
166	0xbe46b440	-0.19404697
167	0xbeb2f3a8	-0.3495152
168	0xbdb5e73e	-0.088819966
169	0xbe6e8cdc	-0.23295921
170	0xbeb01803	-0.3439332
171	0xbdaee3a2	-0.08539511
172	0xba9a8236	-0.0011788073
173	0xbdd59fb8	-0.104308546
174	0xbe844b18	-0.25838542
175	0xbe024863	-0.12722926
176	0xbe7dd398	-0.24787748
177	0xbe271ee9	-0.16320385
178	0x3c127d80	0.008941054
179	0xbe6ae659	-0.22939433
180	0x3e9ed5a1	0.3102236
181	0x3e29ae1d	0.16570325
182	0x3e1ce08e	0.15320036
183	0x3dc95593	0.09830775
184	0x3e644f0c	0.22295779
185	0xbdb47ea8	-0.0881322
186	0x3ea60d84	0.32432187
187	0x3ea39d05	0.31955734
188	0x3e672c09	0.22575392
189	0xbe26000f	-0.1621096
190	0x3e701ea2	0.23449185
191	0x3dca741b	0.098854266
192	0x3e053bfe	0.13011166
193	0x3defcda8	0.11709148
194	0xbce9ea60	-0.028554142
195	0x3e0757fb	0.13217156
196	0xbe6cd28c	-0.23127192
197	0xbe359378	-0.17732036
198	0x3def1525	0.11673955
199	0x3e3ee0bf	0.18640421
200	0xbdf5981b	-0.119919024
201	0x3e0b99f6	0.1363295
202	0xbdd3d519	-0.103433795
203	0xbe90fcea	-0.28317958
204	0xbe398dcc	-0.18120497
205	0xbe567cf1	-0.20946099
206	0xbeb0c656	-0.34526318
207	0x3e70f2c8	0.23530114
208	0x3e2c73e8	0.1684109
209	0x3e222414	0.15834075
210	0x3df56659	0.11982412
211	0x3e193e2c	0.14965123
212	0xbcd98603	-0.02655316
213	0x3e51bbfc	0.20481867
214	0x3d0002ab	0.031252544
215	0xbdb46d9d	-0.088099696
216	0x3e14fa30	0.14548564
217	0x3df58fa5	0.11990289
218	0x3d89a939	0.0672173
219	0xbe8c6260	-0.27418804
220	0xbdbf4860	-0.09339976
221	0xbd6c905e	-0.057754867
222	0xbda1d07d	-0.07901094
223	0xbd0c6736	-0.034278117
224	0xbe3fc115	-0.18725999
225	0x3e9edc4f	0.31027457
226	0x3ded558f	0.11588585
227	0x3e9a6acf	0.30159613
228	0xbe5c848f	-0.21534942
229	0xbe55af1c	-0.2086758
230	0x3e0cf6b8	0.1376599
231	0x3cf0fab5	0.029416421
232	0xbe8db3f8	-0.27676368
233	0xbda570de	-0.08078168
234	0x3e467ea7	0.19384252
235	0x3e66dbb1	0.22544743
236	0x3e6c79d8	0.23093355
237	0xbe512546	-0.20424375
238	0xbde75117	-0.112947635
239	0x3e28abe9	0.16471829
240	0x3ddd362f	0.1080135
241	0xbe5336fd	-0.20626445
242	0x3e460c9a	0.19340745
243	0xbeba124b	-0.3634208
244	0xbe88398b	-0.26606402
245	0xbe5b45a2	-0.21413282
246	0x3b79984a	0.0038085156
247	0x3e3a95a7	0.1822115
248	0x3d374230	0.044740856
249	0x3e6de5f7	0.23232256
250	0x3ea6b639	0.325609
251	0x3d40b86f	0.04705089
252	0xbee6cf85	-0.450802
253	0xbe4e8b6e	-0.20170376
254	0xbed4949e	-0.41519636
255	0xbd8534d8	-0.0650422

enc1.bias f4 [32]
0	0x3b1ddfb9	0.0024089648
1	0xbb4f1025	-0.0031595316
2	0xbcc7d140	-0.02439177
3	0xba79fbdc	-0.0009536126
4	0xbd0c2db7	-0.034223285
5	0x3dc373b4	0.09543553
6	0x3cd0f3b3	0.02550683
7	0xbe10b4f3	-0.14131527
8	0xbef8a486	-0.4856302
9	0x3b05c386	0.002041073
10	0x3d89af79	0.06722922
11	0xba5842d6	-0.00082497054
12	0xbe3b7c42	-0.1830912
13	0x3d8fc8d2	0.07020725
14	0x3cb93f2e	0.022613134
15	0xbea68be6	-0.3252861
16	0xbb54b057	-0.003245374
17	0xbde5edfe	-0.11227034
18	0xbea5a1ee	-0.32350105
19	0xbe491d57	-0.19640099
20	0xbc33f9ec	-0.010984879
21	0xbcb518aa	-0.022106487
22	0xbebddc86	-0.3708231
23	0x3c0ce600	0.008599758
24	0xbe99f5a5	-0.30070224
25	0xbd2e47b0	-0.042548835
26	0xbe4c22c1	-0.19935133
27	0xbe2c739e	-0.1684098
28	0xbc96a3d3	-0.018388664
29	0xbe1c884c	-0.15286368
30	0x3c0d124f	0.008610322
31	0x3d7478af	0.059685405

enc2.weight f4 [64, 32, 3, 3]
0	0xbec404c1	-0.38284877
1	0xbe8594e4	-0.26090157
2	0xbecf3277	-0.4046819
3	0x3c88e13b	0.01670896
4	0x3d84c972	0.06483735
5	0x3e17b1ab	0.14813869
6	0x3e8fe4c1	0.28104213
7	0xbdcfa35f	-0.101385824
8	0x3e1c2439	0.15248193
9	0xbf325b73	-0.6967079
10	0xbf0de35a	-0.55425036
11	0xbf498dcc	-0.7873199
12	0xbdbc318b	-0.09189137
13	0xbdc99190	-0.09842217
14	0x3db08b08	0.08620268
15	0x3ee644ed	0.4497446
16	0x3d648a85	0.055796165
17	0x3ea2ce04	0.31797802
18	0xbe0fd375	-0.14045508
19	0xbd984763	-0.07435491
20	0x3d699c2a	0.057033695
21	0xbe619d1a	-0.22032586
22	0xbf70091e	-0.9376391
23	0xbfb1cb0a	-1.3890088
24	0x3ec8a903	0.39191446
25	0x3ea5ef92	0.3240934
26	0x3e5f7043	0.21820168
27	0xbf0754c0	-0.52863693
28	0xbed33a9b	-0.4125565
29	0xbf42f20a	-0.7615057
30	0x3e9e4df7	0.30918857
31	0x3e5b4f02	0.21416858
32	0x3e85563b	0.2604235
33	0x3ee9335d	0.45547
34	0x3e16f74b	0.14742772
35	0x3f0329d9	0.5123573
36	0xbe1922ce	-0.14954683
37	0xbe1de37f	-0.15418814
38	0xbe5bfbfd	-0.21482845
39	0x3dcbb512	0.09946646
40	0x3c1eab87	0.00968445
41	0xbdc046aa	-0.09388478
42	0x3eb495cc	0.35270536
43	0x3e8efc9c	0.279271
44	0x3e574587	0.21022616
45	0xbe97c953	-0.29645786
46	0xbe0d139e	-0.13777015
47	0xbe412e84	-0.188654
48	0x3dfd0ac1	0.12355567
49	0x3dbf7d18	0.093500316
50	0x3d5815da	0.052755214
51	0x3deddf13	0.11614814
52	0xbdb7c762	-0.08973576
53	0xbcb7925e	-0.02240866
54	0xbedc1032	-0.42981106
55	0xbe9da622	-0.30790812
56	0xbeb07525	-0.34464374
57	0xbea197fc	-0.31561267
58	0xbe39380c	-0.18087786
59	0xbd8f4f52	-0.06997551
60	0x3e82d3f0	0.2555232
61	0x3e22b013	0.1588748
62	0x3ec89ee8	0.39183736
63	0xbdb50a1e	-0.0883982
64	0x3d531204	0.051530853
65	0xbc86ea61	-0.016469182
66	0x3e2a3937	0.16623388
67	0x3def729d	0.116917826
68	0x3d979933	0.07402267
69	0x3e82ece6	0.25571364
70	0x3d1724d7	0.036900368
71	0xbd9d1d75	-0.07671634
72	0xbe4e47dc	-0.201446
73	0x3d503a61	0.050836924
74	0xbe950f1f	-0.291131
75	0xbd884be8	-0.06655103
76	0xbe82cdef	-0.2554774
77	0xbf4592e8	-0.77177286
78	0x3edf34cc	0.43594968
79	0x3f51dbcc	0.8197601
80	0x3f07d19c	0.53054214
81	0xbfbe79eb	-1.4880956
82	0xbf2f0eba	-0.68381846
83	0xbf9fee39	-1.2494575
84	0x3d6aadee	0.05729478
85	0xbbb6b938	-0.005576279
86	0xbcfe20a9	-0.031021433
87	0x3f39afaa	0.7253367
88	0x3dfa1ec0	0.12212896
89	0x3efe2060	0.49634075
90	0x3e43fe7e	0.1914005
91	0x3e7caa60	0.24674368
92	0x3e4b36e1	0.19845153
93	0x3ce64fc4	0.028114207
94	0x3d2fa592	0.04288251
95	0x3d9d9f15	0.07696358
96	0x3d81c00f	0.063354604
97	0xbda14260	-0.07873988
98	0xbbd710fa	-0.006563303
99	0xbf35b117	-0.7097334
100	0xbe9bb697	-0.30412742
101	0xbfa6d955	-1.3035074
102	0xbd8fa4d4	-0.0701386
103	0xbcfc0571	-0.030764313
104	0xbc01aaf8	-0.007914297
105	0x3e24e2f9	0.16102208
106	0xbd74e7fc	-0.05979155
107	0x3f1dc2ce	0.61625373
108	0xbd3c6c36	-0.046001635
109	0x3c90e01c	0.017684989
110	0xbbf0d5a3	-0.007349686
111	0xbd4fe74a	-0.050757684
112	0x3d268987	0.0406585
113	0xbbced1df	-0.0063116397
114	0x3c5e3a51	0.013563708
115	0x3d22c089	0.039734397
116	0x3d1e32d3	0.03862269
117	0xbed50a0e	-0.41609234
118	0xbedab6a0	-0.42717457
119	0xbeedb3cd	-0.4642624
120	0xbf591c61	-0.8480893
121	0xbf64afcb	-0.8933074
122	0xbf7cd102	-0.9875642
123	0x3e193109	0.14960112
124	0x3e0447b4	0.12917978
125	0x3cb6f4e5	0.022333572
126	0xbf553075	-0.83277065
127	0xbf23e595	-0.6402219
128	0xbf662682	-0.8990251
129	0xbf183673	-0.5945808
130	0xbf0b84fb	-0.5449979
131	0xbf4999ef	-0.7875051
132	0xbd9c1c47	-0.07622581
133	0xbe78eaf5	-0.24308379
134	0xbeff251d	-0.49833003
135	0xbe2e1174	-0.16998845
136	0xbd5fd156	-0.054642998
137	0xbe78e08a	-0.24304405
138	0xbdf7edee	-0.12105928
139	0xbe0bc5d8	-0.1364969
140	0xbd0da40a	-0.034580268
141	0x3e1da1f8	0.15393817
142	0x3d23c05d	0.039978374
143	0x3e9706f3	0.2949749
144	0xbcb2b888	-0.021816507
145	0x3e712faf	0.23553346
146	0x3e371217	0.17877994
147	0x3dd270ac	0.10275397
148	0x3cde425e	0.027131256
149	0x3e385867	0.18002473
150	0x3ef08888	0.46979165
151	0xbd97d682	-0.07413961
152	0x3eb20e42	0.34776503
153	0xbea0b422	-0.3138743
154	0xbe8c72e9	-0.2743142
155	0xbf513ae1	-0.8173047
156	0xbe84239d	-0.2580842
157	0xbe91ba5e	-0.284625
158	0xbef2df32	-0.4743591
159	0x3d2be17f	0.041963097
160	0xbe4e93a0	-0.20173502
161	0xbd683ccc	-0.056698605
162	0x3d58fe64	0.05297698
163	0x3d399a9e	0.04531347
164	0xbce7219e	-0.028214272
165	0xbf3456e0	-0.7044506
166	0xbf3fda5a	-0.74942553
167	0xbeff149b	-0.49820408
168	0xbec41ef4	-0.38304865
169	0xbe98b85e	-0.2982816
170	0xbeb67cfb	-0.35642228
171	0xbdd82966	-0.10554771
172	0xbdb5da15	-0.088794865
173	0xbd692e0c	-0.05692868
174	0xbe273d31	-0.16331936
175	0xbe633514	-0.22188216
176	0xbe5dcbde	-0.216598
177	0xbe9613e5	-0.29312053
178	0xbeb5acd6	-0.35483426
179	0xbe868f89	-0.26281384
180	0x3e10b11a	0.14130059
181	0x3eb82039	0.35962084
182	0x3e87c645	0.26518455
183	0xbcedb3f7	-0.029016478
184	0x3d4ba0dd	0.049713958
185	0x3e664580	0.2248745
186	0xbbb47a36	-0.0055077327
187	0xbe97c0ac	-0.29639184
188	0x3d1e90c4	0.038712278
189	0x3e9c2687	0.30498144
190	0x3ed0aec8	0.40758348
191	0x3ea70295	0.32619157
192	0x3e452498	0.1925224
193	0xbcc2bbe4	-0.023771234
194	0xbd6dca22	-0.058054097
195	0xbf001332	-0.5002929
196	0xbe9ac6af	-0.3022971
197	0xbe058a5e	-0.13041064
198	0xbe96d0e8	-0.29456258
199	0xbe8d09a8	-0.2754643
200	0xbe7b7dd9	-0.24559726
201	0xbe281124	-0.16412789
202	0xbd5cd3b7	-0.053912845
203	0xbd1ca1e2	-0.03824032
204	0x3e686d0b	0.22697847
205	0x3e089fda	0.13342229
206	0x3e3e400a	0.18579116
207	0xbee37c58	-0.44430804
208	0xbe70c1da	-0.23511449
209	0xbe8ef464	-0.2792083
210	0xbeb7e940	-0.35920143
211	0xbe155110	-0.14581704
212	0xbe525983	-0.20541959
213	0x3e8e138f	0.27749297
214	0x3daece90	0.085354924
215	0xbe79169c	-0.24325031
216	0xbe2b6409	-0.16737379
217	0xbe0cbd24	-0.13744026
218	0xbe244df3	-0.1604536
219	0xbee24147	-0.44190428
220	0xbe069d48	-0.13145936
221	0xbe132241	-0.14368536
222	0xbe35b136	-0.17743382
223	0xbe290767	-0.1650673
224	0xbeb803dc	-0.35940444
225	0x3e0ad587	0.13558017
226	0x3eaed967	0.3415024
227	0x3d448433	0.047977637
228	0xbe9d36b3	-0.30705795
229	0xbe40cbff	-0.18827818
230	0xbedae78e	-0.42754787
231	0x3ccc323b	0.024926296
232	0xbe13769e	-0.14400718
233	0xbd7de77d	-0.061988343
234	0x3ca5f988	0.020260587
235	0xb85813d4	-5.151688e-05
236	0xbdf791f6	-0.12088387
237	0x3e3bd4e7	0.18342935
238	0x3d941c30	0.07231939
239	0x3de18e40	0.1101346
240	0x3dc785b9	0.097423024
241	0x3b25abf5	0.0025279496
242	0x3d5ca04c	0.05386381
243	0x3af38f86	0.0018582202
244	0x3bfb489f	0.007668569
245	0x3c8d8572	0.017275546
246	0x3d21d0e5	0.039505858
247	0xbd4f4301	-0.05060101
248	0xbd25c426	-0.040470265
249	0x3d55fb04	0.05224134
250	0x3d2e6def	0.04258531
251	0xbcd787ff	-0.026309965
252	0x3e041798	0.12899625
253	0x3e1b02f3	0.15137844
254	0x3d5edb06	0.054408096
255	0x3de01a2e	0.109424934

enc2.bias f4 [64]
0	0x3d56abd9	0.05240998
1	0xbdc797fb	-0.09745785
2	0xbd813b38	-0.06310123
3	0xbe54cc9f	-0.20781182
4	0xbeb4ceba	-0.3531397
5	0xbd3f7010	-0.04673773
6	0xbb5d61b4	-0.003378016
7	0xbd43fa67	-0.047846224
8	0xbbb0b5f5	-0.0053927847
9	0xbcb8fc8c	-0.022581361
10	0xbbfa2c4e	-0.007634676
11	0xbe698658	-0.22805154
12	0xbdd25c45	-0.10271505
13	0xbd11409f	-0.035462018
14	0xbd2901c3	-0.041261446
15	0x3c15160f	0.009099497
16	0xbe6d4e5d	-0.23174424
17	0xbe62b8d7	-0.22140823
18	0xbe65f23b	-0.22455685
19	0xbe14a525	-0.14516123
20	0xbd0d2b51	-0.034465138
21	0xbd9637f7	-0.07334893
22	0xbdb7c054	-0.089722306
23	0xbd26a0d7	-0.040680733
24	0xbd8cfa68	-0.06883699
25	0xbdd36fb9	-0.10324044
26	0xbdea51ec	-0.114414066
27	0xbcad5e52	-0.02116314
28	0xbd06f929	-0.03295246
29	0xbdbbbbb3	-0.0916666
30	0xbd4b7c7d	-0.04967927
31	0xbdba1722	-0.090864435
32	0x3dcb5467	0.09928208
33	0x3c28437b	0.010269995
34	0xbdbe2eaf	-0.09286248
35	0xbc2ed28f	-0.010670318
36	0xbe40a637	-0.18813406
37	0x3d0d7f6e	0.034545355
38	0xbd9b70be	-0.07589863
39	0xbd8f3148	-0.069918215
40	0xbc821bc2	-0.015882377
41	0x3b7d073f	0.0038609055
42	0xbc8c2419	-0.017107056
43	0xbe1667f1	-0.14688088
44	0xbce1d367	-0.027566625
45	0xbe44565a	-0.19173566
46	0x3e041ae2	0.1290088
47	0xbc2c2a63	-0.010508153
48	0xbd475785	-0.04866745
49	0x3ba5a84a	0.005055462
50	0x3bc9c2ab	0.0061572394
51	0xbdd88153	-0.10571542
52	0xbee896fe	-0.45427698
53	0xbe7f2da2	-0.24919751
54	0xbe4157e4	-0.18881184
55	0xbeec8bc0	-0.4620037
56	0xbd0de8ab	-0.034645718
57	0xbee556df	-0.4479284
58	0x3ca54f92	0.020179544
59	0xbdb4004f	-0.08789121
60	0xbd9e3fb1	-0.07726992
61	0x3da32d16	0.07967584
62	0xbe44d709	-0.19222654
63	0x3e3ef177	0.18646799

dec1.weight f4 [32, 64, 3, 3]
0	0xbe19bfb7	-0.1501454
1	0xbe3841dd	-0.17993875
2	0xbde4d7cf	-0.11173975
3	0x3d8b1c8d	0.06792555
4	0x3d249621	0.040182237
5	0x3dc05125	0.09390477
6	0x3e84dbaf	0.25948855
7	0x3e367022	0.17816213
8	0x3e55b362	0.2086921
9	0x3c5df29f	0.013546615
10	0xbd790023	-0.060791146
11	0xbd4f97a2	-0.050681718
12	0xbc3cb8b3	-0.011518645
13	0xbd251f00	-0.040312767
14	0xbd070bf6	-0.03297039
15	0x3b3d3f31	0.0028876776
16	0xbd34e450	-0.04416305
17	0x3bff856a	0.0077978866
18	0x3e077785	0.13229187
19	0x3d97b72b	0.074079834
20	0x3dbe34b9	0.092874
21	0x3cfe7422	0.031061236
22	0x3c9b12e0	0.018929899
23	0x3d4e0e14	0.050306395
24	0x3d6262bc	0.05526994
25	0x3d6cbe6b	0.057798784
26	0x3d8998ec	0.06718621
27	0xbda2d9be	-0.07951687
28	0xbdc63a6a	-0.0967911
29	0xbd52a220	-0.051424146
30	0xbe24951d	-0.16072507
31	0xbe580a76	-0.2109774
32	0xbe06eaa0	-0.1317544
33	0xbd8ade4d	-0.06780682
34	0xbdfb1e93	-0.12261691
35	0xbd70408e	-0.058655314
36	0xbe86f31b	-0.2635735
37	0xbea2c2b9	-0.31789187
38	0xbe814821	-0.25250342
39	0xbde5b45f	-0.11216044
40	0xbe24de98	-0.16100538
41	0xbe051619	-0.12996711
42	0xbe24ccd6	-0.16093764
43	0xbe737c2d	-0.23777838
44	0xbe3ba5a1	-0.18324901
45	0x3e4f3c92	0.2023795
46	0x3bea6fb6	0.0071544303
47	0x3e32a356	0.1744512
48	0x3d45f679	0.048330758
49	0xbe28237b	-0.16419785
50	0x3cd0397c	0.025418036
51	0x3e0bc8d0	0.13650823
52	0xbd8ac677	-0.067761354
53	0x3de2b668	0.110699475
54	0xbed6345d	-0.41836825
55	0x3cb60d41	0.022223117
56	0x3e3a191d	0.18173642
57	0xbe839a79	-0.2570379
58	0x3d92f61a	0.071758464
59	0x3e196389	0.14979376
60	0xbe81c71c	-0.2534722
61	0x3df5d364	0.1200321
62	0x3e809dfa	0.25120527
63	0xbe06f6a6	-0.13180026
64	0xbe87432f	-0.26418445
65	0xbef7b1e6	-0.48377913
66	0xbd7d7380	-0.061877728
67	0xbe537ed1	-0.20653845
68	0xbeb8e430	-0.36111593
69	0x3dc95821	0.098312624
70	0xbe033b68	-0.1281563
71	0xbe897c7f	-0.26852795
72	0xbe39c4ee	-0.18141529
73	0x3e1d8d84	0.15386015
74	0xbd5fd9cf	-0.054651078
75	0xbe6589ef	-0.22415899
76	0x3e15090d	0.14554234
77	0x3c90e8e9	0.017689185
78	0xbf330ee5	-0.699446
79	0xbe9b1727	-0.302911
80	0xbe89a18d	-0.26881066
81	0x3dde7fe9	0.10864241
82	0xbcfc1b26	-0.030774664
83	0x3ce681a9	0.028137999
84	0x3d7e86a9	0.06214014
85	0xbd8254c5	-0.06363825
86	0xbc88ddc1	-0.016707303
87	0x3d5cae0e	0.05387693
88	0x3cc85a57	0.02445714
89	0x3da02565	0.078196324
90	0xbfb15680	-1.3854523
91	0xbeff3ea6	-0.49852484
92	0xbf4fb215	-0.81131107
93	0xbf30b245	-0.6902202
94	0x3e99ffd4	0.30077994
95	0xbe24779d	-0.16061254
96	0xbfc5eb56	-1.5462444
97	0xbf4d7a99	-0.80265194
98	0xbf95d5e0	-1.1705894
99	0xbc5d2f0e	-0.013499988
100	0xbe276a0c	-0.16349047
101	0xbd8605a5	-0.06544045
102	0xbd9f9408	-0.077919066
103	0xbe4ed77b	-0.20199387
104	0xbdc970a8	-0.098359406
105	0x3c936ec0	0.017997146
106	0xbd0fc2a8	-0.035097748
107	0x3dc67912	0.09691061
108	0x3d006af6	0.031352006
109	0xbd90b8cd	-0.07066498
110	0xbb4bba96	-0.0031086556
111	0x3bbdecf8	0.005796071
112	0xbdb50a8b	-0.088399015
113	0xbd51da98	-0.051233858
114	0x3d9ebacb	0.07750472
115	0xbd42c854	-0.04755433
116	0xbcae5fef	-0.02128598
117	0x3ed6da77	0.4196355
118	0x3e3c4d73	0.1838892
119	0x3eb41c6d	0.35177937
120	0x3e63ef4d	0.22259255
121	0xbd88b4cd	-0.0667511
122	0x3e5154f8	0.2044257
123	0x3ecb085b	0.39654812
124	0x3db9dc2d	0.09075198
125	0x3e681f53	0.22668199
126	0x3ed9e2ec	0.4255594
127	0x3e147a7c	0.14499849
128	0x3e97b671	0.2963138
129	0x3d9b36b6	0.07578795
130	0xbe5f33cc	-0.21797103
131	0xbd4fd60f	-0.05074125
132	0x3ec51169	0.38489845
133	0x3db77f33	0.08959808
134	0x3e448fef	0.19195531
135	0x3dc6d02d	0.09707675
136	0x3d7fe28f	0.062471922
137	0x3e0d3cca	0.1379272
138	0x3d39bb22	0.04534448
139	0x3c35c65b	0.011094655
140	0x3d941d86	0.07232194
141	0x3bf7d398	0.0075630657
142	0xbd0094a5	-0.03139176
143	0x3d2b8ce6	0.041882418
144	0xbd395adf	-0.045252677
145	0xbe0223bd	-0.12708946
146	0xbd83a995	-0.064288296
147	0xbde1fc1f	-0.110344164
148	0xbde4c12c	-0.11169657
149	0xbd935712	-0.07194342
150	0xbd84ba77	-0.06480878
151	0xbddb71e9	-0.10715086
152	0xbd94c3ea	-0.0726393
153	0x3d9a89a0	0.07545781
154	0x3d7b2a97	0.061319914
155	0x3dc4abae	0.09603058
156	0x3d904fbb	0.070464574
157	0x3d04013e	0.032227747
158	0x3e153515	0.1457103
159	0x3d224136	0.03961297
160	0x3da54110	0.0806905
161	0x3e17816d	0.14795466
162	0x3e3fe709	0.18740477
163	0x3d2f07f8	0.04273221
164	0x3dfa88fa	0.122331575
165	0xbd2dec57	-0.04246172
166	0xbe1fa6cb	-0.1559097
167	0xbcd60d17	-0.026129289
168	0x3c9bd892	0.019024167
169	0xbd6e7ae3	-0.058222663
170	0x3a4ea014	0.000788213
171	0xbe2a074c	-0.16604346
172	0xbe3bcadd	-0.18339105
173	0xbe895f46	-0.268305
174	0xbe8b7a1f	-0.27241609
175	0xbe79d739	-0.24398507
176	0xbe9e49bf	-0.3091564
177	0xbdf86991	-0.1212951
178	0xbe86c87c	-0.26324832
179	0xbec0090b	-0.375069
180	0xbf16e46f	-0.5894231
181	0xbeac18d4	-0.33612692
182	0xbe923c8a	-0.28561813
183	0xbec72e33	-0.38902435
184	0xbe00073d	-0.12502761
185	0xbc4f5b3c	-0.012656029
186	0xbe916160	-0.28394604
187	0xbbf3d2f8	-0.007440921
188	0x3e4b2067	0.1983658
189	0xbd5a683f	-0.053322073
190	0xbd503ac2	-0.050837286
191	0x3d7d9d8b	0.061917823
192	0xbddfe394	-0.10932079
193	0xbd8a9d32	-0.06768264
194	0xbc194f06	-0.00935722
195	0xbd90c3cb	-0.070685945
196	0xbc95becf	-0.018279461
197	0x3c93913d	0.018013591
198	0xbe9d6895	-0.30743852
199	0xbe822711	-0.2542043
200	0xbeba6acc	-0.36409605
201	0xbec5190c	-0.38495672
202	0xbe609a37	-0.21933828
203	0xbe9b7b8a	-0.3036769
204	0xbee1c84a	-0.4409812
205	0xbe9886f7	-0.2979047
206	0xbea5ee4e	-0.32408375
207	0xbe0acac8	-0.13553917
208	0x3cb9d569	0.02268477
209	0xbe957a9f	-0.29195115
210	0xbd273d8c	-0.04083018
211	0x3e73571d	0.237637
212	0xbe0495a5	-0.1294771
213	0xbf09225e	-0.53568065
214	0xbeaa7398	-0.33291316
215	0xbf5da133	-0.86574095
216	0x3e6411eb	0.2227246
217	0x3e10820a	0.14112106
218	0x3e10a231	0.14124371
219	0x3d961a6c	0.07329258
220	0xbcfa6029	-0.03056343
221	0x3d8234ab	0.06357702
222	0x3da51bec	0.08061966
223	0x3cfac1ad	0.03060993
224	0x3d6eb8e7	0.058281805
225	0x3b07ba30	0.0020710342
226	0x3d156fa1	0.03648341
227	0x3d29ad41	0.041424993
228	0x3d2aa9bb	0.041665774
229	0x3d2e014e	0.042481713
230	0x3d189427	0.037250664
231	0x3c6fe172	0.014641153
232	0x3d5668b9	0.052345965
233	0x3da8c397	0.08240431
234	0xbed3633e	-0.41286653
235	0xbe4e4dd6	-0.2014688
236	0xbe1a5d3c	-0.15074629
237	0xbe14eef0	-0.14544272
238	0xbd759e1f	-0.05996525
239	0x3d5c4e2c	0.053785488
240	0x3ccd54e1	0.025064887
241	0x3dd20821	0.10255457
242	0x3e6f2e6d	0.23357554
243	0x3d6ee5b9	0.05832455
244	0x3e1a805b	0.15088026
245	0xbe8a8114	-0.27051604
246	0x3d27f266	0.041002654
247	0x3e2601a4	0.16211563
248	0xbe12a20b	-0.14319627
249	0xbd9a4e35	-0.07534448
250	0x3da7672a	0.08173974
251	0xbe6dedb1	-0.23235203
252	0x3e351864	0.17685086
253	0x3c95b2f5	0.01827381
254	0x3df6635b	0.12030669
255	0x3d85e5f7	0.06538003

dec1.bias f4 [32]
0	0x3e435b18	0.19077718
1	0xbcabb2c3	-0.020959264
2	0xbdb23cae	-0.0870298
3	0xbdccb609	-0.09995658
4	0x3e493583	0.1964932
5	0x3e3ca1e5	0.18421133
6	0x3de11851	0.10990966
7	0xbd28334f	-0.041064557
8	0x3db31092	0.08743395
9	0x3dc2d57d	0.09513376
10	0x3d780ca9	0.06055895
11	0xbd0934f6	-0.033497773
12	0xbd5a0492	-0.053227015
13	0x3ea05217	0.3131263
14	0xbd774cef	-0.060376104
15	0xbd6cfbda	-0.057857372
16	0xbcddecfb	-0.02709054
17	0x3e361c30	0.1778419
18	0x3e181da1	0.14855053
19	0x3e43c6bb	0.19118778
20	0x3e2c079c	0.16799778
21	0xbd1b73c5	-0.037952203
22	0x3eaf3210	0.34217882
23	0xbcbb27cb	-0.022846123
24	0x3e126aa2	0.1429849
25	0x3e626afb	0.22111122
26	0xbd33ec0b	-0.04392628
27	0xbd918ecc	-0.071073145
28	0xbdf4a774	-0.11946002
29	0xbccf4688	-0.025302187
30	0xbd8ca64e	-0.068676576
31	0x3dab42ee	0.08362375

out.weight f4 [1, 32, 1, 1]
0	0xbe5f634d	-0.21815224
1	0x3dce91a4	0.100863725
2	0x3dcd0038	0.10009807
3	0x3c86cbb5	0.016454557
4	0xbe8151ba	-0.25257665
5	0xbe932373	-0.28737983
6	0xbdbebc3f	-0.09313249
7	0x3dfe07cb	0.1240383
8	0xbef3f4d8	-0.47647738
9	0xbe02f0e1	-0.127872
10	0xbe386ad5	-0.18009503
11	0xbc92c8ed	-0.017918075
12	0x3e096f26	0.13421306
13	0x3ee2b147	0.44275877
14	0x3dba7dad	0.09106002
15	0xbdb7b468	-0.08969957
16	0x3d7a35b0	0.061086357
17	0xbe069031	-0.13140942
18	0xbead14a0	-0.33804798
19	0xbe0065e0	-0.12538862
20	0xbe035871	-0.12826706
21	0x3c7afa7b	0.015318508
22	0x3ee28809	0.44244412
23	0x3d8e5bcc	0.069511026
24	0xbe3c611c	-0.1839642
25	0xbe425fae	-0.18981811
26	0x3d93d450	0.0721823
27	0x3def5fed	0.11688218
28	0xbf19e85f	-0.60120195
29	0x3e037752	0.12838486
30	0x3d189eed	0.03726094
31	0xbf01b588	-0.5066762

exp_avg f4 [32, 3, 3, 3]
0	0xbcb325ac	-0.02186855
1	0xbcb3680c	-0.0219002
2	0xbcb104e3	-0.021608775
3	0xbcb13a8a	-0.021634359
4	0xbcb16cb9	-0.021658288
5	0xbcb0d430	-0.021585554
6	0xbcb07b51	-0.021543177
7	0xbcafe3c9	-0.021470921
8	0xbcb0ec95	-0.021597186
9	0xbc8fe176	-0.017563563
10	0xbc8f6b9a	-0.017507363
11	0xbc8d4ed9	-0.017249512
12	0xbc8e2fed	-0.017356837
13	0xbc8e0b79	-0.017339455
14	0xbc8d7ca1	-0.017271342
15	0xbc8ce60f	-0.017199544
16	0xbc8c3d85	-0.017119179
17	0xbc8d017f	-0.017212627
18	0xbc5b1308	-0.013371237
19	0xbc5aacf8	-0.013346903
20	0xbc5888aa	-0.013216177
21	0xbc5e14f2	-0.013554798
22	0xbc5f2230	-0.013618991
23	0xbc5e843f	-0.013581335
24	0xbc5e87f6	-0.01358222
25	0xbc5e3c46	-0.013564175
26	0xbc6135a5	-0.0137457
27	0xbc94cb5e	-0.01816338
28	0xbc96adf4	-0.018393494
29	0xbc934ed3	-0.017981922
30	0xbc97980c	-0.018505119
31	0xbc959a87	-0.018262161
32	0xbc903a71	-0.017605992
33	0xbc986eba	-0.018607486
34	0xbc93d18c	-0.018044256
35	0xbc8e0f83	-0.017341381
36	0xbc185027	-0.009296454
37	0xbc1e83de	-0.009674994
38	0xbc14a814	-0.009073276
39	0xbc1d5b91	-0.009604351
40	0xbc191cee	-0.009345276
41	0xbc08a424	-0.008339915
42	0xbc214b63	-0.009844634
43	0xbc0fb6b9	-0.008771592
44	0xbc00db63	-0.007864806
45	0xbc7ae96a	-0.015314439
46	0xbc7bcea9	-0.015369096
47	0xbc74716b	-0.014919619
48	0xbc8002e8	-0.015626386
49	0xbc7af5d9	-0.015317404
50	0xbc6eb28d	-0.014568937
51	0xbc8122ff	-0.015763758
52	0xbc777edf	-0.015105932
53	0xbc6ddc63	-0.014517876
54	0xb9ae8f92	-0.00033294834
55	0xb9739920	-0.0002323133
56	0xb94641b1	-0.00018907223
57	0xba3485b6	-0.00068863796
58	0xb9ed68a8	-0.00045282138
59	0xb9a16d18	-0.00030789594
60	0xb9875663	-0.0002581357
61	0xb942fecf	-0.00018596205
62	0xb912a370	-0.0001398453
63	0xb9c99730	-0.0003845035
64	0xb9951932	-0.00028438267
65	0xb9567e2b	-0.00020455632
66	0xba863756	-0.001023988
67	0xba2b3a6c	-0.0006531838
68	0xb9c3f4cc	-0.00037375686
69	0xb9b2bf86	-0.00034093502
70	0xb97ea930	-0.00024286355
71	0xb93d8286	-0.00018073068
72	0xba09efcd	-0.00052618684
73	0xb9c1ab0b	-0.00036939266
74	0xb9813cc9	-0.00024650086
75	0xba8bddc9	-0.0010670956
76	0xba37ab56	-0.0007006427
77	0xb9d8254a	-0.00041226513
78	0xb9e159ce	-0.00042982254
79	0xb999e9f2	-0.00029356737
80	0xb942e8fe	-0.00018588078
81	0xbc833cd1	-0.01602021
82	0xbc870527	-0.016481949
83	0xbc8fa3db	-0.017534187
84	0xbc7e6b81	-0.015528561
85	0xbc7fcc5e	-0.01561269
86	0xbc896101	-0.016769888
87	0xbc86fa0f	-0.01647666
88	0xbc851ccc	-0.016249083
89	0xbc8c278b	-0.0171087
90	0xbc09fe91	-0.00842251
91	0xbc16a273	-0.009194004
92	0xbc2937eb	-0.010328273
93	0xbbe87fc7	-0.0070953104
94	0xbbde1383	-0.0067772283
95	0xbc0fc481	-0.0087748775
96	0xbc0fe70a	-0.008783111
97	0xbbfcc1fd	-0.007713555
98	0xbc169c02	-0.009192469
99	0xbc76b583	-0.015057924
100	0xbc7c06a2	-0.015382441
101	0xbc8634a6	-0.016382527
102	0xbc6c14ff	-0.014409303
103	0xbc6b64cf	-0.014367296
104	0xbc8101cf	-0.015747933
105	0xbc7c06df	-0.015382498
106	0xbc774949	-0.015093156
107	0xbc834de3	-0.01602835
108	0x3cb0810d	0.021545911
109	0x3cb4dd96	0.022078317
110	0x3caac2db	0.020844867
111	0x3cad0d18	0.021124408
112	0x3caafc31	0.020872207
113	0x3ca382df	0.019959865
114	0x3ca9e23c	0.02073776
115	0x3ca29220	0.019845068
116	0x3c9fd0cc	0.019508742
117	0x3cf81aa4	0.03028614
118	0x3cfc6a06	0.030812275
119	0x3cf11da3	0.029433077
120	0x3cf2106b	0.029548844
121	0x3cf24e3f	0.029578326
122	0x3cea73c8	0.028619662
123	0x3cef7758	0.029231712
124	0x3ce7c037	0.028289897
125	0x3ce52e3b	0.027976146
126	0x3c902982	0.017597917
127	0x3c92eff5	0.017936686
128	0x3c8c8e67	0.017157746
129	0x3c8e0763	0.017337507
130	0x3c8df664	0.017329402
131	0x3c89dd67	0.016829206
132	0x3c8c8fcf	0.017158417
133	0x3c878b81	0.016546013
134	0x3c85cf46	0.016334187
135	0x3a43cf0e	0.0007469513
136	0x3a48a497	0.00076539203
137	0x39d1f0d7	0.00040043026
138	0x39de5c81	0.0004241206
139	0x39ae6ec5	0.00033270396
140	0xb8acdcda	-8.242736e-05
141	0xb91f8257	-0.00015211977
142	0xb9a550fb	-0.00031531588
143	0xba450503	-0.00075157004
144	0x3a2e4af7	0.0006648744
145	0x3a4b6dc7	0.00077601935
146	0x3a015fa3	0.00049352105
147	0x39b433ba	0.00034370815
148	0x39b81605	0.0003511162
149	0x3802dd5d	3.1200576e-05
150	0xb925f576	-0.00015827068
151	0xb9918208	-0.00027753436
152	0xba30ebd1	-0.00067490066
153	0x38758e01	5.8544803e-05
154	0x3851dbb4	5.0034098e-05
155	0xb968bc89	-0.00022195479
156	0xb9969bad	-0.00028726217
157	0xb9d09423	-0.00039783222
158	0xba2e879d	-0.0006657781
159	0xba3b0f53	-0.00071357674
160	0xba6c116d	-0.0009005282
161	0xba9becdb	-0.001189615
162	0xba998353	-0.0011712111
163	0xba9ab4fd	-0.0011803206
164	0xba99d9e7	-0.0011737914
165	0xba8720e1	-0.0010309481
166	0xba86d621	-0.0010287204
167	0xba814ec4	-0.0009865393
168	0xba8a99f8	-0.0010574451
169	0xba86fea5	-0.0010299279
170	0xba7b24a9	-0.0009580353
171	0xbaf9955a	-0.0019041703
172	0xbb0012d0	-0.0019542463
173	0xbafb71b5	-0.0019183668
174	0xbae1d75b	-0.0017230319
175	0xbae649e5	-0.001756963
176	0xbae1151a	-0.0017172426
177	0xbaeade3a	-0.0017919012
178	0xbaed20d1	-0.0018091445
179	0xbade9e5e	-0.0016984453
180	0xbb14976d	-0.0022673265
181	0xbb154fbe	-0.0022783126
182	0xbb121dd9	-0.0022295623
183	0xbb09e7df	-0.0021042747
184	0xbb0b9c76	-0.0021302975
185	0xbb0600b7	-0.0020447203
186	0xbb0dbc82	-0.0021627252
187	0xbb0d8b26	-0.0021597832
188	0xbb063077	-0.0020475665
189	0x3b92730a	0.00446928
190	0x3b8c0407	0.004272941
191	0x3b8ec57b	0.0043570376
192	0x3ba97dc9	0.0051724655
193	0x3ba13b88	0.0049204268
194	0x3ba0e201	0.0049097543
195	0x3bbfe612	0.005856284
196	0x3bb80887	0.005616251
197	0x3bb2d1b9	0.00545713
198	0x3b7a0817	0.0038151795
199	0x3b6f0a3e	0.003647461
200	0x3b7496a1	0.0037321227
201	0x3b96b34b	0.00459901
202	0x3b8f19a2	0.0043670693
203	0x3b8f6c9c	0.004376961
204	0x3bac8c8d	0.0052657784
205	0x3ba6793b	0.0050803698
206	0x3ba1fa17	0.004943143
207	0x3b9194bb	0.004442779
208	0x3b8c927c	0.0042899232
209	0x3b8d5c34	0.00431397
210	0x3ba5d382	0.005060614
211	0x3b9f27dd	0.004857047
212	0x3b9e5cac	0.0048328247
213	0x3bb63fda	0.005561811
214	0x3bb046c9	0.005379532
215	0x3bac938d	0.005266613
216	0xba769a72	-0.00094071694
217	0xba715e64	-0.0009207486
218	0xba7a4d98	-0.00095483055
219	0xba51af78	-0.0007998864
220	0xba502659	-0.00079402846
221	0xba665c78	-0.00087875826
222	0xba237d45	-0.0006236623
223	0xba2650aa	-0.00063444173
224	0xba401b90	-0.0007328326
225	0xba6a2fbd	-0.0008933505
226	0xba630fdd	-0.00086617266
227	0xba6aee7f	-0.000896193
228	0xba4d1352	-0.00078230083
229	0xba4bcee0	-0.0007774662
230	0xba65b37d	-0.00087624026
231	0xba25f104	-0.00063301646
232	0xba272e6c	-0.0006377462
233	0xba42e5f4	-0.00074347784
234	0xba7759b2	-0.0009435668
235	0xba717723	-0.0009211173
236	0xba77a506	-0.00094468927
237	0xba64c2d5	-0.0008726542
238	0xba61ca5b	-0.0008613222
239	0xba6e8043	-0.0009098092
240	0xba392131	-0.0007062136
241	0xba3ce959	-0.00072064024
242	0xba507f4b	-0.00079535384
243	0xbcf7192d	-0.030163372
244	0xbcf7eab3	-0.03026328
245	0xbcf81b5d	-0.030286485
246	0xbd020a7c	-0.03174828
247	0xbd03d163	-0.03218211
248	0xbd01af2f	-0.03166121
249	0xbd0a6153	-0.03378422
250	0xbd0d14f5	-0.034443814
251	0xbd08e155	-0.03341802
252	0xbc804e83	-0.015662437
253	0xbc81d1ca	-0.015847106
254	0xbc831f73	-0.016006207
255	0xbc902820	-0.017597258

exp_avg_sq f4 [32, 3, 3, 3]
0	0x3b26c25c	0.0025445437
1	0x3b2a03c6	0.002594219
2	0x3b26ff90	0.0025481917
3	0x3b229fbf	0.0024814454
4	0x3b2312aa	0.002488295
5	0x3b236682	0.0024932926
6	0x3b1d4f97	0.0024003738
7	0x3b1dea88	0.002409609
8	0x3b1f6560	0.0024321899
9	0x3b366e23	0.0027836643
10	0x3b38dd7b	0.0028208185
11	0x3b36649e	0.0027830969
12	0x3b30c3c4	0.0026972154
13	0x3b30d310	0.0026981272
14	0x3b313368	0.0027038697
15	0x3b2a1744	0.0025953809
16	0x3b2af267	0.0026084424
17	0x3b2b9978	0.0026184004
18	0x3b0dd3e0	0.002164118
19	0x3b105589	0.002202364
20	0x3b0f078d	0.002182457
21	0x3b0971b3	0.002097231
22	0x3b0a3282	0.0021087234
23	0x3b0be9e9	0.0021349138
24	0x3b0618db	0.0020461592
25	0x3b067084	0.0020513842
26	0x3b0911b0	0.0020915084
27	0x3c8a28d6	0.016865175
28	0x3c8b6932	0.017017934
29	0x3c8837ed	0.01662823
30	0x3c855e60	0.016280353
31	0x3c83e5da	0.016100813
32	0x3c7f773e	0.015592394
33	0x3c835745	0.016032824
34	0x3c78250c	0.015145551
35	0x3c71954a	0.014745066
36	0x3ca2af8f	0.019859103
37	0x3ca63f8d	0.020293975
38	0x3ca35853	0.019939577
39	0x3c9ea433	0.019365406
40	0x3c9db3b6	0.019250732
41	0x3c982a44	0.018574841
42	0x3c9c4d7c	0.019079916
43	0x3c93a857	0.018024607
44	0x3c8f104b	0.017463824
45	0x3c8070d7	0.015678806
46	0x3c814c85	0.015783558
47	0x3c7e9be3	0.015540096
48	0x3c7b063c	0.015321311
49	0x3c7786b9	0.015107804
50	0x3c73b16c	0.014873844
51	0x3c7821d7	0.015144787
52	0x3c6c59ff	0.014425754
53	0x3c68253b	0.014169033
54	0x36d4a415	6.337194e-06
55	0x368b64ff	4.1542803e-06
56	0x364bcc92	3.0368433e-06
57	0x372ef399	1.0427925e-05
58	0x36c03be8	5.72902e-06
59	0x368514c4	3.9661263e-06
60	0x36893ba9	4.0898635e-06
61	0x361d7968	2.346549e-06
62	0x36025e29	1.9426318e-06
63	0x37be8688	2.2712411e-05
64	0x379df170	1.8828287e-05
65	0x3777e1a9	1.4774888e-05
66	0x3816a378	3.591503e-05
67	0x37be436f	2.2681166e-05
68	0x378a2115	1.6466287e-05
69	0x3799709f	1.8291465e-05
70	0x37546fd2	1.266222e-05
71	0x3737154f	1.0912611e-05
72	0x379d1c60	1.8729072e-05
73	0x3783dcdf	1.5719268e-05
74	0x37545fdc	1.2658504e-05
75	0x37e83f75	2.7686105e-05
76	0x37a180ab	1.9252611e-05
77	0x3774a4c1	1.4581893e-05
78	0x3788c888	1.6305843e-05
79	0x37516f88	1.2483339e-05
80	0x372e1ec4	1.0378371e-05
81	0x3c2e16e2	0.010625573
82	0x3c33e5fd	0.010980126
83	0x3c3b471a	0.011430526
84	0x3c20c5ca	0.009812782
85	0x3c1c9163	0.009556147
86	0x3c2cb65f	0.0105415275
87	0x3c225f8c	0.009910475
88	0x3c18bb62	0.009322019
89	0x3c2a62f8	0.010399573
90	0x3c536a64	0.0129037835
91	0x3c5d4a30	0.013506457
92	0x3c69bf51	0.014266805
93	0x3c4066f9	0.011743301
94	0x3c385144	0.011249844
95	0x3c4fdd67	0.012687064
96	0x3c4438c2	0.011976423
97	0x3c343705	0.010999446
98	0x3c4f6a34	0.012659598
99	0x3c1ecd07	0.009692437
100	0x3c259c98	0.010108136
101	0x3c2be034	0.010490466
102	0x3c153d15	0.009108801
103	0x3c136046	0.008995121
104	0x3c1fe177	0.009758345
105	0x3c17997e	0.009252904
106	0x3c11782c	0.008878749
107	0x3c20c71b	0.009813095
108	0x3a3a966b	0.0007117751
109	0x3a43bdee	0.00074669614
110	0x3a327cf3	0.000680878
111	0x3a3554ff	0.00069172675
112	0x3a335f68	0.0006842525
113	0x3a284f46	0.0006420504
114	0x3a306c8b	0.00067300414
115	0x3a246186	0.00062706356
116	0x3a22b30a	0.00062064885
117	0x3ab607e7	0.0013887853
118	0x3ac10b91	0.0014728179
119	0x3aafd5dc	0.0013415175
120	0x3aad5086	0.001322285
121	0x3ab05fb7	0.001345626
122	0x3aa75a2b	0.0012767961
123	0x3aaa03dd	0.0012971122
124	0x3a9e9b9b	0.0012100817
125	0x3aa091a1	0.0012250432
126	0x3a2f4f61	0.00066875486
127	0x3a3606f9	0.0006943788
128	0x3a28571c	0.0006421672
129	0x3a2aef87	0.00065206777
130	0x3a2aab10	0.00065104757
131	0x3a23f8f1	0.00062550517
132	0x3a285f1a	0.00064228626
133	0x3a1e4281	0.00060371315
134	0x3a1e3c20	0.0006036181
135	0x3a879deb	0.0010346746
136	0x3a8b49bd	0.0010626834
137	0x3a9bc93b	0.0011885533
138	0x3a90c8b4	0.0011046142
139	0x3a9317b1	0.001122227
140	0x3aa50610	0.0012590308
141	0x3aa0af66	0.0012259304
142	0x3aa4448f	0.0012532639
143	0x3ab3892e	0.0013697499
144	0x3b07754b	0.0020669277
145	0x3b0b3f69	0.0021247512
146	0x3b18802f	0.0023269763
147	0x3b0d1423	0.0021526895
148	0x3b1075d7	0.0022042894
149	0x3b1de250	0.0024091192
150	0x3b18743c	0.002326264
151	0x3b1d043f	0.002395883
152	0x3b28181b	0.0025649134
153	0x3b1cd0a7	0.0023928077
154	0x3b219807	0.0024657266
155	0x3b29e3f1	0.0025923217
156	0x3b2319dd	0.0024887242
157	0x3b25dd9f	0.0025309098
158	0x3b2fb932	0.0026813266
159	0x3b29c9e3	0.0025907687
160	0x3b2f623f	0.002676144
161	0x3b3733d5	0.0027954478
162	0x38bf5e68	9.125174e-05
163	0x38b0f7c1	8.438482e-05
164	0x38a856e0	8.027046e-05
165	0x38b1d767	8.4801395e-05
166	0x38a28626	7.749749e-05
167	0x38954edd	7.119563e-05
168	0x38af9faf	8.374394e-05
169	0x38a1fb90	7.7239354e-05
170	0x3895e078	7.146684e-05
171	0x392515af	0.00015743704
172	0x391c8045	0.00014925103
173	0x39115a73	0.00013861973
174	0x3917e537	0.00014485871
175	0x390eca29	0.00013617486
176	0x3902c35b	0.00012470542
177	0x3918a41e	0.00014556988
178	0x39110d3c	0.00013833208
179	0x3904172a	0.0001259713
180	0x3987de94	0.0002591504
181	0x3982aa00	0.00024922192
182	0x3979527c	0.00023777218
183	0x398219d4	0.00024814776
184	0x397b2c27	0.00023953673
185	0x396ac184	0.00022388069
186	0x3982dba9	0.00024959192
187	0x397c9597	0.0002408832
188	0x396e8ecd	0.00022750646
189	0x3aac5958	0.0013149185
190	0x3aabe077	0.001311316
191	0x3aa45d6f	0.0012540052
192	0x3aaaafb1	0.0013022331
193	0x3aa5176a	0.0012595479
194	0x3a9d0735	0.0011980297
195	0x3aa5a096	0.0012636359
196	0x3a9d51ae	0.0012002492
197	0x3a970a41	0.0011523442
198	0x3a9afed2	0.001182521
199	0x3a9a062c	0.0011751107
200	0x3a9216c9	0.0011145707
201	0x3a98802a	0.0011634876
202	0x3a925a91	0.0011165907
203	0x3a8a72b2	0.0010562746
204	0x3a925d0a	0.0011166644
205	0x3a8aed82	0.0010599347
206	0x3a84c7fb	0.00101304
207	0x3aab2e6f	0.0013060103
208	0x3aa9affc	0.0012946124
209	0x3aa3a97a	0.0012486421
210	0x3aa8e30c	0.0012885048
211	0x3aa435c1	0.0012528227
212	0x3a9d766f	0.0012013445
213	0x3aa4b888	0.0012567202
214	0x3a9e127a	0.001205995
215	0x3a989610	0.0011641402
216	0x3891b1bd	6.947245e-05
217	0x38a2bb9b	7.759706e-05
218	0x38aab96d	8.14077e-05
219	0x3857f3d8	5.148709e-05
220	0x3870a110	5.737046e-05
221	0x388bf609	6.673864e-05
222	0x382a80eb	4.0651223e-05
223	0x3830527d	4.2038493e-05
224	0x3851b623	4.999911e-05
225	0x389c3112	7.4478e-05
226	0x38ae553c	8.312843e-05
227	0x38b724f9	8.733007e-05
228	0x38689b22	5.545759e-05
229	0x38808d44	6.1298284e-05
230	0x389761f0	7.2184834e-05
231	0x383f3fcf	4.5597375e-05
232	0x3842305d	4.6298246e-05
233	0x3866d460	5.5034063e-05
234	0x389aafec	7.37606e-05
235	0x38aaa435	8.1368176e-05
236	0x38b2bd2f	8.5229396e-05
237	0x387375fd	5.80456e-05
238	0x3884c5a8	6.331067e-05
239	0x38978b51	7.226191e-05
240	0x384b36d8	4.845005e-05
241	0x384f9ae8	4.9496914e-05
242	0x386fe1bd	5.7192276e-05
243	0x3ccc9979	0.024975525
244	0x3ccfa15d	0.025345499
245	0x3cd063ba	0.025438178
246	0x3cd9b5d0	0.026575953
247	0x3ce04f94	0.027381696
248	0x3cdaf9b7	0.026730401
249	0x3ce81342	0.028329495
250	0x3ceffe29	0.029295998
251	0x3ce4e60b	0.027941724
252	0x3ce2d375	0.027688721
253	0x3ce7e3e7	0.028306914
254	0x3ce74d70	0.028235167
255	0x3cf19757	0.02949111

exp_avg f4 [32]
0	0xbd2e1114	-0.042496756
1	0xbc1ed76c	-0.009694915
2	0xbba74257	-0.005104344
3	0xbd0a7f11	-0.033812586
4	0x3dc33a51	0.09532607
5	0xbc82b1f6	-0.015953999
6	0xbcb30484	-0.02185274
7	0x3c87319d	0.01650315
8	0xba649c2f	-0.0008720783
9	0xbcfcd4d2	-0.0308632
10	0xbc0a0f9c	-0.008426573
11	0xbcee4b0b	-0.029088518
12	0x00000004	6e-45
13	0xbce0026a	-0.027344901
14	0xbc90c294	-0.017670907
15	0x3a42025c	0.0007400864
16	0xbdba447c	-0.090950936
17	0xba2fabc2	-0.0006701314
18	0xb86e87ec	-5.687021e-05
19	0x39d29cff	0.00040171292
20	0xbd05cc88	-0.03266576
21	0xbcf966ad	-0.030444467
22	0x3c8622c8	0.016374007
23	0x3ba0d7ce	0.0049085384
24	0x3bb0be04	0.0053937454
25	0xbc865c4d	-0.016401434
26	0xbc1f2a88	-0.00971473
27	0xb33dc889	-4.4187377e-08
28	0x3736d4c1	1.0897581e-05
29	0x3c855673	0.016276574
30	0x3bd386e1	0.006455288
31	0xbe098893	-0.13431005

exp_avg_sq f4 [32]
0	0x3ce4bbd4	0.027921595
1	0x3e77cc16	0.24198946
2	0x3a6939d0	0.00088968594
3	0x3e8ba9cb	0.2727798
4	0x3c6362ba	0.013878519
5	0x3d091819	0.033470247
6	0x3c28a56f	0.010293349
7	0x3bb83d99	0.0056225774
8	0x390226df	0.00012412247
9	0x3ec63284	0.38710415
10	0x3bf0604b	0.0073356978
11	0x3d49f894	0.04930933
12	0x28861871	1.4887588e-14
13	0x3aeaa5fd	0.0017902252
14	0x3b289088	0.0025720913
15	0x39af87bd	0.00033479734
16	0x3ece2803	0.40264902
17	0x3a3f86a9	0.00073061377
18	0x35896854	1.0237659e-06
19	0x37f4f488	2.9200935e-05
20	0x3d63fe6b	0.055662554
21	0x3b693b89	0.0035588464
22	0x3c3bbd32	0.011458682
23	0x3d01af82	0.031661518
24	0x382acbe5	4.072105e-05
25	0x3bb22322	0.005436317
26	0x3be9c365	0.0071338885
27	0x2c87b1da	3.8566763e-12
28	0x3c3c36db	0.011487688
29	0x3ca1fef6	0.019774895
30	0x3cbe8e4c	0.023261212
31	0x3e01594d	0.12631722

exp_avg f4 [64, 32, 3, 3]
0	0x397d9555	0.0002418359
1	0x396ad8af	0.000223967
2	0x3981dabb	0.00024767764
3	0x39a2942c	0.00031009445
4	0x39aba19b	0.00032736067
5	0x39b2a391	0.00034072672
6	0x39df12b6	0.00042547815
7	0x39e9356b	0.00044481023
8	0x39e841ed	0.00044299607
9	0x3903086b	0.0001249627
10	0x390aa7e9	0.00013223257
11	0x39270c3c	0.00015930919
12	0x3944241b	0.00018705467
13	0x396167ca	0.00021496337
14	0x396ff60b	0.00022884474
15	0x3998827c	0.00029088918
16	0x39a333ca	0.0003112837
17	0x39a36d3d	0.00031171172
18	0xb2b91e35	-2.1550571e-08
19	0xb2889283	-1.589911e-08
20	0xb126f0b9	-2.4293014e-09
21	0xb440b06d	-1.7945577e-07
22	0xb228c2ba	-9.823163e-09
23	0x33a06a69	7.4699365e-08
24	0xb587ba94	-1.0112585e-06
25	0xb53d3db9	-7.0497805e-07
26	0xb38c86ac	-6.543755e-08
27	0x38c0df6f	9.196891e-05
28	0x38bb71dc	8.938063e-05
29	0x38cc130a	9.731024e-05
30	0x38d074e3	9.939985e-05
31	0x38dbf4ab	0.00010488307
32	0x38ed9d61	0.00011330355
33	0x390547bc	0.00012710592
34	0x390b783b	0.00013300862
35	0x3910df16	0.00013816016
36	0xb89ef7f8	-7.580215e-05
37	0xb89a919d	-7.370415e-05
38	0xb89b3b3f	-7.4020114e-05
39	0xb89fbdff	-7.6171e-05
40	0xb89bf619	-7.436815e-05
41	0xb89d0060	-7.486413e-05
42	0xb8a0812e	-7.653456e-05
43	0xb89bea06	-7.434566e-05
44	0xb89d28b8	-7.493928e-05
45	0x389ade23	7.3846684e-05
46	0x38912d7b	6.92261e-05
47	0x38882bf7	6.4931744e-05
48	0x38a0a518	7.660146e-05
49	0x389b7fcc	7.41478e-05
50	0x38982078	7.2539726e-05
51	0x38a8bbd7	8.045852e-05
52	0x38aca784	8.232801e-05
53	0x38b1632b	8.458489e-05
54	0x35f4e60b	1.8246368e-06
55	0x36341772	2.6835737e-06
56	0x368321d3	3.908042e-06
57	0x353c0631	7.004447e-07
58	0x3643c5ec	2.917247e-06
59	0x368a0137	4.112862e-06
60	0xb559170c	-8.0872337e-07
61	0x365578f1	3.180987e-06
62	0x367b7f0d	3.7475868e-06
63	0x3967894c	0.00022081024
64	0x397ec850	0.0002429795
65	0x3985981b	0.00025481064
66	0x39851917	0.0002538643
67	0x39982c4c	0.00029024703
68	0x399b4b52	0.00029620022
69	0x399ff540	0.0003050957
70	0x39ab9904	0.00032729667
71	0x39aa593e	0.00032491417
72	0x3515b51c	5.5770374e-07
73	0x35249601	6.1313045e-07
74	0x3590bb67	1.0783377e-06
75	0x36b08103	5.2602277e-06
76	0x36ba4045	5.550714e-06
77	0x36d26921	6.2707263e-06
78	0x37055dde	7.949273e-06
79	0x37106f01	8.608914e-06
80	0x3732d098	1.0658194e-05
81	0x390a0171	0.00013161243
82	0x3900e0b9	0.00012290747
83	0x38fc8faa	0.00012043056
84	0x393c8f38	0.0001798243
85	0x3938281b	0.00017562548
86	0x393ef435	0.00018210786
87	0x39891487	0.0002614597
88	0x398caf48	0.00026833476
89	0x3992355f	0.00027887055
90	0xb7dd7fdf	-2.6404798e-05
91	0xb7c4a56c	-2.3442051e-05
92	0xb7b93634	-2.2078959e-05
93	0xb7e99e4f	-2.7849483e-05
94	0xb7ca18fe	-2.4091914e-05
95	0xb7c2dfb7	-2.3230778e-05
96	0xb8018af5	-3.088541e-05
97	0xb7e50896	-2.7302925e-05
98	0xb7e13f3d	-2.6851538e-05
99	0x38df3497	0.00010643264
100	0x38e3ba3f	0.000108588945
101	0x38fc6605	0.00012035299
102	0x390ffb6d	0.00013731206
103	0x3913382b	0.00014039937
104	0x3924914f	0.0001569439
105	0x3946923e	0.00018937231
106	0x3952f7f0	0.00020119525
107	0x3962387b	0.0002157408
108	0x00000004	6e-45
109	0x80000004	-6e-45
110	0x80000004	-6e-45
111	0x80000004	-6e-45
112	0x80000004	-6e-45
113	0x80000004	-6e-45
114	0x80000004	-6e-45
115	0x80000004	-6e-45
116	0x80000004	-6e-45
117	0xb52c2444	-6.4127767e-07
118	0xb546e316	-7.40912e-07
119	0xb5830628	-9.762052e-07
120	0xb59d3afd	-1.1714579e-06
121	0xb5486f71	-7.4667975e-07
122	0xb56956b5	-8.692544e-07
123	0xb68c0629	-4.1730423e-06
124	0xb669558f	-3.4769507e-06
125	0xb656aa71	-3.1987695e-06
126	0xb52cb4c3	-6.4338036e-07
127	0xb4bfcfc5	-3.5727695e-07
128	0xb58d0594	-1.0506942e-06
129	0xb580b516	-9.589446e-07
130	0xb4e640ae	-4.28879e-07
131	0xb59c6850	-1.1653265e-06
132	0xb6276815	-2.4945523e-06
133	0xb58b662d	-1.0386044e-06
134	0xb5bd300d	-1.4095582e-06
135	0x36ede6db	7.0900255e-06
136	0x37031c1e	7.814755e-06
137	0x3706946f	8.021582e-06
138	0x36ec01e5	7.0335686e-06
139	0x36fee52b	7.5964685e-06
140	0x370e63ec	8.487124e-06
141	0x37067b64	8.0157515e-06
142	0x37147d79	8.850701e-06
143	0x3739933f	1.1061143e-05
144	0x39d2a41b	0.0004017659
145	0x39d063eb	0.00039747296
146	0x39ba3354	0.00035514927
147	0x39d7cf99	0.00041162668
148	0x39cc8311	0.00039007564
149	0x39ba31ba	0.00035513734
150	0x39d582ac	0.00040723884
151	0x39c5ee3d	0.0003775227
152	0x39bf5478	0.00036493293
153	0x36a62c56	4.952347e-06
154	0x369dab60	4.6989153e-06
155	0x3689c531	4.1058743e-06
156	0x373d7eb0	1.1294775e-05
157	0x375cb80c	1.3155874e-05
158	0x37a76bd0	1.9958155e-05
159	0x3821c86c	3.857205e-05
160	0x382c1e03	4.1035946e-05
161	0x38456d7b	4.707042e-05
162	0x00000004	6e-45
163	0x00000004	6e-45
164	0x00000004	6e-45
165	0x318bca80	4.068454e-09
166	0x310a3b58	2.0115376e-09
167	0x314c655c	2.9743523e-09
168	0xb07b17e7	-9.1347235e-10
169	0xb020a033	-5.843532e-10
170	0xad643fa4	-1.29744306e-11
171	0x33d1e7c0	9.774476e-08
172	0x33cf1522	9.643033e-08
173	0x33d4311e	9.880954e-08
174	0x34260164	1.546046e-07
175	0x3469e28d	2.1782235e-07
176	0x349e8111	2.9523702e-07
177	0x346ecd2f	2.2240123e-07
178	0x34bb3364	3.4868856e-07
179	0x34e62dae	4.2874075e-07
180	0x3984aa99	0.00025304107
181	0x39accd70	0.0003295946
182	0x39b96214	0.00035359024
183	0x3989d49d	0.00026289086
184	0x39b17751	0.00033848968
185	0x39beaa70	0.0003636661
186	0x3993bf7f	0.000281807
187	0x39afade2	0.00033508154
188	0x39b7a207	0.000350252
189	0x3928578e	0.00016054345
190	0x392cd076	0.00016480856
191	0x39256136	0.0001577184
192	0x394bd80d	0.00019440074
193	0x394f0e12	0.000197463
194	0x394b307c	0.0001937765
195	0x39716aa5	0.00023023279
196	0x396c7c6c	0.00022553065
197	0x39743998	0.00023291109
198	0x37da0d88	2.5993926e-05
199	0x37dbe5fd	2.6213931e-05
200	0x37d1f13d	2.5027077e-05
201	0x37c58304	2.3545239e-05
202	0x37cc927e	2.438691e-05
203	0x37c69c18	2.3676126e-05
204	0x37afb1bf	2.0944395e-05
205	0x37b1340a	2.1124277e-05
206	0x37ac666a	2.0551688e-05
207	0x383d72d4	4.5168053e-05
208	0x388e50dc	6.786149e-05
209	0x389bfe8c	7.438389e-05
210	0x38851d8e	6.347439e-05
211	0x38c9f16e	9.629397e-05
212	0x38db3a2d	0.0001045357
213	0x38e85a13	0.000110794
214	0x390bdf77	0.0001333932
215	0x390d019e	0.0001344741
216	0x3441bc07	1.804293e-07
217	0x33ffcbd8	1.1911442e-07
218	0x33fac69f	1.1677661e-07
219	0x350456dd	4.9300235e-07
220	0x34aa719d	3.1747632e-07
221	0x35bdb2eb	1.4133669e-06
222	0x36bbc3e7	5.5958403e-06
223	0x36cbc3a4	6.072647e-06
224	0x36f98984	7.436787e-06
225	0x39868137	0.00025654744
226	0x3983dc47	0.00025150387
227	0x3961df36	0.00021540825
228	0x398beb07	0.00026687255
229	0x39804a97	0.00024469636
230	0x39706b9c	0.00022928271
231	0x399861c8	0.00029064552
232	0x398ba174	0.00026632438
233	0x398cf498	0.00026885117
234	0x39577316	0.0002054687
235	0x39562eee	0.00020426113
236	0x3959b1ef	0.00020761018
237	0x396a7ac0	0.00022361707
238	0x397473e4	0.00023312826
239	0x39791a41	0.00023756271
240	0x3980f2fd	0.00024595103
241	0x3985ea55	0.00025542328
242	0x39869f66	0.00025677233
243	0x00000004	6e-45
244	0x80000004	-6e-45
245	0x80000004	-6e-45
246	0xaf91af1f	-2.6499777e-10
247	0xaf8e4143	-2.587602e-10
248	0xaf5c6fb0	-2.0048563e-10
249	0xb023cac6	-5.9587213e-10
250	0xaff4b15d	-4.4509366e-10
251	0xaf0999a6	-1.2514664e-10
252	0xb62f9e2c	-2.61691e-06
253	0x361d887a	2.3474263e-06
254	0x369d9b74	4.6970617e-06
255	0x35e1688b	1.6794232e-06
