checkpoints/model_epoch_20.pth (torch, 464973 bytes, 21 tensors)

enc1.weight f4 [32, 3, 3, 3]
0.2669126 0.42063302 0.19977339 0.1657829 -0.024152696 0.121986695 -0.4402731 -0.3059978
-0.3992576 0.30150753 0.28478402 0.20559742 0.11615433 -0.026301604 0.05047036 -0.36159387
-0.2063657 -0.40177897 0.19119821 0.29944596 0.2738108 -0.1667709 -0.1433026 0.12599498
-0.2672045 -0.26792026 -0.027641477 0.25270587 0.2633452 0.23346056 -0.12656213 0.15484352
-0.2009764 0.031137 -0.33726478 -0.26717362 0.107313365 0.462895 0.5311514 0.017529488
0.28509152 -0.2289215 -7.4839627e-06 -0.48947722 -0.7026446 0.067490436 0.116968095 0.087736115
0.04098542 -0.0015310473 0.063432075 0.07207753 -0.22103162 -0.23802385 -0.0056516333 -0.121207885
-0.11892558 0.07941331 0.08701048 -0.01710395 -0.53319156 -0.18164545 -0.24663286 -0.23094867
0.10706097 -0.16356482 0.5552744 0.32630447 0.023701716 -0.33001602 -0.19623548 -0.35398692
-0.11216205 0.081459284 -0.26839498 0.5352586 0.3225296 0.03768771 -0.118180074 0.049628906
-0.3651188 0.11014281 0.24106346 0.07931499 -0.30188757 -0.2856513 0.1520605 0.3055473
-0.1281128 -0.15488236 0.09197527 0.3975163 0.6504334 -0.41185212 -0.7206647 -0.16195282
0.333861 -0.37717465 0.09128802 -0.13457432 0.1986126 0.16089436 -0.27564737 -0.24403593
-0.06306731 0.19090454 -0.035473544 0.19414684 -0.37583753 -0.017131472 -0.16544919 -0.049088903
-0.10824706 -0.26674458 -0.00384875 -0.097354315 0.03237227 0.31248882 0.62736785 0.16440663
-0.059289213 0.30986896 0.008677363 0.3533243 -0.2806109 0.210112 -0.2612496 -0.0036785058
-0.30181965 -0.15856363 -0.044427235 0.028324937 0.09955613 -0.23438397 0.013545235 -0.44065437
-0.49306697 -0.2939736 -0.10744877 -0.37473866 -0.09632027 -0.02039153 -0.32820082 -0.11948098
-0.2506543 -0.2546926 0.15219946 -0.2162616 -0.16576296 0.10003273 0.052752748 0.083086245
0.29363415 0.03662337 0.28432542 0.18160935 0.2869139 0.14774023 0.2863507 0.008214511
0.27513257 0.27845243 0.0039555198 -0.20240322 0.032845337 -0.068075836 -0.26349702 -0.41289023
-0.13831143 -0.3028695 -0.4226141 -0.06613674 0.0009834366 -0.13352188 -0.26657054 -0.14594959
-0.28572348 -0.16712399 -0.0037139957 -0.2808541 0.3882742 0.24103296 0.19626857 0.18615817
0.31662866 -0.020461835 0.4049216 0.40263218 0.26526195 -0.17148016 0.2687301 0.11419308
0.12918915 0.14447336 -0.015844958 0.13762382 -0.21060036 -0.13261841 0.064304486 0.17084111
-0.20027612 0.06502591 -0.1720614 -0.40152368 -0.28196648 -0.3226008 -0.45052463 0.3052132
0.25811547 0.22428384 0.19222309 0.22847834 0.030566243 0.29057038 0.11284583 0.0057104235
0.13937339 0.09094566 0.046336435 -0.3394166 -0.1929644 -0.04085327 -0.059967596 -0.086897545
-0.13327666 0.3922454 0.19901182 0.41224387 -0.26174447 -0.29260764 0.22896709 0.044999383
-0.3580234 -0.014196762 0.22668456 0.27591893 0.30961743 -0.24865809 -0.1665619 0.22796401
0.12626751 -0.24019605 0.24900444 -0.43225136 -0.3714861 -0.2484409 0.0062285042 0.16840056
0.08089871 0.30315396 0.3783035 0.11777244 -0.5801936 -0.37541467 -0.48516664 -0.066135265
00000000: c5a8 883e 365d d73e 6591 4c3e fec2 293e
00000010: e0db c5bc 29d4 f93d 7a6b e1be beab 9cbe
00000020: 7e6b ccbe 325f 9a3e 36cf 913e 2188 523e
00000030: 52e2 ed3d 7676 d7bc 02ba 4e3d d522 b9be
00000040: 8851 53be f9b5 cdbe 77c9 433e fb50 993e
00000050: ee30 8c3e fec5 2abe ebbd 12be d404 013e
00000060: 07cf 88be d82c 89be 6170 e2bc aa62 813e
00000070: 2fd5 863e 4910 6f3e 8199 01be 4d8f 1e3e
00000080: c2cc 4dbe 0613 ff3c f8ad acbe fbca 88be
00000090: 1cc7 db3d 9300 ed3e 8af9 073f 009a 8f3c
000000a0: 84f7 913e 666a 6abe c01e fbb6 c29c fabe
000000b0: 84e0 33bf 6d38 8a3d f88c ef3d feae b33d
000000c0: 54e0 273d 6cad c8ba ade8 813d 629d 933d
000000d0: 1d56 62be 86bc 73be 5631 b9bb d73b f8bd
000000e0: 418f f3bd 72a3 a23d 8d32 b23d 951d 8cbc
000000f0: 3e7f 08bf 4401 3abe 538d 7cbe cf7d 6cbe
00000100: c842 db3d 897d 27be 7726 0e3f 6111 a73e
00000110: 1a2a c23c dcf7 a8be f4f1 48be c63d b5be
00000120: 38b5 e5bd 20d4 a63d 116b 89be b506 093f
00000130: 9a22 a53e 6e5e 1a3d 6508 f2bd ae47 4b3d
00000140: daf0 babe 8e92 e13d 57d9 763e e66f a23d
00000150: 0291 9abe e340 92be bfb5 1b3e b270 9c3e
00000160: 0030 03be 7b99 1ebe 885d bc3d 4287 cb3e
00000170: ce82 263f 48de d2be 7b7d 38bf f6d6 25be
00000180: d4ef aa3e 091d c1be 37f5 ba3d dacd 09be
00000190: 1a61 4b3e 7ec1 243e a721 8dbe 8ee4 79be
000001a0: 6f29 81bd 7b7c 433e b54c 11bd 6ece 463e
000001b0: c76d c0be 4d57 8cbc 836b 29be 7211 49bd
000001c0: a2b0 ddbd bf92 88be 4f3b 7cbb b361 c7bd
000001d0: c998 043d 89fe 9f3e 2e9b 203f 365a 283e
000001e0: 3fd9 72bd 25a7 9e3e 802b 0e3c ece6 b43e
000001f0: 3bac 8fbe 9a27 573e 82c2 85be 1613 71bb
00000200: 1b88 9abe 815e 22be 55f9 35bd b309 e83c
00000210: 16e4 cb3d 5a02 70be d5ec 5d3c 739d e1be
00000220: 4673 fcbe b583 96be 1a0e dcbd bfdd bfbe
00000230: 9043 c5bd 230c a7bc f009 a8be 72b2 f4bd
00000240: c355 80be 1267 82be 2dda 1b3e ae73 5dbe
00000250: c4bd 29be f6dd cc3d 4413 583d 1f29 aa3d
00000260: 3757 963e 6302 163d 1a93 913e cdf7 393e
00000270: 61e6 923e 3749 173e 8f9c 923e 2896 063c
00000280: 2dde 8c3e 5191 8e3e 4e9d 813b ca42 4fbe
00000290: d588 063d 586b 8bbd 15e9 86be 5966 d3be
000002a0: 83a1 0dbe b611 9bbe e060 d8be b372 87bd
000002b0: a8e6 803a f6b9 08be ef7b 88be cf73 15be
000002c0: 594a 92be 8d22 2bbe 8266 73bb 1ccc 8fbe
000002d0: e0cb c63e 58d1 763e a1fa 483e 3fa0 3e3e
000002e0: 271d a23e 949f a7bc e251 cf3e ce25 ce3e
000002f0: 6ad0 873e 7f98 2fbe fe96 893e 10de e93d
00000300: 294a 043e d3f0 133e 49cd 81bc 42ed 0c3e
00000310: 9fa7 57be 1fcd 07be 12b2 833d f9f0 2e3e
00000320: 2f15 4dbe 4e2c 853d dd30 30be 8394 cdbe
00000330: e95d 90be ef2b a5be 2aab e6be e844 9c3e
00000340: b627 843e aaaa 653e 21d6 443e 3af6 693e
00000350: 0f66 fa3c a4c5 943e b71b e73d 811e bb3b
00000360: e6b7 0e3e b841 ba3d 46cb 3d3d 03c8 adbe
00000370: 7698 45be c255 27bd 95a0 75bd 57f7 b1bd
00000380: ad79 08be 64d4 c83e c1c9 4b3e a111 d33e
00000390: 5f03 86be abd0 95be 5976 6a3e 4651 383d
000003a0: d84e b7be 8999 68bc ff1f 683e 3f45 8d3e
000003b0: 2d86 9e3e 3aa0 7ebe 348f 2abe 666f 693e
000003c0: 454c 013e f4f5 75be 05fb 7e3e 0d50 ddbe
000003d0: 6d33 bebe 4b67 7ebe 7b18 cc3b 3271 2c3e
000003e0: 39ae a53d ff36 9b3e ffb0 c13e ad32 f13d
000003f0: 9187 14bf 5a36 c0be c367 f8be ed71 87bd

enc1.bias f4 [32]
-0.008046462 -0.006769474 -0.007169461 0.002410722 -0.023232348 0.14715391 -0.0045600147 -0.13806477
-0.6332096 -0.0054927263 0.046221476 -0.0019646226 -0.1830912 0.08005613 0.05558017 -0.5083521
-0.009954544 -0.12859823 -0.4227282 -0.28201634 -0.010086411 -0.036973964 -0.5887396 0.0060839797
-0.5159656 -0.030707898 -0.26845333 -0.08611353 -0.0010698073 -0.20215029 0.017191209 0.059701476
00000000: 4fd5 03bc 77d2 ddbb cced eabb 34fd 1d3b
00000010: c451 bebc 84af 163e 2d6c 95bb da60 0dbe
00000020: 061a 22bf 54fc b3bb bb52 3d3d e6c0 00bb
00000030: 427c 3bbe 78f4 a33d 08a8 633d 5d23 02bf
00000040: 6218 23bc 41af 03be d56f d8be 7264 90be
00000050: 7941 25bc 0372 17bd a3b7 16bf 1f5c c73b
00000060: 5216 04bf 218f fbbc b772 89be 4a5c b0bd
00000070: c738 8cba 7c00 4fbe 94d4 8c3c 8989 743d

enc2.weight f4 [64, 32, 3, 3]
-0.98106253 -0.36548272 -0.5831733 -0.05440018 -0.0038020606 0.14336596 0.32849452 -0.06264984
0.19148894 -1.4255632 -0.86526006 -1.2351513 -0.26200557 -0.1541223 0.09673098 0.44304734
0.07068684 0.3197453 0.22903518 -1.1421844 -1.1621175 1.3242859 0.49982896 0.15836889
-0.24670544 -0.21891665 -0.23797096 -0.6997863 -0.3559074 -0.97094965 0.33742318 0.06579317
0.12585421 0.68372345 0.27298322 0.7219819 -0.16137832 -0.20455618 -0.22531916 0.025843205
-0.12048376 -0.16447599 0.3077325 0.1675124 0.15251468 -0.29726443 -0.079251826 -0.12323324
0.17001446 0.1954141 0.1790799 0.07255375 -0.06282415 0.018752255 -0.5332873 -0.30569145
-0.6436757 -0.46155864 -0.24808407 -0.2665874 0.115639426 0.042807948 0.19924377 -0.21493517
-0.024845079 -0.09592676 0.14766426 0.0893708 0.029335264 0.1566687 -0.0964655 -0.2750308
0.33455163 0.6865623 0.0034092297 -0.09826127 -0.28285468 -1.3112416 0.007064009 0.5135797
-0.01921947 -2.0361757 -0.8008981 -1.3692583 -0.021769574 0.0529691 0.091020145 0.587948
0.043092 0.41192916 0.14756083 0.23366597 0.1838304 0.0020106048 0.024948442 0.06447247
0.09514873 -0.048934143 0.016826265 -0.87497 -0.29931432 -1.665082 0.0057637123 0.006994331
0.011771325 0.14526287 -0.10805009 0.47907203 -0.046001635 0.017684989 -0.007349686 -0.050757684
0.0406585 -0.0063116397 0.013563708 0.039734397 0.03862269 -0.46745968 -0.527663 -0.48214644
-1.1836153 -1.2140653 -1.2884269 0.38898662 0.37198645 0.34537926 -0.5000098 -1.026266
-1.5465513 -0.17122404 -0.78915447 -1.341272 0.32810783 -0.43332562 -1.038483 -0.09961585
0.051203348 -0.108323455 -0.0047266283 -0.002037871 0.14570458 0.2723044 0.19831455 0.3909282
0.074816145 0.4471087 0.424195 0.12562475 0.066884495 0.31935367 0.43805835 -0.13001783
0.2930608 -0.40443575 -0.41356722 -0.95295036 -0.21815579 -0.10706804 -0.2558335 -0.026922652
-0.20661362 -0.18082285 -0.031934872 0.01740002 -0.05991859 -0.9403741 -0.78751737 -0.29169333
0.31443912 0.2655991 0.19578506 -0.7025955 -0.38587034 -0.45898226 -0.6710974 -0.21442896
-0.18780698 -0.49197024 -0.24872948 -0.2403718 0.36743274 0.5740136 0.36139873 0.1675367
0.09072179 0.1672116 0.0259551 -0.35327512 -0.02510303 0.28761247 0.3577519 0.15145007
0.27097294 -0.18668856 -0.21384059 -0.39140606 -0.31298417 -0.19779344 -0.29931882 -0.24664116
-0.2603808 -0.1760121 -0.112016596 -0.08657944 0.09431111 -0.025540665 0.10868551 -0.78368324
-0.30396694 -0.26027176 -0.25438353 0.05420473 0.06813655 0.32036164 0.17638296 -0.13864964
-0.11078926 -0.20126486 -0.2000208 -0.25379208 0.08109634 0.159028 -0.087975204 0.10945816
-0.017115843 0.008984535 0.29816386 0.107645504 -0.3112111 -0.015446217 -0.08231865 0.0515509
-0.053987604 -0.011093107 -0.037417185 -0.0938635 -0.22053732 0.1636219 0.019499682 0.03043728
0.10647891 -0.0077967923 0.0207862 -0.056969907 0.027166136 -0.10387854 -0.06307713 -0.08691109
-0.49070734 -0.026058152 0.17270204 -0.21780986 0.1838317 0.18334915 0.08689182 0.12629318
00000000: ea26 7bbf 8d20 bbbe d84a 15bf b9d2 5ebd
00000010: fe2b 79bb 87ce 123e 6f30 a83e 8f4e 80bd
00000020: ad15 443e db78 b6bf af81 5dbf 7019 9ebf
00000030: 9825 86be 3cd2 1dbe e41a c63d 1ad7 e23e
00000040: 43c4 903d a8b5 a33e 3388 6a3e 1933 92bf
00000050: 44c0 94bf 3382 a93f 95e9 ff3e 742b 223e
00000060: 5aa0 7cbe b02b 60be a9ae 73be 3225 33bf
00000070: 7f39 b6be 2890 78bf bbc2 ac3e 92be 863d
00000080: eddf 003e 8008 2f3f 75c4 8b3e ced3 383f
00000090: 5c40 25be 2d77 51be 11ba 66be 21b5 d33c
000000a0: 31c0 f6bd 656c 28be 1d8f 9d3e 5f88 2b3e
000000b0: cf2c 1c3e 0b33 98be c84e a2bd b561 fcbd
000000c0: 4518 2e3e a21a 483e b960 373e 0f97 943d
000000d0: f3a9 80bd 549e 993c 8485 08bf 9783 9cbe
000000e0: eec7 24bf 6a51 ecbe c009 7ebe 257e 88be
000000f0: 5dd4 ec3d 6357 2f3d 8f06 4c3e f717 5cbe
00000100: e887 cbbc 4075 c4bd 4d35 173e 0a08 b73d
00000110: 8250 f03c c26d 203e b48f c5bd d6d0 8cbe
00000120: 5a4a ab3e 8cc2 2f3f 626d 5f3b 343d c9bd
00000130: 54d2 90be c4d6 a7bf 3479 e73b f679 033f
00000140: 2672 9dbc b450 02c0 a807 4dbf db43 afbf
00000150: 1b56 b2bc 21f6 583d c568 ba3d c383 163f
00000160: 3d81 303d 61e8 d23e 301a 173e 2246 6f3e
00000170: 093e 3c3e 5ac4 033b ad60 cc3c 240a 843d
00000180: 56dd c23d 2b6f 48bd 3cd7 893c 09fe 5fbf
00000190: ba3f 99be 6821 d5bf 86dd bc3b b330 e53b
000001a0: 84dc 403c cabf 143e 5e49 ddbd ee48 f53e
000001b0: 366c 3cbd 1ce0 903c a3d5 f0bb 4ae7 4fbd
000001c0: 8789 263d dfd1 cebb 513a 5e3c 89c0 223d
000001d0: d332 1e3d e056 efbe ec14 07bf e6db f6be
000001e0: b580 97bf 7e66 9bbf 2ceb a4bf 4129 c73e
000001f0: 0275 be3e 8dd5 b03e a400 00bf af5c 83bf
00000200: 65f5 c5bf 5b55 2fbe 0706 4abf cdae abbf
00000210: c0fd a73e dbdc ddbe 03ed 84bf 6503 ccbd
00000220: 9aba 513d b0d8 ddbd d5e1 9abb cd8d 05bb
00000230: 9533 153e 7b6b 8b3e f812 4b3e be27 c83e
00000240: 3539 993d 6eeb e43e 1630 d93e c6a3 003e
00000250: bdfa 883d 5382 a33e 2f49 e03e 6523 05be
00000260: 110c 963e 3412 cfbe 15bf d3be 8ef4 73bf
00000270: 3b64 5fbe 7d46 dbbd 9cfc 82be e58c dcbc
00000280: 8592 53be a029 39be 24ce 02bd 7d8a 8e3c
00000290: 326d 75bd 5bbc 70bf bd9a 49bf d458 95be
000002a0: 2afe a03e 9bfc 873e e17b 483e 4cdd 33bf
000002b0: cc90 c5be b9ff eabe 0acd 2bbf 4493 5bbe
000002c0: 7950 40be 86e3 fbbe f1b2 7ebe 0624 76be
000002d0: 2520 bc3e 8ef2 123f 4109 b93e be8e 2b3e
000002e0: 59cc b93d 8539 2b3e ca9f d43c 7ae0 b4be
000002f0: dfa4 cdbc f141 933e 422b b73e ba15 1b3e
00000300: f7bc 8a3e 492b 3fbe 07f9 5abe 6066 c8be
00000310: 763f a0be 5d8a 4abe 5140 99be 808f 7cbe
00000320: a250 85be 843c 34be f568 e5bd 9050 b1bd
00000330: 2f26 c13d a83a d1bc 8296 de3d 779f 48bf
00000340: 8ea1 9bbe 5742 85be 8f3e 82be c705 5e3d
00000350: 2d8b 8b3d 7106 a43e bc9d 343e 2cfa 0dbe
00000360: 7be5 e2bd 6018 4ebe 41d2 4cbe 09f1 81be
00000370: d715 a63d 3cd8 223e 582c b4bd 9a2b e03d
00000380: 8636 8cbc df33 133c efa8 983e 3f75 dc3d
00000390: 1057 9fbe 2112 7dbc ae96 a8bd 0927 533d
000003a0: 1b22 5dbd ddbf 35bc c342 19bd 823b c0bd
000003b0: 89d4 61be 808c 273e ccbd 9f3c 9a57 f93c
000003c0: 9d11 da3d 3c7c ffbb d247 aa3c 4759 69bd
000003d0: 848b de3c 46be d4bd 952e 81bd 71fe b1bd
000003e0: fe3d fbbe e877 d5bc ced8 303e 8c09 5fbe
000003f0: 613e 3c3e e1bf 3b3e 57f4 b13d 0053 013e

enc2.bias f4 [64]
0.08932224 -0.09745785 -0.013371464 -0.2948628 -0.525035 -0.066991426 0.0041543934 -0.019081267
0.007305041 -0.16616069 -0.0021702915 -0.22349258 0.01792275 -0.055686247 -0.057648372 0.038131952
-0.15128449 -0.21832159 -0.31378505 -0.121497236 -0.0035136617 -0.05351049 -0.05556425 -0.0061900127
-0.12444104 -0.11105426 -0.14990045 0.0009148697 0.005902977 -0.049757086 -0.011446946 -0.090864435
0.15186743 -0.028523078 -0.09286248 0.0036376568 -0.16657048 0.073398456 -0.048038743 -0.0949796
0.023088435 0.0057535367 -0.02908901 -0.18874598 -0.050799113 -0.12543467 0.15956192 -0.04045692
-0.09714534 0.0010416345 0.014302458 -0.0835654 -0.7504464 -0.30191842 -0.22912914 -0.6756193
-0.011047616 -0.69445544 -0.053382166 -0.08925373 -0.09123345 0.14852442 -0.25840807 0.25610587
00000000: 94ee b63d fb97 c7bd fc13 5bbc 42f8 96be
00000010: b268 06bf cd32 89bd 9421 883b 5150 9cbc
00000020: 205f ef3b 0726 2abe 733b 0ebb 3ddb 64be
00000030: bbd2 923c 4317 64bd b320 6cbd 4030 1c3d
00000040: 52ea 1abe b28f 5fbe 6fa8 a0be 8bd3 f8bd
00000050: 7645 66bb d12d 5bbd 5797 63bd 97d5 cabb
00000060: f2da febd 6a70 e3bd 817f 19be ded3 6f3a
00000070: c36d c13b 16ce 4bbd f98b 3bbc 2217 babd
00000080: 2383 1b3e 3ba9 e9bc af2e bebd c165 6e3b
00000090: 7491 2abe ee51 963d 46c4 44bd aa84 c2bd
000000a0: f523 bd3c 2a88 bc3b 134c eebc a046 41be
000000b0: bb12 50bd f271 00be 3364 233e 28b6 25bd
000000c0: 23f4 c6bd 7487 883a db54 6a3c 5624 abbd
000000d0: 411d 40bf 0d95 9abe d4a0 6abe 63f5 2cbf
000000e0: 0f01 35bc d5c7 31bf 42a7 5abd a9ca b6bd
000000f0: 9ad8 babd c916 183e 104e 84be 4f20 833e

dec1.weight f4 [32, 64, 3, 3]
-0.15378875 0.045975152 0.10545857 0.07725063 0.22929004 0.3119527 0.09050449 0.13276745
0.21529442 0.013546615 -0.060791146 -0.050681718 -0.011518645 -0.040312767 -0.03297039 0.0028876776
-0.04416305 0.0077978866 0.13568825 0.059359815 0.08216859 0.037405867 0.0074108415 0.040825207
0.07936076 0.063651845 0.07280041 -0.16204932 -0.23336396 -0.2794676 -0.1645127 -0.24519546
-0.27231988 -0.13737172 -0.20931144 -0.19665281 -0.31752813 -0.28268173 -0.1464893 -0.09260444
-0.064461015 0.05422919 -0.28287932 -0.311502 -0.1310647 0.19357678 0.06185523 0.27310848
-0.08608378 -0.31163347 -0.09504718 0.09112783 -0.12844534 0.099060014 -0.4108687 0.13701679
-0.14681733 0.010808488 0.31722102 -0.09064848 -0.26735514 0.16632038 -0.042552307 -0.3063993
-0.12739657 -0.514809 -0.14527874 0.02667371 -0.27098075 -0.05043057 -0.12035998 -0.47833514
-0.4043957 0.25262812 -0.10763427 -0.1416974 0.5552533 0.13221774 -0.9586661 -0.10108581
-0.38314605 -0.075437024 -0.28535295 -0.22544755 -0.15087612 -0.35265794 -0.32286614 -0.13920933
-0.25491765 -0.23194191 -2.218142 -0.3030865 -1.0298616 -1.1261133 1.0357888 -0.0818205
-3.1038673 -1.1538411 -2.108294 -0.052847646 -0.19132611 -0.026168728 -0.15323986 -0.24827683
-0.0700673 0.035762865 -0.0007578636 0.20908532 0.12518346 -0.09226637 0.15882713 0.050415628
-0.14249596 0.1134715 0.16332217 -0.021812718 0.2677157 0.41076285 -0.098564096 0.40416023
0.059156653 -0.4978638 0.09561174 0.40301037 -0.21535851 0.19478576 0.4861235 -0.016531821
0.2044077 0.13938923 -0.36087057 -0.13401432 0.5869417 0.051516633 0.19698323 0.20270503
0.14534774 0.27746147 0.1475181 0.07956833 0.19193023 0.14440437 0.06746777 0.18298689
0.00723678 -0.1657115 -0.08401665 -0.084413946 -0.17699747 -0.1148983 0.014980938 -0.12149062
-0.06690136 0.00075248274 -0.06251366 0.17858352 0.00054346304 -0.088504866 0.26609296 -0.012897839
0.0052052126 0.34912512 0.16433156 -0.073840424 0.061306972 -0.08743449 -0.2923467 -0.11454773
0.054313082 -0.12455156 -0.045783322 -0.34634817 0.0006219825 -0.3831034 -0.19200227 0.245892
-0.2032442 -0.05852595 0.06367304 -0.48710465 -1.521164 -0.6542961 -0.81662333 -0.5988367
0.1441666 0.02795481 -0.60398424 0.102937035 0.19808607 -0.5587583 -0.1442443 -0.10682745
-0.16438796 0.16043591 0.007209603 -0.23296209 0.099275745 -0.030640557 -0.6173013 -0.009471906
-0.7471742 -0.30741286 0.40165186 -0.23984127 -0.68645626 -0.08782078 -0.47230557 -0.07589422
0.16677064 -0.2407504 0.2518018 0.69006306 0.13140868 -0.39275697 0.015773062 -0.9302953
0.27687547 0.16633637 0.20774253 0.13182229 -0.0017492014 0.12073314 0.19396068 0.110859066
0.15150341 0.002073572 0.03648624 0.041424993 0.041665882 0.042481713 0.037250664 0.014641153
0.052345965 0.08240431 -0.16208786 -0.18299492 -0.0769328 0.16795231 -0.076946124 0.12949449
0.22000222 -0.012145009 0.3194227 -0.07127139 0.03695552 -0.25052157 -0.0030003514 0.17902915
-0.012398198 -0.2053592 0.03387175 -0.21379337 0.19499248 -0.0403966 0.1232365 0.06636244
00000000: cc7a 1dbe 7150 3c3d aafa d73d 9435 9e3d
00000010: 02cb 6a3e 44b8 9f3e 6b5a b93d 31f4 073e
00000020: 2476 5c3e 9ff2 5d3c 2300 79bd a297 4fbd
00000030: b3b8 3cbc 001f 25bd f60b 07bd 313f 3d3b
00000040: 50e4 34bd 6a85 ff3b dcf1 0a3e 4723 733d
00000050: 0148 a83d e536 193d a5d6 f23b 5538 273d
00000060: e587 a23d e65b 823d 6218 953d 42f0 25be
00000070: f6f6 6ebe 6116 8fbe 0476 28be 8514 7bbe
00000080: 836d 8bbe 2cab 0cbe bd55 56be 5b5f 49be
00000090: 0c93 a2be a9bb 90be 4b01 16be 66a7 bdbd
000000a0: 2304 84bd 6d1f 5e3d 8fd5 90be 317d 9fbe
000000b0: d335 06be fe38 463e e95b 7d3d e0d4 8b3e
000000c0: b14c b0bd 6c8e 9fbe 19a8 c2bd 3aa1 ba3d
000000d0: 2d87 03be fadf ca3d 625d d2be 214e 0c3e
000000e0: 4857 16be 1616 313c cb6a a23e e9a5 b9bd
000000f0: c6e2 88be e44f 2a3e 544b 2ebd 5ee0 9cbe
00000100: 3f74 02be 86ca 03bf f3c3 14be d382 da3c
00000110: fdbd 8abe 4990 4ebd 4b7f f6bd 58e8 f4be
00000120: f40c cfbe 7958 813e 5b6f dcbd 2019 11be
00000130: 1525 0e3f 1664 073e 246b 75bf 1406 cfbd
00000140: b82b c4be ba7e 9abd c819 92be b9db 66be
00000150: 457f 1abe 958f b4be b64e a5be e48c 0ebe
00000160: 9184 82be 2e82 6dbe 0af6 0dc0 272e 9bbe
00000170: 81d2 83bf 7b24 90bf ba94 843f 8291 a7bd
00000180: c3a5 46c0 11b1 93bf 4aee 06c0 c676 58bd
00000190: feea 43be cd5f d6bc e9ea 1cbe 483c 7ebe
000001a0: 727f 8fbd 157c 123d 5eab 46ba 761a 563e
000001b0: 1830 003e 27f6 bcbd 94a3 223e 9e80 4e3d
000001c0: 76ea 11be bf63 e83d ed3d 273e 96b0 b2bc
000001d0: 0812 893e 824f d23e f9db c9bd 17ee ce3e
000001e0: 3f4e 723d 01e8 febe 17d0 c33d 6057 ce3e
000001f0: f186 5cbe eb75 473e 2ee5 f83e be6d 87bc
00000200: 4150 513e 0dbc 0e3e 07c4 b8be 0d3b 09be
00000210: d041 163f 1b03 533d f9b5 493e e891 4f3e
00000220: 0ad6 143e 6e0f 8e3e fc0e 173e b8f4 a23d
00000230: 5c89 443e bdde 133e 8b2c 8a3d ea60 3b3e
00000240: 8322 ed3b 47b0 29be ec10 acbd 38e1 acbd
00000250: d33e 35be cd4f ebbd 9c72 753c 13d0 f8bd
00000260: 9503 89bd 4342 453a 2907 80bd 99de 363e
00000270: 3077 0e3a 0a42 b5bd 563d 883e 7551 53bc
00000280: 7d90 aa3b 87c0 b23e 8846 283e a639 97bd
00000290: 051d 7b3d db10 b3bd 77ae 95be 0098 eabd
000002a0: 6577 5e3d e314 ffbd 4b87 3bbd 8c54 b1be
000002b0: 8a0c 233a 2126 c4be 3e9c 44be 1dcb 7b3e
000002c0: 3f1f 50be e8b8 6fbd 0367 823d c865 f9be
000002d0: 80b5 c2bf f37f 27bf 3a0e 51bf 5d4d 19bf
000002e0: 69a0 133e 7c01 e53c b69e 1abf a7d0 d23d
000002f0: 13d7 4a3e c90a 0fbf c7b4 13be 5ac8 dabd
00000300: 5155 28be 5049 243e 893e ec3b 9d8d 6ebe
00000310: 1551 cb3d e801 fbbc 7507 1ebf 0e30 1bbc
00000320: cf46 3fbf 3865 9dbe 50a5 cd3e f398 75be
00000330: 99bb 2fbf 62db b3bd 09d2 f1be 6e6e 9bbd
00000340: ecc5 2a3e 4687 76be 2aec 803e f9a7 303f
00000350: ff8f 063e 7117 c9be 8236 813c d527 6ebf
00000360: 9fc2 8d3e 1554 2a3e 75ba 543e 6cfc 063e
00000370: 7645 e5ba f042 f73d a19d 463e 140a e33d
00000380: b623 1b3e c4e4 073b 9872 153d 41ad 293d
00000390: d8a9 2a3d 4e01 2e3d 2794 183d 72e1 6f3c
000003a0: b968 563d 97c3 a83d 5cfa 25be 0563 3bbe
000003b0: f28e 9dbd b1fb 2b3e ee95 9dbd 349a 043e
000003c0: 4348 613e dcfb 46bc 5f8b a33e bcf6 91bd
000003d0: ac5e 173d 5d44 80be 8ba1 44bb 6b53 373e
000003e0: d021 4bbc af49 52be 1bbd 0a3d a6ec 5abe
000003f0: 1cac 473e e876 25bd 6b63 fc3d 08e9 873d

dec1.bias f4 [32]
0.23157834 -0.03257772 -0.0870298 -0.12980932 0.35025296 0.3063324 0.19675386 -0.056617167
0.104506254 0.22039777 0.078252524 -0.044352338 -0.0598557 0.417631 -0.0615717 -0.07688997
-0.04231489 0.35825658 0.28275698 0.3441636 0.3272969 -0.048758075 0.44470072 -0.03604185
0.21674673 0.42930582 -0.05684697 -0.07391482 -0.2641121 -0.025302187 -0.068676576 0.016640976
00000000: df22 6d3e 3770 05bd ae3c b2bd bcec 04be
00000010: 5b54 b33e 9ad7 9c3e d879 493e 67e7 67bd
00000020: 6007 d63d f4af 613e dc42 a03d ccaa 35bd
00000030: 402b 75bd bbd3 d53e 9b32 7cbd 7d78 9dbd
00000040: 6152 2dbd 686d b73e 86c5 903e 3636 b03e
00000050: 7693 a73e 8cb6 47bd d0af e33e 9ea0 13bd
00000060: dbf2 5d3e f9cd db3e 5ed8 68bd a760 97bd
00000070: b339 87be 8846 cfbc 4ea6 8cbd a852 883c

out.weight f4 [1, 32, 1, 1]
-0.2600608 0.100637875 0.10009807 -0.024002556 -0.23348759 -0.3607426 -0.08522173 0.091658115
-0.58209056 -0.121086255 -0.17259094 -0.0129172085 0.1046096 0.49840757 0.091031715 -0.08878035
0.05704074 -0.14180167 -0.4689533 -0.20836715 -0.17065768 0.013182408 0.35541984 0.066342816
-0.18580809 -0.22115643 0.07126985 0.11679643 -0.5476474 0.12838486 0.03726094 -0.8227065
00000000: b026 85be 3b1b ce3d 3800 cd3d 02a1 c4bc
00000010: 5f17 6fbe 41b3 b8be bb88 aebd 40b7 bb3d
00000020: e303 15bf 12fc f7bd aebb 30be b3a2 53bc
00000030: 8f3d d63d 472f ff3e d66e ba3d 79d2 b5bd
00000040: 8da3 693d 7534 11be a61a f0be 335e 55be
00000050: e3c0 2ebe 07fb 573c 97f9 b53e bede 873d
00000060: 7a44 3ebe d576 62be edf5 913d f732 ef3d
00000070: 9f32 0cbf 5277 033e ed9e 183d e59c 52bf

exp_avg f4 [32, 3, 3, 3]
0.019655855 0.019291876 0.018767182 0.019833537 0.019318707 0.018767983 0.019873297 0.019402675
0.018898655 0.01696304 0.01660884 0.01633031 0.01726452 0.016895417 0.01653339 0.01755394
0.017165497 0.016765384 0.016445577 0.016123017 0.015816404 0.016563736 0.016122546 0.015873495
0.016677558 0.01624764 0.015998768 0.05111682 0.050773654 0.050216928 0.050776616 0.050676063
0.05021157 0.050927557 0.050573546 0.050121862 0.044328295 0.04416738 0.043777645 0.044088673
0.044212274 0.043821547 0.04434468 0.04426536 0.04388072 0.045047775 0.044814065 0.044426396
0.044663824 0.044478267 0.044335973 0.04481004 0.044387855 0.044192735 5.9461112e-05 5.205456e-05
9.878395e-05 9.181707e-05 4.5048895e-05 7.3029245e-05 5.8528407e-05 9.213077e-06 6.0534865e-05 1.7521483e-05
2.1868678e-05 0.00012454721 6.276802e-05 2.1222222e-05 9.248822e-05 -6.481138e-06 -5.5054217e-05 4.6174682e-05
7.5801465e-05 6.294779e-05 7.062699e-05 0.00010714517 5.586016e-05 4.772698e-05 2.3755323e-05 -2.8548477e-05
-4.2095076e-06 0.015489251 0.015278747 0.015190852 0.014978427 0.014725169 0.014915359 0.013643001
0.014075758 0.01543902 0.014220536 0.013878037 0.013955781 0.013560717 0.012578639 0.013225914
0.012386028 0.012219375 0.014277528 0.014266324 0.014107189 0.013913383 0.013848438 0.01348875
0.013625935 0.013096639 0.013385362 0.014394563 0.0004028278 0.0004824442 0.00018854295 0.00033727294
0.0005378959 0.00048236386 0.00026018714 0.00037113554 0.00034889262 -0.0017129643 -0.0014713714 -0.0018320938
-0.0017210394 -0.0015197085 -0.001652046 -0.0015181875 -0.0015566116 -0.0015598866 -0.0011068926 -0.0008946525
-0.0010590131 -0.0010897476 -0.00084924954 -0.0009686268 -0.0009959228 -0.0009482557 -0.0011281294 0.00631222
0.006242934 0.006522092 0.006391139 0.006349675 0.0066252924 0.0066929515 0.0067720604 0.0070075323
0.01262601 0.012659644 0.01316613 0.01278905 0.012923677 0.01338479 0.0132137835 0.013505867
0.013834823 0.011961675 0.012046485 0.012208189 0.0122040175 0.012269504 0.0124291 0.012345799
0.012603473 0.012712756 0.001367608 0.001379897 0.0013660719 0.0014136285 0.0014235848 0.0014161998
0.0014339185 0.001442672 0.001447043 0.003138703 0.0031937286 0.0031258448 0.003179534 0.003245343
0.0031718232 0.0032347098 0.0032801803 0.0032147057 0.0032085266 0.0031978027 0.003141736 0.0032395297
0.0032503062 0.003197363 0.0032798331 0.003299659 0.003269953 -0.0006483444 -0.00056355767 -0.0004663274
-0.0009333286 -0.0008400786 -0.0006142277 -0.0010449488 -0.0010096806 -0.00091993314 -0.0004855918 -0.0004253777
-0.000279185 -0.00077113044 -0.000669991 -0.00037978482 -0.0007658687 -0.0007372706 -0.0006551744 3.532183e-05
7.916116e-05 0.00014336422 -0.00025725446 -0.00020915728 1.2410009e-05 -0.0002948255 -0.00025005572 -0.00016346062
0.00013790368 0.000121656456 8.516966e-05 0.00013454612 0.00014573241 9.961408e-05 0.00014154703 0.00013143601
0.00010085869 0.000702581 0.0006955385 0.00066223805 0.00066519866 0.00069769117 0.00065752264 0.0006259705
0.0006397846 0.000613655 0.0005812728 0.00056185457 0.0005402232 0.0005951792 0.0005972523 0.0005734423
0.0005692634 0.0005642037 0.00053562643 0.018452542 0.020331498 0.021425199 0.017885398 0.019926047
0.021075921 0.017688647 0.019607654 0.020659637 0.012511518 0.014174606 0.014816663 0.01160999
00000000: 5105 a13c ff09 9e3c a2bd 993c f179 a23c
00000010: 4442 9e3c 50bf 993c 53cd a23c 5cf2 9e3c
00000020: 5ad1 9a3c 13f6 8a3c 430f 883c 24c7 853c
00000030: 536e 8d3c 4268 8a3c 0871 873c 48cd 8f3c
00000040: a89e 8c3c 8f57 893c e0b8 863c 6b14 843c
00000050: 6791 813c acb0 873c 6e13 843c 2209 823c
00000060: 609f 883c c519 853c d90f 833c df5f 513d
00000070: 09f8 4f3d 44b0 4d3d 24fb 4f3d b491 4f3d
00000080: a6aa 4d3d 6a99 503d 3526 4f3d 954c 4d3d
00000090: 9691 353d dbe8 343d 3050 333d 5396 343d
000000a0: ee17 353d 397e 333d c4a2 353d 984f 353d
000000b0: 45bc 333d 0484 383d f48e 373d 74f8 353d
000000c0: 6af1 363d d82e 363d a399 353d bc8a 373d
000000d0: 0ad0 353d 7103 353d e265 7938 2855 5a38
000000e0: 3b2a cf38 ea8d c038 e2f2 3c38 4727 9938
000000f0: 667c 7538 dd91 1a37 d1e6 7d38 19fb 9237
00000100: a172 b737 e398 0239 53a2 8338 6006 b237
00000110: 3cf6 c138 8d78 d9b6 04ea 66b8 b0ab 4138
00000120: 9af7 9e38 d602 8438 941d 9438 20b3 e038
00000130: 644b 6a38 742e 4838 2b46 c737 637b efb7
00000140: 653f 8db6 a1c6 7d3c b653 7a3c 0de3 783c
00000150: 1468 753c d641 713c 8d5f 743c e586 5f3c
00000160: 029e 663c f1f3 7c3c 40fd 683c b560 633c
00000170: caa6 643c c52d 5e3c a316 4e3c 81b1 583c
00000180: c4ee 4a3c c633 483c 4bec 693c 4dbd 693c
00000190: d721 673c f5f4 633c 8fe4 623c ebff 5c3c
000001a0: 503f 5f3c 4993 563c 474e 5b3c 2cd7 6b3c
000001b0: a232 d339 90f0 fc39 9db3 4539 02d4 b039
000001c0: 9501 0d3a c8e5 fc39 ba69 8839 f894 c239
000001d0: 93eb b639 8b85 e0ba 08db c0ba de22 f0ba
000001e0: 8094 e1ba f530 c7ba 7789 d8ba ebfd c6ba
000001f0: 3807 ccba 1c75 ccba 2715 91ba 1d87 6aba
00000200: 95ce 8aba ddd5 8eba 2ca0 5eba 72eb 7dba
00000210: a089 82ba 5d94 78ba bedd 93ba bdd6 ce3b
00000220: 8791 cc3b 46b7 d53b c26c d13b ef10 d03b
00000230: fb18 d93b 8c50 db3b 29e8 dd3b 719f e53b
00000240: 53dd 4e3c 656a 4f3c c0b6 573c 2a89 513c
00000250: d5bd 533c e14b 5b3c a07e 583c b647 5d3c
00000260: 74ab 623c e7fa 433c 9f5e 453c db04 483c
00000270: 5cf3 473c 0806 493c 6da3 4b3c 0946 4a3c
00000280: cc7e 4e3c 2a49 503c 4f41 b33a a9dd b43a
00000290: c40d b33a 8049 b93a 9497 ba3a c89f b93a
000002a0: 52f2 bb3a 0a18 bd3a b5aa bd3a b3b2 4d3b
000002b0: e04d 513b f9da 4c3b bb5f 503b d2af 543b
000002c0: 5dde 4f3b 6dfd 533b 4bf8 563b d0ad 523b
000002d0: 2546 523b 3a92 513b 95e5 4d3b 4a4e 543b
000002e0: 1703 553b da8a 513b 78f2 563b 173f 583b
000002f0: b54c 563b a8f5 29ba b7bb 13ba 677d f4b9
00000300: 9faa 74ba b838 5cba 2004 21ba aaf6 88ba
00000310: 4257 84ba ab27 71ba 0797 feb9 3a05 dfb9
00000320: 945f 92b9 b025 4aba 56a2 2fba db1d c7b9
00000330: 94c4 48ba 6445 41ba 02c0 2bba 8726 1438
00000340: 5303 a638 0a54 1639 1ce0 86b9 3b51 5bb9
00000350: 9534 5037 cf92 9ab9 e919 83b9 a066 2bb9
00000360: 3d9a 1039 d021 ff38 1d9d b238 f314 0d39
00000370: bfcf 1839 e7e7 d038 3e6c 1439 16d2 0939
00000380: 1984 d338 6a2d 383a cc54 363a 0b9a 2d3a
00000390: ba60 2e3a 43e5 363a 995d 2c3a 2b18 243a
000003a0: 38b7 273a b1dd 203a 8f60 183a 6c49 133a
000003b0: c49d 0d3a cd05 1c3a ec90 1c3a 1053 163a
000003c0: 9f3a 153a 12e7 133a 4869 0c3a c929 973c
000003d0: 3e8e a63c e683 af3c 6684 923c f33b a33c
000003e0: 69a7 ac3c c8e7 903c 3ba0 a03c 663e a93c
000003f0: 1cfd 4c3c 9b3c 683c 97c1 723c d437 3e3c

exp_avg_sq f4 [32, 3, 3, 3]
0.0015643804 0.0015949841 0.0015497194 0.001527124 0.0015300565 0.0015197363 0.0014710904 0.0014697411
0.0014828927 0.0016444033 0.001667177 0.0016271187 0.0015907517 0.0015881037 0.0015823202 0.001520839
0.001518565 0.0015315028 0.0013004926 0.0013216917 0.0012974403 0.0012602793 0.0012640078 0.0012703667
0.0012223241 0.001219361 0.0012426584 0.011055502 0.011211397 0.01094536 0.010684962 0.010552128
0.010207703 0.010504108 0.009916826 0.009594898 0.0116099855 0.011896869 0.011643882 0.011286771
0.011171478 0.010730978 0.0111000445 0.0103964945 0.009983926 0.009170111 0.009256896 0.00908765
0.0089484425 0.008803863 0.008619667 0.008825454 0.008376573 0.008166311 3.745737e-06 3.0409494e-06
1.2612477e-06 4.493951e-06 3.3020806e-06 1.2507437e-06 2.0621846e-06 1.5283733e-06 6.4017263e-07 9.467787e-06
8.0793425e-06 3.5483279e-06 1.2704209e-05 9.30586e-06 3.6702465e-06 6.1665082e-06 4.6476744e-06 2.2701477e-06
8.077419e-06 7.003654e-06 3.894581e-06 1.020128e-05 8.000346e-06 4.115295e-06 5.90493e-06 4.858532e-06
2.963349e-06 0.009662005 0.00998722 0.010502762 0.00913326 0.0089342445 0.00976864 0.009509024
0.008982786 0.009775615 0.011419496 0.011989206 0.012897242 0.01051199 0.010092411 0.011465028
0.011133621 0.0101904245 0.011541603 0.008598848 0.008971647 0.00942476 0.008200471 0.008120955
0.008820087 0.008547341 0.008212581 0.008930957 0.0008023213 0.00085148803 0.00078750117 0.0007987198
0.00079550804 0.0007557466 0.00081830745 0.00076147635 0.0007588023 0.001298359 0.0013940806 0.0012727514
0.0012655472 0.0012868213 0.0012218484 0.001289948 0.001192093 0.0012097704 0.0007531023 0.00079168373
0.00073389476 0.0007474523 0.0007475489 0.000718216 0.00076622027 0.00071422075 0.00071491173 0.0007590826
0.00077196665 0.0008592926 0.0007878252 0.0007956917 0.0008860343 0.0008599918 0.0008729248 0.00094931375
0.0013137023 0.0013410074 0.0014652249 0.0013519397 0.0013776097 0.0014997214 0.0014459153 0.0014825036
0.0015810772 0.0014839633 0.0015204886 0.0016022136 0.0015247859 0.0015478829 0.0016388036 0.0015815094
0.001626992 0.0016988064 9.445777e-05 8.878179e-05 8.4107756e-05 8.70682e-05 8.080995e-05 7.516656e-05
8.607256e-05 8.023586e-05 7.528753e-05 0.00016473308 0.0001584159 0.00014679346 0.00015153438 0.00014442195
0.00013249886 0.00015180938 0.00014513987 0.00013330045 0.00023576061 0.00022842789 0.00021616103 0.0002252648
0.0002180724 0.00020347115 0.00022548746 0.00021785965 0.00020526571 0.0017827323 0.0017848179 0.0017200398
0.0017808597 0.0017351593 0.0016655148 0.0017462729 0.0016777094 0.0016357409 0.001330595 0.0013295662
0.0012601924 0.0013183315 0.0012723744 0.0012035477 0.0012731153 0.0012180464 0.0011766194 0.0015868848
0.0015790821 0.0015285392 0.0015765463 0.0015414739 0.0014831546 0.0015504898 0.0015005585 0.0014620197
0.00010161793 0.00010875144 0.00011297157 8.1100814e-05 8.6399574e-05 9.709927e-05 6.8477886e-05 7.042883e-05
8.061878e-05 0.00011116884 0.00011870822 0.00012328313 8.904951e-05 9.423846e-05 0.00010667417 7.663571e-05
7.782012e-05 8.915642e-05 0.00011550787 0.00012234742 0.00012643506 9.763453e-05 0.00010254981 0.0001125362
8.549279e-05 8.7132605e-05 9.674654e-05 0.01597998 0.016253987 0.016570259 0.0169847 0.017548773
0.017370977 0.018110001 0.01882523 0.018126667 0.017247394 0.01762799 0.017884634 0.018388148
00000000: e50b cd3a c90e d13a f41f cb3a c729 c83a
00000010: 2d8c c83a e331 c73a 9ad1 c03a 54a4 c03a
00000020: 9f5d c23a 0589 d73a 2d85 da3a 0b45 d53a
00000030: c580 d03a eb27 d03a db65 cf3a e456 c73a
00000040: 960a c73a b5bc c83a 4a75 aa3a 9d3c ad3a
00000050: df0e aa3a f52f a53a 10ad a53a 6f82 a63a
00000060: 6436 a03a f7d2 9f3a b2e0 a23a 2322 353c
00000070: 02b0 373c 2b54 333c fb0f 2f3c d5e2 2c3c
00000080: 363e 273c 6c19 2c3c 2f7a 223c eb33 1d3c
00000090: cf37 3e3c 16eb 423c fbc5 3e3c 26ec 383c
000000a0: 9308 373c fcd0 2f3c f6dc 353c 0f56 2a3c
000000b0: 9f93 233c 3c3e 163c 3caa 173c 5ee4 143c
000000c0: 7d9c 123c 143e 103c 8139 0d3c a398 103c
000000d0: e53d 093c fecb 053c 465f 7b36 1d13 4c36
000000e0: 2448 a935 bfca 9636 5099 5d36 3adf a735
000000f0: 1064 0a36 8222 cd35 54d8 2b35 d6d7 1e37
00000100: 838c 0737 cf1f 6e36 2a24 5537 5d20 1c37
00000110: 5b4e 7636 e7e9 ce36 38f3 9b36 d758 1836
00000120: 4084 0737 ee00 eb36 32ae 8236 2a26 2b37
00000130: 3939 0637 1d16 8a36 f622 c636 7906 a336
00000140: f3dd 4636 634d 1e3c 70a1 233c c713 2c3c
00000150: aba3 153c f060 123c a50c 203c bdcb 1b3c
00000160: 892c 133c e729 203c d618 3b3c 606e 443c
00000170: f44e 533c 7b3a 2c3c a45a 253c d0d7 3b3c
00000180: cb69 363c bdf5 263c fe18 3d3c 2fe2 0c3c
00000190: d1fd 123c 4f6a 1a3c 455b 063c c10d 053c
000001a0: 2082 103c 260a 0c3c 108e 063c 2653 123c
000001b0: df52 523a 6536 5f3a 4f70 4e3a 2e61 513a
000001c0: a489 503a 4c1d 463a af83 563a d09d 473a
000001d0: 5cea 463a b32d aa3a 95b9 b63a 73d2 a63a
000001e0: b8e0 a53a 8faa a83a 6e26 a03a 7913 a93a
000001f0: 0140 9c3a 2991 9e3a d76b 453a ff88 4f3a
00000200: d862 403a adf0 433a 28f7 433a a946 3c3a
00000210: 2cdc 483a 8b3a 3b3a ea68 3b3a 2cfd 463a
00000220: ce5d 4a3a 2642 613a 0e86 4e3a f795 503a
00000230: c144 683a 1371 613a fed4 643a 5edb 783a
00000240: 8930 ac3a bec4 af3a ca0c c03a 9233 b13a
00000250: e990 b43a 4d92 c43a de84 bd3a 9150 c23a
00000260: 263c cf3a 8c81 c23a 224b c73a 5e01 d23a
00000270: 53db c73a 55e2 ca3a 20cd d63a a64a cf3a
00000280: cb40 d53a 7caa de3a a117 c638 5c30 ba38
00000290: 0263 b038 6298 b638 8378 a938 bda2 9d38
000002a0: db81 b438 4d44 a838 afe3 9d38 33bc 2c39
000002b0: 721c 2639 92ec 1939 33e5 1e39 f96f 1739
000002c0: 64ef 0a39 052f 1f39 b030 1839 91c6 0b39
000002d0: 8236 7739 2586 6f39 49a9 6239 0f35 6c39
000002e0: 5daa 6439 df5a 5539 d470 6c39 4171 6439
000002f0: 983c 5739 92aa e93a 8df0 e93a f572 e13a
00000300: bc6b e93a 496e e33a 674d da3a 32e3 e43a
00000310: 96e6 db3a 5b66 d63a 5c67 ae3a d744 ae3a
00000320: 0a2d a53a ddcb ac3a cdc5 a63a 5cc0 9d3a
00000330: a9de a63a dba6 9f3a cc38 9a3a 05ff cf3a
00000340: 34f9 ce3a 4459 c83a 1ea4 ce3a 480b ca3a
00000350: 6966 c23a ce39 cb3a 63ae c43a 3ea1 bf3a
00000360: b61b d538 7c11 e438 26eb ec38 ab14 aa38
00000370: 6b31 b538 c6a1 cb38 c99b 8f38 31b3 9338
00000380: e111 a938 5123 e938 fef2 f838 9045 0139
00000390: 17c0 ba38 e3a1 c538 42b6 df38 7cb7 a038
000003a0: 5c33 a338 7df9 ba38 d13c f238 634a 0039
000003b0: a793 0439 24c1 cc38 0310 d738 6a01 ec38
000003c0: 984a b338 f6ba b638 67e4 ca38 72e8 823c
000003d0: 1527 853c 5abe 873c 7f23 8b3c 72c2 8f3c
000003e0: 944d 8e3c 6d5b 943c 5e37 9a3c 607e 943c
000003f0: 684a 8d3c 9368 903c cc82 923c bea2 963c

exp_avg f4 [32]
0.034549963 0.07259391 -0.0020120095 0.03779755 -0.0069570076 0.030210333 0.0032345382 -0.010034186
0.0009633973 0.0014952577 -0.0027045554 0.015923936 6e-45 -0.005880076 -0.00022735051 0.0047416473
0.059012994 0.00092036935 -0.00048827147 -0.0006250863 0.102389194 0.009492005 0.013690311 -0.017443545
-0.00049780484 0.00220777 0.017848145 0.00013005896 0.016444549 -0.022917772 0.023036044 -0.0034968117
00000000: 4384 0d3d 1eac 943d ebdb 03bb 9bd1 1a3d
00000010: 9cf7 e3bb a97b f73c 8cfa 533b 6d66 24bc
00000020: 808c 7c3a 86fc c33a e93e 31bb ea72 823c
00000030: 0400 0000 a7ad c0bb f064 6eb9 d25f 9b3b
00000040: 9cb7 713d f144 713a b0fe ffb9 d5dc 23ba
00000050: 6db1 d13d 5b84 1b3c 544d 603c c4e5 8ebc
00000060: 1e7f 02ba 3cb0 103b 4636 923c 7060 0839
00000070: b8b6 863c 0dbe bbbc 16b6 bc3c c42a 65bb

exp_avg_sq f4 [32]
0.015169227 0.1297244 0.0004946829 0.21842474 0.012046395 0.019017432 0.0046164105 0.009316599
0.00017349621 0.25234854 0.004600466 0.039755967 2.0455245e-26 0.0020186743 0.0040554726 0.0008364945
0.2902088 0.00057323015 1.3311566e-06 3.0467987e-05 0.096780345 0.005560148 0.002998106 0.062162697
0.00021456857 0.0130325295 0.005151485 5.095904e-05 0.007706173 0.011597702 0.021843992 0.068189524
00000000: 5988 783c 79d6 043e 9cad 013a bcaa 5f3e
00000010: 3e5e 453c 72ca 9b3c 4245 973b a6a4 183c
00000020: 89ec 3539 d433 813e 82bf 963b 27d7 223d
00000030: 3594 ca14 bc4b 043b c5e3 843b 3248 5b3a
00000040: 3f96 943e d344 163a 31aa b235 8195 ff37
00000050: c634 c63d e731 b63b df7b 443b 509e 7e3d
00000060: d0fd 6039 6486 553c cacd a83b dabc 5538
00000070: 1184 fc3b 4a04 3e3c 2cf2 b23c f3a6 8b3d

exp_avg f4 [64, 32, 3, 3]
-8.371099e-06 -5.636558e-06 1.9217803e-06 -3.8750633e-05 -5.8994283e-06 2.0458714e-05 -8.781549e-05 -5.8321613e-05
-2.0286707e-05 -5.279392e-05 -8.108149e-05 -8.553878e-05 -7.101892e-05 -7.50646e-05 -7.175382e-05 -0.00011039284
-0.000105274645 -9.471314e-05 8.64239e-08 7.26569e-07 1.165015e-07 1.0457317e-05 1.1542954e-05 1.0559665e-05
1.6710099e-05 1.6695614e-05 1.5724097e-05 3.597134e-05 5.3795324e-05 5.6785168e-05 1.0871355e-05 4.14622e-05
5.2907646e-05 -3.4730925e-05 4.258169e-07 2.8554005e-05 0.00024218205 0.00024448466 0.00024098494 0.00025044795
0.00025341052 0.0002505509 0.00025651997 0.00026152268 0.0002584952 0.00046676386 0.00046906876 0.0004696033
0.0004413855 0.00044436994 0.00044726903 0.0004232991 0.00042760017 0.0004300735 -1.4322633e-05 -1.3570169e-05
-1.14334425e-05 -1.2910239e-05 -1.2579253e-05 -1.1455945e-05 -1.0607737e-05 -8.447997e-06 -6.6150574e-06 -0.00022929155
-0.0002544952 -0.000254044 -0.00023747585 -0.0002589573 -0.00025761317 -0.0002493118 -0.00027087823 -0.00026740308
4.012363e-06 6.8233867e-06 4.8807465e-06 8.161454e-06 1.0074139e-05 1.0200202e-05 4.496094e-06 1.289752e-05
1.8353327e-05 1.9797199e-05 -6.8495688e-06 -2.0839756e-05 -8.446028e-05 -8.998427e-05 -8.9116584e-05 -0.00019881852
-0.00022567181 -0.00022924475 3.243348e-05 2.9910845e-05 3.157927e-05 3.3124237e-05 3.0479563e-05 3.253119e-05
3.6211615e-05 3.4898792e-05 3.5957073e-05 -3.5597957e-05 -5.8697115e-05 -6.1563645e-05 -9.7723816e-05 -9.274289e-05
-0.00010122598 -0.00019159932 -0.00019682727 -0.0001909708 6e-45 -6e-45 -6e-45 -6e-45
-6e-45 -6e-45 -6e-45 -6e-45 -6e-45 3.7458901e-06 3.0175563e-06 3.4697687e-06
3.5418375e-06 2.3588138e-06 2.9243495e-06 3.4699826e-06 3.350128e-06 3.2091937e-06 9.106053e-06 -1.4850028e-06
-3.0519297e-07 8.30706e-06 -2.0430236e-06 -4.5141132e-07 8.670151e-06 -1.3639725e-06 5.6387296e-07 -3.22399e-05
-3.1928867e-05 -3.157806e-05 -2.8547636e-05 -2.5663696e-05 -2.609533e-05 -2.7295786e-05 -2.6191643e-05 -2.4116604e-05
-5.2026215e-05 -3.644857e-05 1.4626101e-05 -9.2283444e-05 -6.641006e-05 -4.2901256e-06 -0.00015693354 -0.00012221228
-6.0607686e-05 -4.1257244e-05 -4.301573e-05 -4.03383e-05 -6.422957e-05 -6.026153e-05 -6.394438e-05 -0.00011229716
-0.00011706605 -0.00011715073 1.3166912e-09 6.630268e-10 9.56446e-10 -5.1020606e-08 -2.8171385e-08 -3.6882327e-08
-2.7740072e-07 -1.8951248e-07 -1.9973781e-07 2.7441146e-07 1.7433528e-07 2.1219726e-07 1.4374515e-06 1.2720476e-06
2.5893753e-06 8.630632e-06 1.155998e-05 1.4029769e-05 6.692107e-05 -4.3957403e-05 -9.0439535e-05 2.8976569e-05
-6.029607e-05 -9.235212e-05 -5.8005617e-06 -0.00011335493 -0.0001505493 3.075022e-05 6.49316e-05 9.109355e-05
4.722114e-06 6.654306e-05 0.00011328326 -4.8965878e-05 1.16808205e-05 7.183798e-05 4.437374e-05 4.8417205e-05
5.9509297e-05 3.2138683e-05 4.1062754e-05 5.3033524e-05 1.4734369e-05 2.3695678e-05 3.5913836e-05 2.085755e-05
-3.04163e-05 -4.9155755e-05 1.7534327e-05 -2.680211e-05 -4.598105e-05 1.4928155e-05 -3.1257045e-05 -5.0240495e-05
-1.1735258e-06 -9.831573e-08 -1.010726e-08 -7.1324876e-06 -3.5844723e-06 -2.5631361e-06 -6.164029e-06 -7.948512e-06
-8.177875e-06 -6.987379e-05 -6.95325e-05 -4.2592397e-05 -0.00012836646 -0.00012435418 -0.00011028493 -0.00020143154
-0.00019308874 -0.00018452112 -0.0008366009 -0.00084220455 -0.0008256394 -0.00083888375 -0.0008432836 -0.0008230845
-0.00083819183 -0.0008414752 -0.0008245242 2.7346125e-05 2.6182803e-05 3.3363594e-05 2.9551818e-05 2.2491997e-05
2.9701621e-05 2.8809498e-05 1.7007153e-05 2.3222528e-05 -1.8498135e-05 -2.3050688e-05 -2.4096484e-05 -1.0218092e-05
00000000: 9971 0cb7 aa21 bdb6 eff7 0036 2d88 22b8
00000010: b4f3 c5b6 c19e ab37 9529 b8b8 5b9e 74b8
00000020: 5f2d aab7 0a6f 5db8 4b0a aab8 4863 b3b8
00000030: feef 94b8 006c 9db8 8a7a 96b8 b482 e7b8
00000040: e5c6 dcb8 bba0 c6b8 0b98 b933 7109 4335
00000050: 602f fa33 d671 2f37 9ca8 4137 6a29 3137
00000060: aa2c 8c37 8f0d 8c37 3ee7 8337 efdf 1638
00000070: 4aa2 6138 9c2c 6e38 1d64 3637 b3e7 2d38
00000080: 27e9 5d38 0cac 11b8 d49b e434 4287 ef37
00000090: 40f2 7d39 2d2e 8039 e7b0 7c39 8e4e 8339
000000a0: 2fdc 8439 5f5c 8339 877d 8639 fb1c 8939
000000b0: a386 8739 fcb7 f439 58ed f539 1735 f639
000000c0: c269 e739 53fa e839 6f7f ea39 3eee dd39
000000d0: 862f e039 7d7b e139 3e4b 70b7 6fab 63b7
000000e0: 43d2 3fb7 0e99 58b7 7b0b 53b7 e932 40b7
000000f0: e2f7 31b7 dfbb 0db7 e9f6 ddb6 fb6d 70b9
00000100: c46d 85b9 3531 85b9 f002 79b9 a9c4 87b9
00000110: 4110 87b9 10b6 82b9 a904 8eb9 3c32 8cb9
00000120: f0a1 8636 72f4 e436 4bc5 a336 2eed 0837
00000130: 1904 2937 8921 2b37 27dd 9636 6d62 5837
00000140: 78f5 9937 2912 a637 59d5 e5b6 09d1 aeb7
00000150: 4420 b1b8 f0b5 bcb8 1ae4 bab8 f179 50b9
00000160: 51a2 6cb9 6b61 70b9 2f09 0838 0de9 fa37
00000170: fc73 0438 e1ee 0a38 5dae ff37 1972 0838
00000180: ede1 1738 4b60 1238 9dd0 1638 044f 15b8
00000190: 8c31 76b8 bb1b 81b8 13f1 ccb8 f67e c2b8
000001a0: 4949 d4b8 0de8 48b9 6b63 4eb9 553f 48b9
000001b0: 0400 0000 0400 0080 0400 0080 0400 0080
000001c0: 0400 0080 0400 0080 0400 0080 0400 0080
000001d0: 0400 0080 e761 7b36 3981 4a36 2cda 6836
000001e0: 4eb0 6d36 1d4c 1e36 f13f 4436 d9dd 6836
000001f0: c3d2 6036 875d 5736 33c6 1837 4f50 c7b5
00000200: 67d9 a3b4 8d5e 0b37 e11a 09b6 8059 f2b4
00000210: 0476 1137 bd11 b7b5 0e5d 1735 5439 07b8
00000220: 5ceb 05b8 af72 04b8 9579 efb7 5e48 d7b7
00000230: 4be7 dab7 41f9 e4b7 20b6 dbb7 034e cab7
00000240: b936 5ab8 5be0 18b8 a062 7537 4c88 c1b8
00000250: a145 8bb8 e6f3 8fb6 878e 24b9 1c26 00b9
00000260: 0235 7eb8 a10b 2db8 ca6b 34b8 eb30 29b8
00000270: fdb2 86b8 53c1 7cb8 e119 86b8 1481 ebb8
00000280: 5b81 f5b8 d2ae f5b8 f4f6 b430 5d40 3630
00000290: f473 8330 c021 5bb3 88fd f1b2 8c68 1eb3
000002a0: aaed 94b4 cb7c 4bb4 8377 56b4 d352 9334
000002b0: eb30 3b34 57d8 6334 75ee c035 39bb aa35
000002c0: 21c5 2d36 48cc 1037 bcf1 4137 6661 6b37
000002d0: fa57 8c38 e75e 38b8 5baa bdb8 b512 f337
000002e0: 6ae6 7cb8 2bad c1b8 72a2 c2b6 f7b8 edb8
000002f0: c5dc 1db9 ccf9 0038 e32b 8838 7a09 bf38
00000300: a772 9e36 098d 8b38 7d92 ed38 b660 4db8
00000310: bef8 4337 b9a7 9638 f11d 3a38 9413 4b38
00000320: 9f99 7938 a6cc 0638 cc3a 2c38 5070 5e38
00000330: a233 7737 15c6 c637 30a2 1638 3ff7 ae37
00000340: 8226 ffb7 972c 4eb8 ae16 9337 18d5 e0b7
00000350: c7db 40b8 f073 7a37 ff19 03b8 52b9 52b8
00000360: 0a82 9db5 a521 d3b3 33a4 2db2 9a53 efb6
00000370: c48c 70b6 5802 2cb6 9bd4 ceb6 995a 05b7
00000380: b533 09b7 3589 92b8 fad1 91b8 3da5 32b8
00000390: 1c9a 06b9 1265 02b9 c548 e7b8 5e37 53b9
000003a0: dd77 4ab9 037c 41b9 564f 5bba 64c7 5cba
000003b0: b96f 58ba 89e8 5bba ce0f 5dba 44c4 57ba
000003c0: 1aba 5bba 7296 5cba e224 58ba 5b65 e537
000003d0: 24a3 db37 e3ef 0b38 0ce6 f737 32ad bc37
000003e0: bf27 f937 edab f137 95aa 8e37 00ce c237
000003f0: 712c 9bb7 fa5c c1b7 ce22 cab7 5f6e 2bb7
